results/TestParameters4/MoveToGoal/MoveToGoal-64411.pt (torch, 439245 bytes, 36 tensors)

network_body._body_endoder.seq_layers.0.weight f4 [128, 6]
0.056384835 -0.6052508 -0.22200352 -0.27620453 0.14303462 -0.3385788 0.20083532 0.043970164
-0.2598759 0.45731977 -0.28811938 0.24726367 -0.43743616 0.20919071 0.05428934 0.22634345
0.5456892 -0.49760234 -0.01874936 -0.35719386 0.392333 0.41592184 0.7119829 0.70260245
0.10225784 0.4642581 -0.69752175 -0.6254473 0.21045628 0.43610373 0.9015132 0.500716
0.77587944 0.2930088 -0.21716559 -0.79111546 -0.07275525 -0.08593196 -0.25603622 0.23014385
0.3849345 0.014479297 0.11990672 -0.0251449 0.6169625 0.6758282 0.7186537 -0.121402025
-0.34539574 0.029802287 -0.44855076 0.19648084 0.5225036 0.2812174 0.23706646 -0.02526595
-0.39260653 0.08367772 0.28981927 -0.86534655 0.25520056 -0.83453715 0.12165688 0.17508058
-0.0754602 0.004106575 0.21262369 0.38625544 0.022271596 0.029999534 0.38855645 -0.37840363
0.22294755 -0.6412133 0.11730948 0.25275627 -0.28624615 -0.23591241 -0.13926882 0.85262185
-0.27344686 -0.29911926 -0.78446203 0.7899548 -0.105460726 0.87489074 -0.5881152 0.13073166
-0.7313003 -0.036346957 -0.4325365 0.3344775 0.015161536 0.5064582 0.003827352 0.14917092
-0.10832907 -0.22227114 -0.7672637 0.15769085 -0.6816777 0.101077974 -0.19235261 0.29708615
0.19025306 0.034772262 0.255333 0.28576806 -0.18283617 -0.13679762 -0.43154564 -0.5111918
-0.038267195 -0.06902777 0.24136376 -0.4541177 -0.17528182 0.4332441 0.2585087 -0.24831648
-0.42329988 -0.43040952 0.056945987 0.22288539 0.085163616 0.12766726 0.027144292 -0.65842545
-0.38553455 -0.13467512 0.040522765 -0.7231515 -0.36018834 -0.055037525 -0.51666236 0.02545816
0.10592823 0.4147382 -0.28262836 0.04404512 -0.43568468 -0.06977438 0.5618793 0.42679015
-0.49144658 0.31364784 0.020690257 0.30989274 -0.22935759 -0.32871693 0.062534414 0.5664985
-0.32369775 -0.51361156 0.015043817 0.40596223 -0.16838986 -0.043001108 -0.20721264 0.22808416
-0.11925321 0.15794177 0.0049852016 -0.4102771 -0.13103501 0.28478768 -0.523208 0.6767108
-0.064512834 0.3836102 -0.06605193 0.2630961 0.043818653 0.38688162 0.18757522 0.26984534
-0.58530915 -0.8539744 0.39516136 0.009730727 -0.4442931 -0.50783664 -0.19099694 0.13961016
0.8184731 0.062433314 -0.01570856 -0.66290504 0.071139745 0.38246295 0.4574723 0.01704743
0.1571442 0.11102335 0.21944502 -0.6274119 -0.39232227 0.21526253 -0.12977368 -0.18753625
-0.17997949 -0.5024396 -0.32499135 0.21735318 0.51011825 0.27218103 0.29829782 0.05994666
-0.25925693 0.2856357 0.58740413 -0.0294123 -0.3488191 0.51023775 0.4230642 0.41211522
1.1073481 -0.005187677 0.13851936 0.21440272 0.15739878 0.43788487 -0.9492456 -0.07394492
-0.4117331 0.37114662 0.11387254 0.23160914 -0.30543903 0.1822778 0.080132 -0.054146536
-0.2627524 -0.18602355 0.03305261 -0.24058142 -0.40080485 0.39580107 0.1054677 0.28196132
-0.09193301 0.6076658 0.93677115 0.44552687 0.23671958 0.26809487 -0.46001583 -0.22229517
0.6377093 0.31397337 0.2213386 -0.26001078 0.034961812 0.108981326 0.15865676 -0.55731004
00000000: c9f3 663d b7f1 1abf e454 63be ae6a 8dbe
00000010: ab77 123e 335a adbe c6a7 4d3e 0f1a 343d
00000020: 740e 85be d125 ea3e 6284 93be b032 7d3e
00000030: a2f7 dfbe 1736 563e 805e 5e3d 94c6 673e
00000040: 4ab2 0b3f bcc5 febe 4298 99bc 1de2 b6be
00000050: dfdf c83e b5f3 d43e 8344 363f c1dd 333f
00000060: 8f6c d13d 3db3 ed3e c990 32bf 501d 20bf
00000070: da81 573e fd48 df3e 92c9 663f ec2e 003f
00000080: 09a0 463f 4005 963e a860 5ebe 8b86 4abf
00000090: b400 95bd 18fd afbd 2e17 83be d4aa 6b3e
000000a0: 2316 c53e 933a 6d3c a891 f53d adfc cdbc
000000b0: 41f1 1d3f 1403 2d3f b0f9 373f a0a1 f8bd
000000c0: b6d7 b0be ed23 f43c 72a8 e5be 4632 493e
000000d0: ccc2 053f bafb 8f3e 8dc1 723e 8afa cebc
000000e0: b903 c9be 395f ab3d 3163 943e 5a87 5dbf
000000f0: a6a9 823e 3aa4 55bf 3e27 f93d 5348 333e
00000100: e18a 9abd 7390 863b 06ba 593e 46c3 c53e
00000110: ec72 b63c 95c1 f53c dff0 c63e 1fbe c1be
00000120: 5d4c 643e 8e26 24bf f43f f03d 4569 813e
00000130: db8e 92be 0693 71be 7c9c 0ebe 6d45 5a3f
00000140: 3a01 8cbe 2926 99be 81d2 48bf 7a3a 4a3f
00000150: cbfb d7bd d7f8 5f3f b88e 16bf 85de 053e
00000160: 7f36 3bbf 8ce0 14bd 6d75 ddbe a340 ab3e
00000170: 1768 783c 3fa7 013f 50d4 7a3b 43c0 183e
00000180: a2db ddbd 0c9b 63be 656b 44bf b679 213e
00000190: 6e82 2ebf f801 cf3d 15f8 44be ad1b 983e
000001a0: b3d1 423e 5c6d 0e3d 02bb 823e 3150 923e
000001b0: 6839 3bbe ad14 0cbe 8df3 dcbe 77dd 02bf
000001c0: 10be 1cbd 6e5e 8dbd 1028 773e 1d82 e8be
000001d0: 147d 33be 2cd2 dd3e 415b 843e ad46 7ebe
000001e0: c3ba d8be a35e dcbe 3240 693d 113c 643e
000001f0: 436a ae3d 35bb 023e b55d de3c 928e 28bf
00000200: c964 c5be 46e8 09be 33fb 253d 7520 39bf
00000210: 9b6a b8be 076f 61bd fc43 04bf a28d d03c
00000220: e6f0 d83d 9158 d43e aab4 90be a868 343d
00000230: 1012 dfbe dfe5 8ebd 52d7 0f3f 3d84 da3e
00000240: e39e fbbe 7396 a03e 9d7e a93c 43aa 9e3e
00000250: b7dc 6abe 964d a8be 0b12 803d 0c06 113f
00000260: b6bb a5be 0c7c 03bf 587a 763c 48da cf3e
00000270: 646e 2cbe ee21 30bd 8d2f 54be e58e 693e
00000280: 073b f4bd 7dbb 213e e75a a33b d70f d2be
00000290: 0b2e 06be b1cf 913e f6f0 05bf eb3c 2d3f
000002a0: 4e1f 84bd 8e68 c43e 3c46 87bd 88b4 863e
000002b0: 307b 333d 5915 c63e b813 403e 2b29 8a3e
000002c0: d2d6 15bf 119e 5abf 9752 ca3e a16d 1f3c
000002d0: 637a e3be 9501 02bf b494 43be f7f5 0e3e
000002e0: 7487 513f 13ba 7f3d 3daf 80bc 25b4 29bf
000002f0: b7b1 913d 2fd2 c33e cf39 ea3e 0da7 8b3c
00000300: 69ea 203e 3660 e33d 32b6 603e 119e 20bf
00000310: 77de c8be c86d 5c3e 64e3 04be 8109 40be
00000320: 8b4c 38be e29f 00bf 4465 a6be d591 5e3e
00000330: 1c97 023f 505b 8b3e 7eba 983e a18a 753d
00000340: 53bd 84be d83e 923e 1e60 163f 10f2 f0bc
00000350: 6b98 b2be f19e 023f df9b d83e c400 d33e
00000360: 95bd 8d3f 64fd a9bb 05d8 0d3e 638c 5b3e
00000370: 252d 213e 7232 e03e c201 73bf 6f70 97bd
00000380: aece d2be ee06 be3e 0236 e93d f22a 6d3e
00000390: 8162 9cbe 08a7 3a3e 3f1c a43d c2c8 5dbd
000003a0: 7c87 86be f57c 3ebe 2c62 073d fa5a 76be
000003b0: 4b36 cdbe 70a6 ca3e 73ff d73d 3c5d 903e
000003c0: 6047 bcbd fc8f 1b3f 3cd0 6f3f 191c e43e
000003d0: 9e66 723e bb43 893e 3287 ebbe 58a1 63be
000003e0: eb40 233f 1ec1 a03e 96a6 623e 2220 85be
000003f0: 1e34 0f3d 9a31 df3d eb76 223e dfab 0ebf

network_body._body_endoder.seq_layers.0.bias f4 [128]
-0.07799909 -0.01159335 -0.015920864 -0.020107852 -0.016551958 0.029430272 -0.08309673 0.0027986674
0.0053575044 -0.068593904 0.002485525 -0.044022072 -0.07043568 -0.08508268 -0.021035988 -0.008924709
-0.033444006 -0.020656995 -0.015634311 -0.05916735 -4.531383e-06 -0.101468354 -0.02725259 -0.02252164
-0.0006170469 -0.059163783 -0.039744783 -0.027932573 -0.026042977 0.011322393 -0.04160064 -0.099362835
-0.062416453 -0.014852841 0.008224673 0.008411985 0.021166442 0.004311025 -0.046672042 -0.021721743
-0.0009905639 0.017155314 -0.021893805 -0.012598611 -0.021334935 -0.003901371 -0.02637278 -0.021431785
-0.0598633 -0.033401135 -0.06599404 -0.008671525 -0.028738456 -0.03861622 -0.020653436 -0.007784062
-0.0042792475 -0.026844934 -0.026197607 -0.0849253 -0.059967604 -0.01760167 -0.0090105105 -0.04601302
-0.05341218 -0.051876064 -0.035656758 -0.0031613035 -0.04655025 -0.0322659 -0.014171492 -0.02011463
-0.00078657275 -0.08401057 -0.02016701 -0.022912674 -0.054253243 -0.013808519 0.043852925 -0.04086855
-0.024736721 0.0363399 0.0434663 -0.014837459 0.0025813917 -0.01931275 -0.013687549 0.0003584012
-0.03764107 -0.011612188 0.03660066 -0.11341177 -0.079453595 -0.021932177 0.018584928 -0.015398665
-0.034502234 -0.020118797 -0.0787259 -0.021565208 -0.11661192 0.02185398 -0.04913301 -0.026036229
0.011357223 -0.017059153 -0.019844024 0.0026242302 0.0034019807 0.028433127 -0.093613066 0.009881897
-0.007904279 0.019604985 0.012096978 -0.03619853 -0.038644116 -0.024536401 -0.018566089 -0.05759692
-0.013775711 -0.02447741 -0.037504133 -0.03455565 -0.06477116 -0.061874874 -0.03951659 0.019852148
00000000: fdbd 9fbd 09f2 3dbc 796c 82bc 39b9 a4bc
00000010: f997 87bc c117 f13c 9e2e aabd d969 373b
00000020: 018e af3b f67a 8cbd 31e4 223b 7d50 34bd
00000030: 9540 90bd d43f aebd aa53 acbc f138 12bc
00000040: 95fc 08bd dc38 a9bc 8713 80bc 7759 72bd
00000050: 490c 98b6 a4ce cfbd d340 dfbc 4d7f b8bc
00000060: 51c1 21ba b955 72bd 6dcb 22bd dad2 e4bc
00000070: 1558 d5bc 8f81 393c 6f65 2abd be7e cbbd
00000080: 65a8 7fbd 5559 73bc c7c0 063c 6cd2 093c
00000090: 3f65 ad3c 8043 8d3b 2f2b 3fbd ccf1 b1bc
000000a0: cfd5 81ba 4d89 8c3c a35a b3bc 686a 4ebc
000000b0: 9ac6 aebc 25ae 7fbb ba0b d8bc b691 afbc
000000c0: 3833 75bd a1cf 08bd e227 87bd 0313 0ebc
000000d0: e96c ebbc 0b2c 1ebd 6531 a9bc 7211 ffbb
000000e0: ee38 8cbb e8e9 dbbc 5d9c d6bc 51ed adbd
000000f0: 97a0 75bd 6131 90bc d2a0 13bc 2678 3cbd
00000100: bbc6 5abd ff7b 54bd d20c 12bd df2d 4fbb
00000110: 7aab 3ebd 4029 04bd 8c2f 68bc 70c7 a4bc
00000120: 0132 4eba bc0d acbd 4935 a5bc 5cb3 bbbc
00000130: a638 5ebd 203d 62bc 209f 333d c865 27bd
00000140: aaa4 cabc 26d9 143d b809 323d d018 73bc
00000150: 912c 293b c635 9ebc be41 60bc cbe7 bb39
00000160: 862d 1abd 0c41 3ebc 93ea 153d 6e44 e8bd
00000170: 91b8 a2bd 1cab b3bc 6b3f 983c af4a 7cbc
00000180: 3752 0dbd 2dd0 a4bc 0b3b a1bd 85a9 b0bc
00000190: 3bd2 eebd 1e07 b33c b23f 49bd ee49 d5bc
000001a0: a513 3a3c a3bf 8bbc ef8f a2bc 47fb 2b3b
000001b0: c4f3 5e3b 97ec e83c 35b8 bfbd aee7 213c
000001c0: f380 01bc a29a a03c 6732 463c e944 14bd
000001d0: 4b49 1ebd 9000 c9bc e917 98bc bfea 6bbd
000001e0: 85b3 61bc d984 c8bc ef9d 19bd 3a8a 0dbd
000001f0: bea6 84bd 8270 7dbd 26dc 21bd f9a0 a23c

network_body._body_endoder.seq_layers.2.weight f4 [128, 128]
0.046252307 0.06398302 -0.08381937 -0.120572194 0.011310339 0.09852023 0.07472746 -0.071673214
0.04061203 -0.06554878 0.013332166 -0.09025256 -0.038498178 0.05438657 0.13947348 -0.05999337
-0.017806642 -0.071264215 -0.056776445 -0.04170506 0.10622243 0.11913835 -0.00072259933 0.013227494
0.1810361 0.026634157 0.1322788 -0.023000397 -0.03419871 0.27652687 0.049596056 -0.054223232
-0.007566728 -0.043930423 -0.022260908 -0.047587376 -0.06960278 0.07838952 0.1244118 0.16812222
-0.11142668 -0.097860195 0.055085693 -0.0003004646 0.06863258 0.025982069 -0.09213356 -0.023871342
0.09616045 -0.050343115 -0.019841809 0.1192625 -0.06056153 0.037156686 -0.043113578 -0.123519324
0.13721247 -0.116389334 -0.13770337 0.0036161237 0.12529895 -0.062263776 -0.07837206 0.023814837
-0.0049971077 -0.10426876 0.0017540476 0.10452951 0.03560658 0.010221121 -0.121467456 0.17291076
-0.17713448 -0.028717464 0.06932171 0.09353918 -0.121240295 -0.033066813 -0.085923724 -0.001502211
0.00026479497 -0.10815439 0.057987303 -0.057710033 -0.01804611 0.1843412 0.023817077 -0.17153911
0.07893876 0.077491865 0.027554372 -0.13845105 0.21618767 0.073610164 -0.11029099 -0.0070851897
-0.025677102 0.03168452 0.057636358 -0.13815586 -0.08522296 -0.035445537 -0.0070587336 -0.0024075566
-0.04257539 0.055102352 0.014969662 -0.012717148 0.019154428 -0.08518407 -0.065958716 0.03139271
-0.09885091 0.058281545 0.075846426 0.14426222 -0.03792862 0.021720693 0.015869485 -0.0013272671
-0.002715995 -0.06759361 0.054466333 0.046980973 0.2417305 -0.024956383 0.07215934 -0.084210604
-0.14841485 -0.039028738 -0.06244113 0.0019662606 -0.09083195 -0.0045104283 -0.06249509 0.0014887473
0.15393925 -0.1937131 -0.021189857 0.06552478 -0.050918475 0.053068724 0.05825471 0.02952601
-0.09962064 -0.027870446 -0.04316693 0.039464038 -0.015218308 -0.006944329 0.014642178 0.053958714
0.06760332 0.14441004 0.095482975 -0.025894308 0.0038055298 0.01691358 -0.099226266 0.018398227
0.057874404 0.14083435 -0.084558114 0.101707116 -0.1462802 0.013099259 -0.008299655 -0.00018062981
-0.022043655 -0.14596248 -0.13586015 0.016206436 -0.061184507 -0.00826035 -0.050520033 0.059946377
0.02058925 -0.0075277104 -0.06815301 -0.010147244 -0.061637502 0.052260842 0.0617891 -0.063821316
-0.12189534 0.10496204 0.10536151 -0.009267155 0.17664042 -0.0077265725 -0.23809215 -0.08725736
0.03628987 -0.02100905 -0.047721505 -0.08237723 0.0469843 -0.15910469 0.045119222 0.095741756
0.20262194 0.00811698 -0.1097174 -0.13776954 0.12132356 0.08622276 -0.02818746 0.01675134
-0.20749636 0.054899003 0.019006155 0.06408617 -0.015690075 -0.081258975 0.0256248 -0.05795669
-0.11271705 0.097623385 0.14334463 0.058518264 0.0030128805 -0.0045590103 -0.072556295 -0.021477453
0.15434933 -0.05297464 -0.020732693 0.18022865 0.008519225 -0.045328334 -0.059911754 0.06961267
0.012662215 -0.061202925 0.0318786 0.062082767 0.032773737 0.124517255 -0.0058459733 0.10078322
0.018973595 0.118315496 -0.12039242 0.12746704 -0.15767428 -0.048682023 0.040883467 0.03001502
0.109315306 -0.0012432658 -0.05147122 -0.08331874 -0.0912738 0.080409735 0.08003007 -0.10472099
00000000: 0f73 3d3d 8809 833d 7da9 abbd 8eee f6bd
00000010: 004f 393c f9c4 c93d b60a 993d 68c9 92bd
00000020: cd58 263d 703e 86bd 286f 5a3c 56d6 b8bd
00000030: 44b0 1dbd 74c4 5e3d 23d2 0e3e 9cbb 75bd
00000040: 3cdf 91bc f9f2 91bd 6b8e 68bd edd2 2abd
00000050: 258b d93d cffe f33d d26c 3dba 22b8 583c
00000060: 8761 393e e02f da3c 1874 073e 546b bcbc
00000070: f213 0cbd ee94 8d3e 3c25 4b3d 2e19 5ebd
00000080: 51f2 f7bb 63f0 33bd 825c b6bc fbea 42bd
00000090: e78b 8ebd af8a a03d 9dcb fe3d 3b28 2c3e
000000a0: ac33 e4bd ed6a c8bd 89a1 613d ad87 9db9
000000b0: 3d8f 8c3d 59d8 d43c 85b0 bcbd d58d c3bc
000000c0: c5ef c43d 9534 4ebd 4a8b a2bc e63f f43d
000000d0: 5e0f 78bd 9c31 183d dd97 30bd b3f7 fcbd
000000e0: 6d81 0c3e 885d eebd 1d02 0dbe 7dfc 6c3b
000000f0: 5e4e 003e 4d08 7fbd 8881 a0bd 5517 c33c
00000100: c7be a3bb dc8a d5bd 12e8 e53a 9113 d63d
00000110: 35d8 113d 7d76 273c eec3 f8bd 850f 313e
00000120: be62 35be e340 ebbc 8af8 8d3d 7891 bf3d
00000130: d54c f8bd 1171 07bd c7f8 afbd d6e5 c4ba
00000140: 2ed4 8a39 0c80 ddbd 1884 6d3d 5b61 6cbd
00000150: 70d5 93bc f1c3 3c3e 081c c33c f3a7 2fbe
00000160: a5aa a13d 0eb4 9e3d b5b9 e13c 1dc6 0dbe
00000170: 4d60 5d3e edc0 963d 3ee0 e1bd e12a e8bb
00000180: c958 d2bc a1c7 013d 1a14 6c3d bb78 0dbe
00000190: 6089 aebd 572f 11bd f34c e7bb 19c8 1dbb
000001a0: 8863 2ebd 01b3 613d 5043 753c 965b 50bc
000001b0: bfe9 9c3c fc74 aebd 5d15 87bd a495 003d
000001c0: 5972 cabd a1b8 6e3d 5f55 9b3d 7ab9 133e
000001d0: 0a5b 1bbd 98ef b13c b900 823c b2f7 adba
000001e0: d6fe 31bb 856e 8abd 1718 5f3d 1f6f 403d
000001f0: 3388 773e 5471 ccbc 47c8 933d 9c76 acbd
00000200: 10fa 17be 99dc 1fbd 45c2 7fbd 61dc 003b
00000210: 1a06 babd 37cc 93bb dafa 7fbd 1222 c33a
00000220: 40a2 1d3e ba5c 46be 5a96 adbc db31 863d
00000230: e48f 50bd 975e 593d 7e9c 6e3d 88e0 f13c
00000240: e805 ccbd 9050 e4bc cfcf 30bd 0ba5 213d
00000250: 3656 79bc 418d e3bb bfe5 6f3c d003 5d3d
00000260: 9c73 8a3d 3ae0 133e 948c c33d 4d20 d4bc
00000270: 3266 793b 598e 8a3c 2437 cbbd e1b7 963c
00000280: b60d 6d3d e136 103e ce2c adbd d24b d03d
00000290: 7aca 15be 469e 563c 47fb 07bc 7267 3db9
000002a0: e594 b4bc 3077 15be ec1e 0bbe 5cc3 843c
000002b0: 9b9c 7abd 6b56 07bc 18ee 4ebd 558a 753d
000002c0: c9aa a83c 03ab f6bb ce93 8bbd a040 26bc
000002d0: 9b77 7cbd 770f 563d 9116 7d3d c0b4 82bd
000002e0: 44a4 f9bd 57f6 d63d c6c7 d73d 44d5 17bc
000002f0: 3ae1 343e 302f fdbb 6ece 73be fdb3 b2bd
00000300: b0a4 143d 2c1b acbc a077 43bd 65b5 a8bd
00000310: 9c72 403d 57ec 22be efce 383d 4114 c43d
00000320: 207c 4f3e 15fd 043c 84b3 e0bd 7513 0dbe
00000330: 7d78 f83d 8f95 b03d 63e9 e6bc 1b3a 893c
00000340: ed79 54be c7dd 603d ccb2 9b3c 9c3f 833d
00000350: 7988 80bc 1b6b a6bd 1aeb d13c ff63 6dbd
00000360: 32d8 e6bd c5ee c73d efc8 123e d9b0 6f3d
00000370: bf73 453b c063 95bb 6598 94bd 7cf1 afbc
00000380: c00d 1e3e f0fb 58bd 9cd7 a9bc dc8d 383e
00000390: 3894 0b3c 34aa 39bd 0766 75bd 1691 8e3d
000003a0: 2e75 4f3c ebaf 7abd 2393 023d 804a 7e3d
000003b0: c13d 063d e702 ff3d 948f bfbb 6f67 ce3d
000003c0: 836e 9b3c 654f f23d 4d90 f6bd b886 023e
000003d0: 5e75 21be cd66 47bd 6c75 273d 0fe2 f53c
000003e0: b4e0 df3d 14f5 a2ba 7cd3 52bd 04a3 aabd
000003f0: c2ed babd dcad a43d cee6 a33d f577 d6bd

network_body._body_endoder.seq_layers.2.bias f4 [128]
-0.016833857 -0.00050824095 0.018169325 0.011572149 -0.042061243 -0.0305886 0.036117885 -0.041447774
0.0041735056 -0.023717819 0.015665933 0.009234886 -0.022825105 -0.004125607 0.007230366 -0.03712874
0.0057242922 -0.004245763 -0.014903128 0.015758304 -0.008266051 -0.034603696 -0.07136827 -0.02876514
-0.0138447685 -0.02128549 -0.010006387 0.013713276 0.010730958 -0.011935211 -0.03871942 0.0045307344
0.008264431 0.003822177 0.014681357 0.022268338 0.0068199043 0.009565327 0.0051344912 -0.013296745
0.047095295 -0.0213204 -0.015122439 0.018156461 0.011287531 -0.006306563 0.043794487 -0.032717984
-0.013230288 -0.012231052 0.0016465995 -0.010458091 -0.025015345 0.019885486 0.0029963453 0.008187441
-0.019344639 -0.013219208 -0.0099609345 0.019390104 -0.024660287 -0.022321466 0.0026950135 0.0023167885
-0.018719856 -0.007333676 -0.015145767 0.027033482 -0.0025899278 -0.014490558 -0.011153829 0.010670678
-0.013354221 0.031871606 -0.033090305 -0.017416863 -0.04269561 0.006301763 0.0017561918 -0.019477153
-0.00695294 -0.008546991 0.033032183 0.008159081 -0.04655713 0.022583734 -0.022379404 -0.021961529
0.01925462 -0.008958431 -0.0064709843 -0.01975976 0.00046199342 0.037957203 0.029774703 -0.0016783898
0.01686201 -0.0035354528 -0.03268195 0.0023839292 -0.008320595 0.0011771392 -0.0036526492 -0.0059832414
-0.02791843 -0.043030895 -0.045766212 -0.010148615 -0.0010916314 -0.04391734 -0.03069037 -0.00043234904
-0.03555 -0.015405793 0.04423458 0.01675688 0.0057551106 0.0047430834 -0.037761994 -0.0373816
-0.011245344 -0.030407168 0.033291362 -0.007927406 -0.034161214 -0.016775792 -0.0005697613 -0.02258214
00000000: 28e7 89bc 793b 05ba d6d7 943c 1c99 3d3c
00000010: 6948 2cbd f294 fabc 59f0 133d 24c5 29bd
00000020: e7c1 883b df4b c2bc d855 803c eb4d 173c
00000030: b7fb babc 1a30 87bb b5ec ec3b 4e14 18bd
00000040: d892 bb3b 0b20 8bbb 402c 74bc 8f17 813c
00000050: 556e 07bc 9bbc 0dbd 8729 92bd dfa4 ebbc
00000060: 2bd5 62bc e85e aebc d4f1 23bc a6ad 603c
00000070: e6d0 2f3c e78b 43bc 4198 1ebd 8e76 943b
00000080: 8967 073c 7d7d 7a3b 138a 703c 176c b63c
00000090: 8179 df3b e4b7 1c3c 3c3f a83b 97da 59bc
000000a0: ffe6 403d 1fa8 aebc 1bc4 77bc dcbc 943c
000000b0: 56ef 383c 49a7 cebb d961 333d 4b03 06bd
000000c0: dac3 58bc c064 48bc b6d2 d73a 6a58 2bbc
000000d0: fbec ccbc e3e6 a23c 555e 443b 9e24 063c
000000e0: a678 9ebc 6195 58bc 3033 23bc ffd7 9e3c
000000f0: 5f04 cabc 82db b6bc d39e 303b 43d5 173b
00000100: 625a 99bc 554f f0bb f325 78bc 5275 dd3c
00000110: c7bb 29bb ce69 6dbc 8dbe 36bc 11d4 2e3c
00000120: aacb 5abc cd8b 023d b389 07bd cfad 8ebc
00000130: 98e1 2ebd 057f ce3b 0530 e63a 8d8e 9fbc
00000140: 7dd5 e3bb ae08 0cbc c14c 073d abad 053c
00000150: b0b2 3ebd 8601 b93c 0355 b7bc aae8 b3bc
00000160: ddbb 9d3c 62c6 12bc 8d0a d4bb 38df a1bc
00000170: b537 f239 0379 1b3d 14ea f33c 6bfd dbba
00000180: 3322 8a3c 0eb3 67bb 82dd 05bd b23b 1c3b
00000190: 1b53 08bc 3d4a 9a3a 4961 6fbb 110f c4bb
000001a0: 31b5 e4bc 2a41 30bd 5a75 3bbd 6046 26bc
000001b0: 1215 8fba abe2 33bd 5f6a fbbc e8ac e2b9
000001c0: e09c 11bd 9468 7cbc 522f 353d b945 893c
000001d0: 5e95 bc3b de6b 9b3b 52ac 1abd 731d 19bd
000001e0: 643e 38bc 7418 f9bc 865c 083d f3e1 01bc
000001f0: a1ec 0bbd 636d 89bc 095c 15ba 2efe b8bc

action_model._continuous_distribution.log_sigma f4 [1, 2]
-0.17985946 -0.14917596
00000000: 142d 38be 95c1 18be

action_model._continuous_distribution.mu.weight f4 [2, 128]
-0.0006945519 0.0007685094 -0.013992656 0.028380265 0.013944085 0.00042629696 -0.08522131 0.0033725156
-0.023689799 -0.0044539236 0.027482402 -0.023840545 0.011267242 -0.00074287166 0.012209674 -0.0044840914
-0.006855198 -0.005330391 0.018951066 0.030801391 -0.023844283 0.02931519 0.017726738 -0.0075166887
0.0042746384 -0.0024043757 -0.014334563 -0.015390647 -0.030755317 -0.012411534 -0.0020484207 0.08637619
-0.027176242 -0.0035060202 0.0133540025 -0.034163848 -0.020569136 -0.025571095 0.065856814 0.052213006
-0.046013445 -0.0012932743 0.05366985 -0.010928698 -0.018519344 -0.005270071 0.037441075 -0.007619073
-0.014901818 0.037080128 -0.014932181 0.009272735 -0.004706724 0.050087504 0.050801735 -0.01298958
0.0010862763 0.0019673007 -0.0010357378 -0.013226566 0.021015184 -0.00049801863 -0.009108822 -0.031299885
-0.011351202 0.0021070526 0.039354447 -0.017202329 -0.017531687 -0.013358991 0.024186023 0.056484908
0.014330644 -0.033375155 0.0135244075 -0.016291223 0.0014135444 0.0004949666 0.014241516 -0.000936113
0.035354033 0.010625715 -0.017796418 -3.2375705e-05 0.017358411 -8.099768e-05 0.056188475 0.016439205
-0.009742386 0.0179648 0.009578427 -0.01433852 0.0042196345 -0.0005276773 0.038255315 -0.0009620674
0.05117327 -0.024122693 -0.0021024512 0.013727533 -0.00064873573 0.031200964 0.042426642 -0.018184386
0.024452304 -0.0017837156 0.018761665 -0.01926743 0.007012247 -0.009078762 0.016902763 0.04526022
0.002930348 0.03478999 0.0013498683 -0.05588379 0.025791321 0.018493915 -0.0033157207 -0.0020822901
-0.0149582 -0.003743696 0.032413773 0.04080137 0.016945772 -0.008961348 0.0066056265 0.017084938
0.021347556 -0.0043308414 -0.015765099 -0.043166984 -0.012736326 -0.0016000847 0.025639271 0.022681328
0.019001836 -0.02162719 -0.046809208 0.023402344 0.03523816 -0.0038236915 -0.03650935 -0.002653581
-0.014202392 -0.0139026 -0.0071879863 -0.04048951 0.018109374 0.013185516 -0.0011517166 -0.011857865
0.04232125 0.02689659 -0.0020429008 -0.051250752 0.020614536 0.01403834 -0.0009722182 0.037502903
0.001965577 0.00073606166 -0.025122616 -0.031820286 -0.022507438 -0.027869353 0.025716593 -0.014714349
0.0036243706 -0.005577178 0.029299574 0.0031771127 0.05022315 -0.00090384635 0.08061595 0.01827288
-0.008038061 0.021387152 -0.009966772 -0.023932647 0.026852157 -0.058188673 -0.03226108 0.002686059
0.014992727 0.008287245 -0.007695591 -0.04184586 0.028759763 0.029375728 0.0059302268 -0.014970166
0.0022753982 -0.02877066 0.046724312 0.027385803 -0.015658807 0.0010858605 -0.018342657 0.015562457
-0.035447154 -0.0067308405 -0.005292987 -0.0026797734 0.0031535951 -0.004858237 0.04404017 0.006483247
-0.03508353 -0.011235347 -0.021730045 -0.034111045 0.024180278 -0.034859024 9.871538e-05 0.0042048567
-0.019858465 0.0353642 -0.02290391 0.02518642 -0.018721124 0.060331233 -0.108835556 0.04586454
-0.05241941 -0.005599412 0.0137721235 -0.008793893 -0.004461743 -0.029234856 -0.00088143523 -0.023363693
-0.022429593 -0.008129839 -0.007903641 -0.005681683 -0.025496775 0.0031228473 0.01581069 0.044316698
-0.0117683755 -0.008125112 0.0651602 0.016920272 -0.041136805 -0.021160474 0.0022656359 0.0071293036
0.006296358 -0.0023043212 0.08294332 -0.0321618 0.041081656 0.012279025 0.012501237 -0.02126928
00000000: 9712 36ba cb75 493a 7441 65bc bb7d e83c
00000010: bb75 643c 9c80 df39 8388 aebd 6c05 5d3b
00000020: 1c11 c2bc 38f2 91bb c622 e13c 3f4d c3bc
00000030: 3d9a 383c 46bd 42ba 160b 483c 49ef 92bb
00000040: 92a1 e0bb 90aa aebb 443f 9b3c 3353 fc3c
00000050: 1655 c3bc 6926 f03c aa37 913c 8e4e f6bb
00000060: 4412 8c3b bb92 1dbb 84db 6abc 0d29 7cbc
00000070: 93f2 fbbc bf59 4bbc cc3e 06bb 00e6 b03d
00000080: b6a0 debc 42c5 65bb bfca 5a3c 64ef 0bbd
00000090: 9b80 a8bc 797a d1bc f0df 863d 4edd 553d
000000a0: 9878 3cbd 1683 a9ba ebd4 5b3d 480e 33bc
000000b0: e1b5 97bc 8fb0 acbb d05b 193d 6ba9 f9bb
000000c0: c126 74bc 55e1 173d 1ba6 74bc abec 173c
000000d0: dd3a 9abb 8e28 4d3d 7b15 503d 3fd2 54bc
000000e0: 6261 8e3a d4ed 003b 98c1 87ba 3db4 58bc
000000f0: 0928 ac3c 778d 02ba 2b3d 15bc 4f34 00bd
00000100: 64fa 39bc 7a16 0a3b 2132 213d e6eb 8cbc
00000110: 9d9e 8fbc abdf 5abc c421 c63c b85c 673d
00000120: 14cb 6a3c 63b4 08bd 7a95 5d3c 2c75 85bc
00000130: ae46 b93a a5c0 013a 3f55 693c 7b65 75ba
00000140: 64cf 103d 7b17 2e3c cbc9 91bc 26cb 07b8
00000150: 3a33 8e3c 4cdd a9b8 e325 663d 83ab 863c
00000160: 879e 1fbc eb2a 933c d6ee 1c3c 1dec 6abc
00000170: dc44 8a3b d353 0aba 9bb1 1c3d 4033 7cba
00000180: 109b 513d f49c c5bc 47c9 09bb 72e9 603c
00000190: eb0f 2aba 2a99 ff3c 8fc7 2d3d 6cf7 94bc
000001a0: 3350 c83c 90cb e9ba 10b2 993c bbd6 9dbc
000001b0: fec6 e53b 16bf 14bc aa77 8a3c c862 393d
000001c0: 150b 403b f37f 0e3d 10ee b03a 67e6 64bd
000001d0: 5248 d33c 8d80 973c 904c 59bb 0877 08bb
000001e0: 3d13 75bc cc58 75bb 4ec4 043d 561f 273d
000001f0: dcd1 8a3c 9ed2 12bc 0374 d83b b6f5 8b3c
00000200: 12e1 ae3c bbe9 8dbb cf25 81bc ddcf 30bd
00000210: 06ac 50bc efb9 d1ba 7309 d23c 31ce b93c
00000220: bda9 9b3c 812b b1bc 03bb 3fbd 46b6 bf3c
00000230: e455 103d e696 7abb d48a 15bd b4e7 2dbb
00000240: 26b1 68bc bbc7 63bc 3389 ebbb 54d8 25bd
00000250: 1c5a 943c 1008 583c 32f5 96ba 7e47 42bc
00000260: 0c59 2d3d 3d56 dc3c 30e2 05bb 4fec 51bd
00000270: d1df a83c 1101 663c 75dc 7eba a59c 193d
00000280: e9d0 003b 43f4 403a f2cd cdbc fd55 02bd
00000290: 8561 b8bc 454e e4bc 9bab d23c 7414 71bc
000002a0: d986 6d3b c3c0 b6bb a905 f03c 1b37 503b
000002b0: cab6 4d3d 1af0 6cba fa19 a53d 02b1 953c
000002c0: 12b2 03bc 1c34 af3c ac4b 23bc 660e c4bc
000002d0: 0ef9 db3c 3f57 6ebd 3224 04bd 9808 303b
000002e0: 0ea4 753c 3ac7 073c 4c2b fcbb 9166 2bbd
000002f0: 9899 eb3c 5ea5 f03c 5952 c23b 6d45 75bc
00000300: d91e 153b 72b0 ebbc fe61 3f3d 3158 e03c
00000310: e646 80bc 6f53 8e3a 5743 96bc adf9 7e3c
00000320: 0931 11bd 628e dcbb cb70 adbb 239f 2fbb
00000330: 8cac 4e3b d931 9fbb 7763 343d 6b71 d43b
00000340: bfb3 0fbd 7614 38bc 3503 b2bc 06b8 0bbd
00000350: b815 c63c 56c8 0ebd 6b05 cf38 e5c8 893b
00000360: 38ae a2bc 0dda 103d fba0 bbbc c053 ce3c
00000370: 0b5d 99bc e21d 773d 2de5 debd 75dc 3b3d
00000380: bcb5 56bd 467b b7bb 79a4 613c 4314 10bc
00000390: d033 92bb f07d efbc 1e10 67ba 3765 bfbc
000003a0: 44be b7bc 0433 05bc 467e 01bc 692d babb
000003b0: 9dde d0bc afa8 4c3b 6c85 813c 6d85 353d
000003c0: 25d0 40bc 311f 05bc b672 853d 629c 8a3c
000003d0: 117f 28bd bb58 adbc 107b 143b ef9c e93b
000003e0: ae51 ce3b 1804 17bb 30de a93d 17bc 03bd
000003f0: 3d45 283d f72d 493c fdd1 4c3c ea3c aebc

action_model._continuous_distribution.mu.bias f4 [2]
-0.021239497 0.011439352
00000000: 74fe adbc 1f6c 3b3c

exp_avg f4 [128, 6]
0.00024860862 0.0001619458 -0.00046740755 -0.0006617601 0.00020245124 -0.0010751912 -0.00068330654 -0.00033824812
0.00080674014 -0.0013843788 -0.00042281588 -0.0015573088 -0.00017870116 -0.0002094722 0.0006218663 0.0013227211
-0.0002618563 0.0020337384 -7.124168e-05 0.0002575886 -6.47273e-05 0.00088569574 0.00032204136 0.0009537654
0.00014870966 -0.0001268603 2.933396e-05 -0.00018381797 -0.0001588689 -0.00012351868 -0.00018390686 0.00011009806
-0.00013678192 -0.0001463248 0.00013748313 -0.0003073267 -0.000104504594 -0.00018710457 0.00018660733 -0.00070775923
-0.00023409944 -0.0007760583 0.00029317552 0.00037487003 -0.00048527116 0.0014136786 0.00046857985 0.0015595823
0.000177339 -0.00026246606 -4.0581024e-05 -0.0008660423 -0.00032927367 -0.0008917733 -0.00013148211 -1.9356469e-06
2.9719971e-05 -0.00010743339 -2.262183e-06 -0.00014604724 -8.2871506e-05 6.083104e-05 3.9371454e-05 0.00021251639
7.608579e-05 0.00022844675 2.1155536e-05 9.293163e-05 -8.4017e-05 0.00037018122 0.00011621139 0.0004092369
-7.6005825e-05 -3.5039255e-05 0.00016823734 0.00064849824 -4.378257e-05 0.0009239737 0.00035505195 0.0001759103
-0.00043934936 0.0005957848 0.00022001947 0.0006347908 0.0001066763 -0.00020647648 -6.424889e-06 -0.0011598868
-0.00025897383 -0.0013599178 0.00031440458 1.9695965e-06 -0.00026999757 6.720497e-05 2.2281354e-06 9.878742e-05
5.5143882e-05 -0.00017044938 0.000112120586 -0.00030368622 -0.00021332935 -0.00023551322 0.00013023685 0.00014930712
-0.00018131522 0.000542034 0.00018677751 0.0005910665 -0.00010271787 -0.00019915354 0.00043022155 0.0005424156
-0.000249295 0.00094735227 1.4990207e-05 -3.6805497e-05 2.8116492e-05 2.6905077e-06 -4.5978217e-05 4.094955e-05
0.00027391218 0.0001321727 -0.0003093454 0.0005077446 0.00016515277 0.0005623937 -8.556338e-05 -2.8684822e-06
6.9989596e-06 1.5099187e-05 -3.8417616e-06 3.065086e-05 0.00027729038 -0.00010793304 -0.00014818608 -0.00012236877
-0.00013526643 -4.9785733e-05 0.00011524447 -0.00032411393 0.00014926959 -0.00067182764 -0.0004057476 -0.0005744829
-0.00010718529 -0.00021459271 0.00060420943 0.0014938446 -0.000268229 0.0022706299 4.946966e-05 -0.00013680912
0.000100464385 -0.00022072198 -0.0001712648 -0.00016240301 3.8145397e-05 -5.9211948e-06 -6.318542e-06 8.911838e-05
-7.565894e-06 0.00013392005 0.0005948917 0.00035032697 -0.000793456 0.00097645906 0.00043792423 0.0009815936
-4.6835277e-05 -5.005207e-05 5.602867e-05 -0.00018862989 -6.27527e-05 -0.0002051435 9.352368e-05 0.00010026656
-0.00041619458 -0.0017287118 0.00012533602 -0.002490736 0.00024400068 -3.5675344e-05 -0.00010361611 0.00038282864
-4.4981563e-05 0.0005694715 0.00015024554 0.00014583352 -0.00020288443 0.00056887587 0.00018233949 0.0006309517
8.599338e-05 7.885995e-05 -0.00017579632 -0.000293937 9.894326e-05 -0.0004914955 -7.999273e-06 -2.595333e-06
1.751966e-05 -0.00017528252 -2.7914566e-06 -0.00025356392 -0.00035366762 6.560726e-05 0.0002752551 4.1802843e-05
8.21043e-05 -1.0985476e-05 -0.0004669895 -0.00012953137 0.00044231166 -0.000613637 -0.0001618265 -0.0007153294
-0.0010970107 -0.0004284012 0.0011875355 -0.0020077445 -0.00053547556 -0.0023178072 0.0005288361 0.00013356059
-0.00049156597 0.00077432476 0.00016684446 0.0009350549 7.689856e-05 2.4224087e-06 -3.835243e-05 -1.4927823e-05
2.914978e-06 -1.9807336e-05 -5.7615885e-05 -0.0002428937 0.00013114909 -0.0009848189 -0.00030396268 -0.0010957507
0.00013403803 0.00050884206 -0.00039866826 0.0016768086 0.0006359964 0.00179587 0.00014328811 0.00018502613
-0.00021044396 0.00084088754 0.00023137 0.0009762576 0.00029727223 0.00024337458 -0.0006592995 -0.00085056503
00000000: af57 8239 ffcf 2939 610e f5b9 f879 2dba
00000010: 1749 5439 6eed 8cba ed1f 33ba e556 b1b9
00000020: 6a7b 533a 0b74 b5ba 63ad ddb9 9d1e ccba
00000030: ba61 3bb9 c4a5 5bb9 be04 233a 285f ad3a
00000040: c249 89b9 7848 053b 9667 95b8 f50c 8739
00000050: 34be 87b8 092e 683a a9d7 a839 1d06 7a3a
00000060: f2ee 1b39 cd05 05b9 3312 f637 43bf 40b9
00000070: 0c96 26b9 cb84 01b9 1fd7 40b9 72e4 e638
00000080: 1e6d 0fb9 c46e 19b9 5929 1039 b120 a1b9
00000090: 7a29 dbb8 8031 44b9 06ac 4339 eb88 39ba
000000a0: 9778 75b9 6470 4bba 5ab5 9939 348a c439
000000b0: fe6b feb9 2f4b b93a b9ab f539 e66a cc3a
000000c0: 13f4 3939 999b 89b9 8b35 2ab8 1d07 63ba
000000d0: 5da2 acb9 e5c5 69ba 76de 09b9 29e6 01b6
000000e0: 274f f937 dd4d e1b8 02d0 17b6 4224 19b9
000000f0: 4dcb adb8 d524 7f38 c722 2538 efd6 5e39
00000100: 3f90 9f38 358b 6f39 2b77 b137 4ae4 c238
00000110: 4932 b0b8 e214 c239 84b6 f338 d98e d639
00000120: 5165 9fb8 1df7 12b8 de68 3039 fbff 293a
00000130: 2da3 37b8 d336 723a 4426 ba39 9074 3839
00000140: 7958 e6b9 712e 1c3a 07b5 6639 1768 263a
00000150: 67b7 df38 9c81 58b9 6095 d7b6 5807 98ba
00000160: e1c6 87b9 453f b2ba abd6 a439 692d 0436
00000170: 768e 8db9 65f0 8c38 1387 1536 182c cf38
00000180: 4b4a 6738 a8ba 32b9 4822 eb38 1338 9fb9
00000190: 29b1 5fb9 19f4 76b9 3090 0839 538f 1c39
000001a0: 6f1f 3eb9 4917 0e3a b5d9 4339 cdf1 1a3a
000001b0: 3d6a d7b8 dfd3 50b9 5c8f e139 e530 0e3a
000001c0: cfb3 82b9 bc57 783a 737e 7b37 9a5f 1ab8
000001d0: b5db eb37 928e 3436 bcd8 40b8 3fc1 2b38
000001e0: df9b 8f39 d797 0a39 a32f a2b9 2a1a 053a
000001f0: dc2c 2d39 9a6d 133a 7d70 b3b8 2680 40b6
00000200: 9bd8 ea36 8452 7d37 7be8 80b6 1c8f 0038
00000210: 4961 9139 1c5a e2b8 6662 1bb9 1e50 00b9
00000220: 4ed6 0db9 06d1 50b8 67af f138 d6ed a9b9
00000230: 4085 1c39 971d 30ba 85ba d4b9 e598 16ba
00000240: aac8 e0b8 4b04 61b9 cf63 1e3a 1bcd c33a
00000250: 16a1 8cb9 d9ce 143b a57d 4f38 6b74 0fb9
00000260: 68b0 d238 9b71 67b9 8b95 33b9 ba4a 2ab9
00000270: 4ffe 1f38 adae c6b6 dd03 d4b6 11e5 ba38
00000280: 89de fdb6 e46c 0c39 82f2 1b3a 17ac b739
00000290: eeff 4fba 0ff9 7f3a 3299 e539 d1a8 803a
000002a0: ff70 44b8 00ef 51b8 5400 6b38 f3ca 45b9
000002b0: 199a 83b8 ca1b 57b9 2522 c438 3346 d238
000002c0: b134 dab9 f195 e2ba a26c 0339 9e3b 23bb
000002d0: 6fda 7f39 1ca2 15b8 7a4c d9b8 64b6 c839
000002e0: 96aa 3cb8 9648 153a 3b8b 1d39 e3ea 1839
000002f0: 60bd 54b9 9d20 153a 6232 3f39 7466 253a
00000300: 5857 b438 9d61 a538 f755 38b9 8e1b 9ab9
00000310: c27f cf38 b4d7 00ba 9e34 06b7 7b2b 2eb6
00000320: 2ff7 9237 0bcc 37b9 dc54 3bb6 c6f0 84b9
00000330: 776c b9b9 a196 8938 1d50 9039 7655 2f38
00000340: 692f ac38 434e 38b7 45d6 f4b9 d0d2 07b9
00000350: 11e6 e739 7bdc 20ba f8af 29b9 f284 3bba
00000360: 92c9 8fba 099b e0b9 14a7 9b3a 5d94 03bb
00000370: 285f 0cba 5ae6 17bb 97a1 0a3a 660c 0c39
00000380: 6fdc 00ba 0efc 4a3a f8f2 2e39 791e 753a
00000390: 9a44 a138 aa90 2236 9cdc 20b8 8372 7ab7
000003a0: f19e 4336 ee27 a6b7 96a8 71b8 48b1 7eb9
000003b0: 1185 0939 0a15 81ba 2e5d 9fb9 4b9f 8fba
000003c0: 8f8c 0c39 d063 053a 5904 d1b9 5cc8 db3a
000003d0: ffb8 263a 6663 eb3a 9c3f 1639 9303 4239
000003e0: 9faa 5cb9 026f 5c3a e99b 7239 8aeb 7f3a
000003f0: 34db 9b39 5e32 7f39 d7d4 2cba 74f8 5eba

exp_avg_sq f4 [128, 6]
3.0697445e-06 4.1043737e-07 6.376772e-06 6.2427534e-06 6.3069007e-07 1.0280389e-05 3.1754287e-05 2.8471386e-06
4.0893272e-05 5.160037e-05 4.3275245e-06 4.7908394e-05 4.6742294e-05 6.337715e-06 5.8643003e-05 8.610286e-05
9.708795e-06 0.00013206569 3.8271195e-05 3.188519e-06 2.8977784e-05 7.229205e-05 4.9408645e-06 5.2193773e-05
1.3576378e-05 2.1517599e-06 2.2949307e-05 3.799205e-05 3.3171307e-06 4.4721543e-05 3.3466207e-05 5.799108e-06
6.145073e-05 8.0392165e-05 8.944296e-06 0.00011427391 1.2690953e-05 1.2385281e-06 1.0957435e-05 2.3368653e-05
1.9075435e-06 2.5813782e-05 5.2488707e-05 7.405224e-06 9.039599e-05 0.000105542334 1.1348665e-05 0.00011800877
7.670759e-05 6.80942e-06 8.719417e-05 9.32186e-05 1.0449424e-05 0.00012302311 4.210004e-06 4.95772e-07
5.828154e-06 7.1348722e-06 7.567005e-07 1.298484e-05 2.4917013e-06 3.3779338e-07 3.42748e-06 6.155722e-06
5.203108e-07 6.0728416e-06 1.2429095e-05 1.6528463e-06 1.6459355e-05 2.0765026e-05 2.5388374e-06 3.5314446e-05
4.6241107e-06 4.1081637e-07 8.163316e-06 6.9686685e-06 6.2124e-07 7.735219e-06 7.260204e-06 4.8905883e-07
6.9366365e-06 1.16178e-05 7.3710174e-07 1.21922585e-05 4.7031786e-05 4.950817e-06 5.70157e-05 6.579337e-05
7.604991e-06 0.00010713277 6.887657e-05 5.8718783e-06 5.9549224e-05 9.933538e-05 8.959529e-06 0.00010698634
1.6690652e-05 1.670273e-06 1.9843645e-05 2.3358814e-05 2.565456e-06 3.2103613e-05 9.413201e-06 1.4307925e-06
1.804326e-05 2.1407895e-05 2.177056e-06 2.5469799e-05 2.5120236e-05 2.9036462e-06 3.0732066e-05 3.0128671e-05
4.42008e-06 7.380754e-05 5.2777414e-06 8.591393e-07 6.6651914e-06 1.4493976e-05 1.3230854e-06 1.9434134e-05
5.7557168e-06 8.1693526e-07 6.776749e-06 1.5561936e-05 1.2526739e-06 1.5689711e-05 3.743869e-06 6.253627e-07
5.032398e-06 1.081974e-05 9.636171e-07 1.8706554e-05 3.2360924e-05 3.0833494e-06 2.859801e-05 4.810554e-05
4.756449e-06 5.547763e-05 5.0374398e-05 5.9475187e-06 5.6204943e-05 0.00010453404 9.210112e-06 0.00012639789
4.4005443e-05 6.13795e-06 5.9993166e-05 8.490163e-05 9.4108345e-06 0.00012946126 1.4847448e-05 2.1078288e-06
2.8378268e-05 3.5359302e-05 3.2487053e-06 4.5639394e-05 1.5970686e-06 1.7693768e-07 1.9048509e-06 3.2921391e-06
2.7331168e-07 3.893649e-06 1.2965817e-05 9.269771e-07 1.3361435e-05 1.5698462e-05 1.3723647e-06 2.0766653e-05
6.7184224e-06 7.7740503e-07 1.0069131e-05 1.9877747e-05 1.1926991e-06 1.6761163e-05 4.7407113e-05 8.1539165e-06
9.772268e-05 0.00013733182 1.2591161e-05 0.00016450655 1.5465886e-05 1.7016853e-06 1.645045e-05 2.3692503e-05
2.6211328e-06 3.0487336e-05 2.8498764e-06 2.464278e-07 2.9806245e-06 4.398636e-06 3.7360147e-07 4.8587267e-06
1.33057765e-05 1.8349921e-06 3.92309e-05 3.2523458e-05 2.8236136e-06 2.8798264e-05 4.923756e-06 8.211886e-07
1.2343789e-05 1.42853905e-05 1.2700378e-06 1.657527e-05 1.5828708e-05 2.6233834e-06 2.7373413e-05 4.2539705e-05
4.0341993e-06 4.1827447e-05 4.417376e-05 5.94345e-06 5.660994e-05 0.000108790984 9.069803e-06 8.5198895e-05
8.938798e-05 1.14175255e-05 0.00018053492 0.00016829796 1.7189908e-05 0.00017961209 5.135531e-05 6.2017493e-06
6.104407e-05 0.00010232722 9.584244e-06 0.000121334866 5.5545615e-06 7.2813475e-07 6.8292356e-06 1.135641e-05
1.1141898e-06 1.5279478e-05 1.4614434e-05 1.9978256e-06 1.9767373e-05 3.516768e-05 3.0775284e-06 3.2194337e-05
6.071944e-05 9.588816e-06 8.483977e-05 0.00016579733 1.4814054e-05 0.0001682811 6.458688e-05 9.723005e-06
0.00010452297 0.00014380255 1.4802338e-05 0.00018053426 1.134361e-05 2.2628262e-06 2.8141625e-05 4.762444e-05
00000000: cf01 4e36 155a dc34 0ef8 d536 d878 d136
00000010: b14c 2935 ef79 2c37 e82f 0538 7811 3f36
00000020: d184 2b38 7a6d 5838 2735 9136 3ff1 4838
00000030: 280d 4438 8fa8 d436 72f7 7538 1f92 b438
00000040: f5e2 2237 1d7b 0a39 6285 2038 57fa 5536
00000050: 5115 f337 809b 9738 b4c9 a536 a3ea 5a38
00000060: 19c6 6337 f466 1036 4383 c037 a759 1f38
00000070: df9b 5e36 6493 3b38 115e 0c38 f595 c236
00000080: 1cdf 8038 3798 a838 750f 1637 57a6 ef38
00000090: 3aeb 5437 803b a635 d3d5 3737 cd07 c437
000000a0: 5903 0036 ad8a d837 5227 5c38 647a f836
000000b0: fa92 bd38 9c56 dd38 2566 3e37 7a7b f738
000000c0: 13de a038 797c e436 03dc b638 5b7e c338
000000d0: ef4f 2f37 c4ff 0039 a943 8d36 3115 0535
000000e0: 768f c336 1668 ef36 1020 4b35 77d9 5937
000000f0: 1a37 2736 f859 b534 a803 6636 408d ce36
00000100: 7cab 0b35 50c5 cb36 8e86 5037 5ed7 dd35
00000110: 3212 8a37 8e30 ae37 e560 2a36 991e 1438
00000120: cf28 9b36 2c8e dc34 2df5 0837 68d4 e936
00000130: 4ac3 2635 83c6 0137 ad9c f336 de47 0335
00000140: 41c1 e836 12ea 4237 3fdd 4535 5a8d 4c37
00000150: ff43 4538 321f a636 2424 6f38 8cfa 8938
00000160: 602e ff36 78ac e038 d471 9038 0d07 c536
00000170: 7ec4 7938 4752 d038 e250 1637 db5d e038
00000180: e702 8c37 252e e035 e775 a637 acf2 c337
00000190: 332a 2c36 fea6 0638 64ed 1d37 a809 c035
000001a0: 9b5b 9737 1b95 b337 8a19 1236 faa7 d537
000001b0: 4cb9 d237 43dc 4236 4ee6 0038 d4bc fc37
000001c0: 3350 9436 1fc9 9a38 7417 b136 9a9f 6635
000001d0: 8fa5 df36 272b 7337 de94 b135 7c06 a337
000001e0: 3b21 c136 5d4b 5b35 d563 e336 018b 8237
000001f0: 8c21 a835 669d 8337 2e3f 7b36 99de 2735
00000200: f8db a836 6e86 3537 a255 8135 05ec 9c37
00000210: 47bb 0738 8aeb 4e36 c2e5 ef37 eec4 4938
00000220: 9699 9f36 a7b0 6838 1949 5338 cc90 c736
00000230: 99bd 6b38 4939 db38 2185 1a37 ad89 0439
00000240: 7c92 3838 97f4 cd36 2ca1 7b38 370d b238
00000250: 3ae3 1d37 febf 0739 4e19 7937 3974 0d36
00000260: de0d ee37 c34e 1438 5504 5a36 ed6c 3f38
00000270: dc5a d635 42fc 3d34 2eaa ff35 85ee 5c36
00000280: acbb 9234 31a6 8236 c387 5937 62d5 7835
00000290: ed2a 6037 31b0 8337 1832 b835 0c34 ae37
000002a0: cf6e e136 deae 5035 97ee 2837 23bf a637
000002b0: d414 a035 539a 8c37 00d7 4638 cecc 0837
000002c0: 77f0 cc38 bb00 1039 a03e 5337 647f 2c39
000002d0: bdbc 8137 7665 e435 13ff 8937 43bf c637
000002e0: b8e6 2f36 0ebf ff37 8140 3f36 c74c 8434
000002f0: bd06 4836 ff97 9336 6593 c834 2508 a336
00000300: e03b 5f37 d949 f635 dc8b 2438 cc69 0838
00000310: 507d 3d36 cd93 f137 be36 a536 a76f 5c35
00000320: 2c18 4f37 49ab 6f37 2b76 aa35 1f0b 8b37
00000330: e4c7 8437 620d 3036 f59f e537 a96c 3238
00000340: 825d 8736 e16f 2f38 3747 3938 d96d c736
00000350: 7670 6d38 b726 e438 822a 1837 cfac b238
00000360: ce75 bb38 e68d 3f37 f94d 3d39 2479 3039
00000370: 0c33 9037 4156 3c39 5866 5738 9f18 d036
00000380: c904 8038 8298 d638 04cc 2037 2975 fe38
00000390: 5261 ba36 0a75 4335 b026 e536 6987 3e37
000003a0: 458b 9535 6e2c 8037 8430 7537 6212 0636
000003b0: 1cd2 a537 0281 1338 8987 4e36 6808 0738
000003c0: 01ad 7e38 a7df 2037 01ec b138 e2d9 2d39
000003d0: e189 7837 9d74 3039 d172 8738 fd1f 2337
000003e0: 5833 db38 b4c9 1639 8f57 7837 cc4d 3d39
000003f0: 6f50 3e37 0fdb 1736 ae11 ec37 5ac0 4738

exp_avg f4 [128]
0.00040490236 -0.0008456318 -0.00052371254 0.00064408267 -0.0003177377 0.00027496633 -0.00046819897 0.00093715993
-0.0006585473 -4.524354e-06 0.00015217162 0.00023242278 -8.756514e-05 0.00044003894 -0.00051794766 4.456259e-06
-0.0004266587 0.00037355503 -0.00049859023 -9.195641e-05 0.0003303056 -7.683526e-06 -0.000270533 -0.0008114952
-0.0005364579 -0.00034252965 -1.5131819e-05 0.0008758484 -0.00012550541 0.00025067208 -8.9963025e-05 0.00036467894
0.00019788655 -5.5829264e-06 0.00016420853 -0.00032365293 -0.0010709511 0.00033368886 5.82995e-06 -0.00060792547
0.0012719927 0.00046274005 0.0006092739 -9.498779e-05 0.00010122972 0.00083966507 0.00017048717 0.0004135285
-0.00033166914 -0.00021724541 -1.8076558e-05 -0.00050885533 0.00040670804 -0.00041460953 -5.695818e-06 -9.023945e-05
0.00036082824 3.0429042e-05 -0.00046562383 0.00064751756 -4.8421093e-06 -0.00042615057 -0.00022432361 0.00010916704
0.00032845396 8.488619e-06 -0.0003017335 0.00027766725 -0.00031974024 0.00026442658 0.0003783846 2.0439265e-05
0.00026323632 0.00011675304 -0.00055245275 -0.00011767321 -0.00044713382 -0.00013529487 -0.00071491784 -0.0008192535
-0.00053250697 0.0003466237 0.00032023393 -0.00018431513 0.00014961047 9.459558e-06 0.00078510627 0.00058844744
-0.00038969525 -0.00027910358 0.00047890117 -0.00027435023 -0.0004446791 0.00034738847 7.175193e-05 -0.00016695901
-0.0003732614 0.00031534987 -0.00012378886 -0.00042316248 1.9706347e-05 -0.00021040603 0.00018321548 -0.00017613654
0.0010290934 -0.00030136938 0.00080039806 0.00037096284 -0.00088878383 0.0010959172 0.00014483469 0.0006051584
9.498985e-05 -0.00037835762 0.0002964528 -0.00025768226 8.525706e-05 -0.00064178003 -0.00054463244 0.0002357204
6.0130955e-05 -7.992346e-05 -0.0003628568 0.00023686544 0.00027465064 -0.00024082337 0.00037852812 0.0010254527
00000000: 1349 d439 64ad 5dba c149 09ba a8d7 283a
00000010: 0896 a6b9 5b29 9039 9a78 f5b9 bdab 753a
00000020: 5ca2 2cba e8cf 97b6 4290 1f39 84b6 7339
00000030: 2da3 b7b8 07b5 e639 e1c6 07ba f986 9536
00000040: 29b1 dfb9 b5d9 c339 d3b3 02ba b9d8 c0b8
00000050: de2c ad39 7ee8 00b7 53d6 8db9 85ba 54ba
00000060: 15a1 0cba 8d95 b3b9 abde 7db7 3199 653a
00000070: 1a9a 03b9 a36c 8339 88aa bcb8 6132 bf39
00000080: c47f 4f39 f954 bbb6 642f 2c39 f6af a9b9
00000090: 285f 8cba f6f2 ae39 e49e c336 305d 1fba
000000a0: feb8 a63a eb9b f239 aeb7 1f3a 2e34 c7b8
000000b0: 4b4b d438 f81c 5c3a cdc4 3239 dbce d839
000000c0: e1e3 adb9 5fcc 63b9 1da3 97b7 b464 05ba
000000d0: 6e3b d539 f35f d9b9 b41e bfb6 f03e bdb8
000000e0: 8c2d bd39 df41 ff37 f91e f4b9 2bbe 293a
000000f0: 6779 a2b6 f66c dfb9 6938 6bb9 9cf0 e438
00000100: 5834 ac39 576a 0e37 fc31 9eb9 de93 9139
00000110: cfa2 a7b9 bca2 8a39 ec61 c639 fd74 ab37
00000120: fb02 8a39 50d9 f438 7ad2 10ba 53c7 f6b8
00000130: 496d eab9 f1dd 0db9 5369 3bba 2cc3 56ba
00000140: f097 0bba 0cbb b539 12e5 a739 b744 41b9
00000150: c1e0 1c39 7eb4 1e37 97cf 4d3a 0a42 1a3a
00000160: 0350 ccb9 a654 92b9 0715 fb39 aad6 8fb9
00000170: d223 e9b9 b121 b639 8679 9638 b811 2fb9
00000180: 4cb2 c3b9 8b55 a539 52cd 01b9 e8db ddb9
00000190: 0f4f a537 70a0 5cb9 881d 4039 4bb1 38b9
000001a0: a5e2 863a 1d01 9eb9 ced1 513a ca7d c239
000001b0: 46fd 68ba e1a4 8f3a c4de 1739 7ea3 1e3a
000001c0: 4a35 c738 4d5e c6b9 396d 9b39 8719 87b9
000001d0: 09cc b238 213d 28ba aac5 0eba b72b 7739
000001e0: 1f35 7c38 959c a7b8 d13d beb9 155f 7839
000001f0: fcfe 8f39 8885 7cb9 2f75 c639 7c68 863a

exp_avg_sq f4 [128]
2.522761e-06 1.7310098e-05 3.8835176e-05 1.9763454e-05 1.3268522e-05 3.577718e-05 7.630174e-06 4.5394656e-05
4.1797703e-05 3.0268018e-06 2.0812429e-06 1.0155351e-05 2.48496e-06 2.948407e-06 3.041996e-05 3.5838115e-05
1.0261823e-05 8.708224e-06 1.7680319e-05 5.292341e-06 5.010695e-06 3.8544686e-06 1.9025798e-05 3.6840443e-05
3.7643338e-05 1.2994821e-05 1.0932467e-06 5.489459e-06 4.7707963e-06 5.0364648e-05 1.048453e-05 1.4944059e-06
1.1294455e-05 5.0801505e-06 1.6136797e-05 3.6279216e-05 6.8759626e-05 3.8336977e-05 4.45676e-06 1.2310112e-05
5.925621e-05 5.9209346e-05 1.4066893e-05 1.8560242e-05 9.783094e-06 4.634418e-05 2.1224763e-05 9.193936e-06
5.6128674e-06 1.9956111e-05 1.449291e-05 3.2463227e-05 1.0567123e-05 1.1421158e-05 4.462876e-06 4.805431e-06
1.048714e-05 8.227467e-06 1.1658009e-05 5.090041e-06 1.7758597e-05 2.2473963e-05 2.4998704e-05 2.2925171e-06
6.8172753e-06 3.2197609e-06 1.4381149e-05 7.391472e-06 3.1026534e-06 7.3992887e-06 1.8227302e-05 3.5324595e-06
3.123766e-05 2.777842e-06 1.7899174e-05 8.825893e-06 7.1600816e-06 2.5085315e-06 7.792963e-05 3.1363892e-05
3.2427775e-05 3.977773e-05 8.49576e-06 3.843081e-05 7.5749726e-06 4.145797e-06 2.9826882e-05 1.7973183e-05
1.6046513e-05 7.839428e-06 2.2234075e-05 9.087915e-06 4.884995e-06 7.567568e-06 1.5839715e-06 1.5347265e-06
1.0616417e-05 8.0091495e-06 1.0593577e-05 2.002612e-05 6.5398804e-06 4.266129e-05 4.3897335e-06 2.4847193e-05
2.6874926e-05 1.9444029e-05 7.310123e-05 1.6973203e-05 4.7005735e-05 0.00012939905 3.2504709e-06 4.5714452e-05
1.1264939e-05 1.555378e-05 1.567657e-05 1.353597e-05 2.362726e-05 1.6625207e-05 1.3904581e-05 2.295195e-05
3.612885e-06 1.1256547e-05 1.5068411e-05 2.2786691e-05 3.8942603e-06 6.7736214e-06 2.0166799e-05 5.813196e-05
00000000: b44c 2936 2735 9137 f4e2 2238 b2c9 a537
00000010: de9b 5e37 740f 1638 5903 0037 2466 3e38
00000020: f14f 2f38 0f20 4b36 7bab 0b36 e760 2a37
00000030: 4ac3 2636 3fdd 4536 5e2e ff37 e250 1638
00000040: 322a 2c37 8a19 1237 3250 9437 dd94 b136
00000050: 8b21 a836 a255 8136 9799 9f37 2085 1a38
00000060: 3ae3 1d38 5504 5a37 acbb 9235 1832 b836
00000070: d414 a036 a13e 5338 b7e6 2f37 6593 c835
00000080: 517d 3d37 2976 aa36 825d 8737 832a 1838
00000090: 0b33 9038 04cc 2038 478b 9536 8787 4e37
000000a0: df89 7838 8d57 7838 d800 6c37 d1b1 9b37
000000b0: 1222 2437 af61 4238 d50b b237 a83f 1a37
000000c0: 2a56 bc36 6c67 a737 9326 7337 2029 0838
000000d0: 7349 3137 809d 3f37 d0bf 9536 573e a136
000000e0: ecf1 2f37 b408 0a37 c496 4337 1fcb aa36
000000f0: 4cf8 9437 7886 bc37 4fb4 d137 25d9 1936
00000100: f3bf e436 1213 5836 9146 7137 4304 f836
00000110: 2e37 5036 6847 f836 d5e6 9837 310f 6d36
00000120: 2f05 0338 f66a 3a36 2f26 9637 ec12 1437
00000130: a240 f036 3e58 2836 276e a338 b98c 0338
00000140: 0f03 0838 03d7 2638 0389 0e37 c530 2138
00000150: 852c fe36 201c 8b36 be34 fa37 1ec5 9637
00000160: a09b 8637 1686 0337 5083 ba37 4c78 1837
00000170: cae9 a336 eaec fd36 d998 d435 cdfc cd35
00000180: 2a1d 3237 095f 0637 11bb 3137 c4fd a737
00000190: 2571 db36 36ef 3238 864b 9336 f16e d037
000001a0: 7771 e137 bc1b a337 ed4d 9938 ad61 8e37
000001b0: 0628 4538 4baf 0739 aa22 5a36 85bd 3f38
000001c0: 8bfe 3c37 7d79 8237 2d81 8337 8c18 6337
000001d0: 2833 c637 5c76 8b37 b847 6937 f088 c037
000001e0: e474 7236 80da 3c37 55ce 7c37 0c26 bf37
000001f0: 71ab 8236 f748 e336 df2b a937 b7d2 7338
