results/TestParameters2/MoveToGoal/checkpoint.pt (torch, 439245 bytes, 36 tensors)

network_body._body_endoder.seq_layers.0.weight f4 [128, 6]
0.53181595 0.28061435 -0.58390033 0.20783283 0.28784364 0.32340825 -0.27337334 0.72535735
-0.4656499 -0.26356128 -0.0040793833 0.64546824 0.084583655 -0.25323078 -0.5686884 -0.66141474
-0.110757954 -0.048472274 -0.32387486 -0.04454703 -0.22755307 -0.30696425 -0.030174894 0.113230646
0.09705161 -0.16679582 0.07098682 0.44786185 0.228954 0.14972144 0.29814255 -0.52900565
0.047681868 0.029849557 -0.2509752 -0.08266837 -0.5447514 0.24271442 -0.092192374 -0.0035993229
0.051901534 -0.05432005 -0.36651066 -0.006103911 0.048040356 -0.08693646 -0.92544776 0.03999454
-0.6241297 -0.024609793 -0.07800251 0.28801748 0.104257904 -0.04185643 -0.7736853 0.016001916
0.9870762 0.34602314 -0.023754474 -0.16367593 0.33387816 0.5375363 0.50328255 -0.60486287
-0.28092462 -0.16160811 0.31964597 -0.2591069 0.16769513 -0.47926074 0.6372677 0.17777826
0.026637426 0.7195398 0.21500833 -0.18867035 -0.060629144 -0.009219348 0.5972259 -0.21879734
0.21705034 -0.3044045 -0.16916573 0.64043576 -0.5413003 0.3152634 -0.075659126 0.15375924
-0.06429486 -0.68380624 -0.29422504 0.23179513 0.72594255 -0.50810546 0.9277441 0.16649874
-0.09000757 0.12138033 0.28687528 -0.16457 0.18022291 0.46438593 0.10256563 0.5061532
0.33255616 -0.47701317 -0.2768865 -0.18925291 0.5669663 0.31840265 -0.0150726335 -0.26249385
-0.038678855 -0.7409043 -0.07654015 -0.3984696 0.7004983 0.002821043 -0.15332307 0.23079383
-0.4144515 0.12997858 0.12035489 -0.09053601 -0.36191848 0.3244605 -0.033759207 0.18867278
-0.14677566 0.04459159 -0.47703674 0.46913764 0.15861079 -0.046442024 -0.25943086 0.29907888
0.24377464 0.0010139394 0.096588805 0.36840528 -0.30692384 0.019289676 0.7618047 -0.20098914
0.24442112 0.20074868 -0.5034949 0.26799506 0.41737413 0.31644568 -0.16347936 -0.7293272
0.028454674 0.083824545 -0.32552063 -0.21554448 0.27111715 -0.42576048 -0.15813428 0.13279769
0.019922059 -0.5474548 -0.45713112 -0.6253845 -0.58836645 -0.26085865 0.33202505 0.7772753
-0.23519121 0.05395631 -0.7388857 -0.12280341 -0.00538709 -0.11034957 -0.184844 -0.46297655
0.031223638 0.3426236 -0.49403685 -0.42557934 -0.06544367 0.43030664 0.0436255 0.28677604
0.23158973 -0.057620257 -0.24778005 0.1044155 0.17416148 -0.5694109 0.82055646 -0.13247822
-0.56340706 -0.5051498 -0.4247322 0.19345097 0.60900486 -0.17855175 -0.14697093 0.4560366
-0.023139527 -0.22174247 0.657273 -0.8115987 0.15799959 0.32583368 -0.41961586 -0.096898116
0.051379327 0.13818218 -0.23705481 0.23992129 -0.2803738 0.23778641 0.07410945 0.23293388
-0.23817687 -0.06560514 0.30813733 0.46853623 0.11158341 0.46002218 -0.110422865 -0.35005575
-0.20541352 -0.042950533 -0.505751 0.044219505 -0.14404872 -0.36761156 -0.011555533 -0.041170977
0.07353341 0.6077662 0.12740171 0.54798007 0.2141207 -0.6003148 -0.12010666 -0.13126248
0.1939374 0.37573797 0.23692739 -0.40822536 -0.32818335 0.23352091 -0.66153234 0.11900072
-0.46235242 0.2367585 -0.65681 0.34170723 0.77962095 1.4885869 -0.033146486 0.20034122
00000000: 1725 083f afac 8f3e 7e7a 15bf 21d2 543e
00000010: 3e60 933e c495 a53e 97f7 8bbe 05b1 393f
00000020: aa69 eebe 81f1 86be 59ac 85bb 683d 253f
00000030: 323a ad3d 77a7 81be 9095 11bf 7a52 29bf
00000040: 11d5 e2bd dd8a 46bd edd2 a5be f276 36bd
00000050: ac03 69be 6b2a 9dbe 5731 f7bc 78e5 e73d
00000060: ffc2 c63d 86cc 2abe 8a61 913d 264e e53e
00000070: eb72 6a3e 9450 193e 24a6 983e ea6c 07bf
00000080: 104e 433d 0f87 f43c d27f 80be 094e a9bd
00000090: d474 0bbf 218a 783e 5bcf bcbd 9ee2 6bbb
000000a0: b496 543d b37e 5ebd 49a7 bbbe 5103 c8bb
000000b0: f7c5 443d be0b b2bd 25ea 6cbf 51d1 233d
000000c0: f7c6 1fbf 7a9a c9bc c8bf 9fbd 0777 933e
000000d0: 2b85 d53d a671 2bbd 3d10 46bf 7316 833c
000000e0: 07b1 7c3f f229 b13e be98 c2bc aa9a 27be
000000f0: 14f2 aa3e fb9b 093f 20d7 003f 4bd8 1abf
00000100: 5ad5 8fbe 997c 25be a3a8 a33e a9a9 84be
00000110: 46b8 2b3e aa61 f5be fa23 233f 810b 363e
00000120: bb36 da3c c333 383f 252b 5c3e cd32 41be
00000130: 4456 78bd c00c 17bc cce3 183f 690c 60be
00000140: 7242 5e3e e8da 9bbe c839 2dbe 99f3 233f
00000150: a892 0abf 346a a13e 2cf3 9abd 1073 1d3e
00000160: 06ad 83bd ed0d 2fbf aaa4 96be b45b 6d3e
00000170: 5fd7 393f 3313 02bf a380 6d3f a57e 2a3e
00000180: e455 b8bd 4096 f83d 51e1 923e 0a85 28be
00000190: 5b8c 383e fec3 ed3e ee0d d23d 4293 013f
000001a0: cd44 aa3e 123b f4be 11c4 8dbe 84cb 41be
000001b0: b424 113f ac05 a33e 35f3 76bc 9865 86be
000001c0: b86d 1ebd e7ab 3dbf 15c1 9cbd 3504 ccbe
000001d0: db53 333f 3fe1 383b b900 1dbe 3855 6c3e
000001e0: fd32 d4be 1b19 053e a07c f63d f26a b9bd
000001f0: 614d b9be b01f a63e 1847 0abd 7033 413e
00000200: 5c4c 16be aca5 363d 293e f4be cf32 f03e
00000210: de6a 223e fe39 3ebd 1fd4 84be de20 993e
00000220: 0fa0 793e 29e6 843a 5ad0 c53d 9e9f bc3e
00000230: 1f25 9dbe 6205 9e3c a205 433f 19d0 4dbe
00000240: 8849 7a3e 1091 4d3e 0be5 00bf a636 893e
00000250: 10b2 d53e 2b05 a23e 2267 27be 30b5 3abf
00000260: c719 e93c 34ac ab3d a4aa a6be b1b7 5cbe
00000270: decf 8a3e 47fd d9be f4ed 21be 1efc 073e
00000280: 9633 a33c ff25 0cbf 170d eabe 3319 20bf
00000290: 2f9f 16bf 448f 85be 30ff a93e 84fb 463f
000002a0: f7d5 70be 4b01 5d3d 9d27 3dbf 5b80 fbbd
000002b0: 3086 b0bb f5fe e1bd bf47 3dbe 430b edbe
000002c0: b7c8 ff3c 5c6c af3e 66f2 fcbe 89e5 d9be
000002d0: 5507 86bd 2751 dc3e a7b0 323d 4fd4 923e
000002e0: dc25 6d3e 3803 6cbd 0eba 7dbe cbd7 d53d
000002f0: 6357 323e eac4 11bf fd0f 523f 5fa8 07be
00000300: 723b 10bf 7f51 01bf 8076 d9be 0318 463e
00000310: bee7 1b3f 45d6 36be 8c7f 16be a17d e93e
00000320: 1b8f bdbc 7510 63be 0b43 283f efc4 4fbf
00000330: a5ca 213e acd3 a63e e4d7 d6be 8572 c6bd
00000340: 2173 523d a17f 0d3e 7fbe 72be edad 753e
00000350: 288d 8fbe 487e 733e b2c6 973d 3886 6e3e
00000360: a3e4 73be fd5b 86bd 2dc4 9d3e fbe3 ef3e
00000370: d885 e43d 0788 eb3e 6225 e2bd 823a b3be
00000380: ec57 52be e6ec 2fbd e678 01bf 831f 353d
00000390: 8281 13be 9537 bcbe 6b53 3dbc e6a2 28bd
000003a0: af98 963d 9196 1b3f 9875 023e 6c48 0c3f
000003b0: 7542 5b3e 3bae 19bf 7bfa f5bd ac69 06be
000003c0: 8797 463e ba60 c03e 189d 723e ea02 d1be
000003d0: a607 a8be 1b20 6f3e 2f5a 29bf a6b6 f33d
000003e0: 75b9 ecbe d270 723e b324 28bf 40f4 ae3e
000003f0: 3d95 473f 048a be3f 9cc4 07bd 4026 4d3e

network_body._body_endoder.seq_layers.0.bias f4 [128]
-0.059827227 -0.032857023 -0.07403371 0.0355686 -0.024706934 0.0045751324 -0.026788978 -0.03827928
-0.014987155 -0.026513183 0.010550038 0.013473743 -0.0010709299 -0.0339944 -0.0029598244 0.012274415
-0.047894794 0.027517453 -0.0053126486 -0.031194357 -0.014775724 -0.043248802 -0.07619358 -0.014238163
0.0009702701 0.019151805 0.049071703 -0.059604406 -0.03892546 0.041593384 -0.02159568 -0.017394904
-0.029154235 -0.03194 0.086630516 -0.038195524 -0.06416868 -0.084948935 -0.0476489 0.0323045
-0.062367402 -0.011609318 -0.054406196 -0.013587004 0.050369482 -0.0032500348 0.064562395 -0.007095581
-0.0494314 -0.027084755 0.08151362 -0.0074335407 -0.020573145 -0.0099883815 -0.0064708022 -0.065095015
-0.009021622 -0.0026677137 -0.0036147516 0.0022090776 -0.091447696 -0.069049716 -0.007894687 -0.026270844
-0.0126344785 0.06387158 -0.030640706 0.0022446462 -0.023773659 -0.040302336 -0.03908232 -0.016317673
-0.029646056 -0.046581414 -0.04413921 -0.10855165 -0.0077694748 -0.023028407 -0.017101068 -0.0057172156
-0.05371745 0.042498548 -0.025285013 -0.019928506 -0.015499819 -0.012076051 -0.006154514 0.037383754
0.008064269 0.033913385 -0.0044409796 -0.059942298 -0.019196572 0.0009895304 -0.019655673 -0.0065560434
-0.05316169 -0.045339726 -0.037598196 -0.06445981 0.03754529 -0.0020589451 -0.039490197 -0.05977168
0.07062768 0.014513333 -0.018470358 -0.05413894 -0.049196642 -0.039139744 -0.035806 -0.0026489638
-0.011073621 -0.04750817 -0.01873078 -0.07528303 0.033424135 -0.052777648 -0.061231706 -0.01285732
0.028622936 0.008854712 -0.027198922 0.087580316 -0.020078257 -0.036696438 -0.012103599 -0.06955743
00000000: 650d 75bd 1695 06bd fc9e 97bd 61b0 113d
00000010: 3266 cabc feea 953b 8f74 dbbc bcca 1cbd
00000020: af8c 75bc 2d32 d9bc 11da 2c3c f9c0 5c3c
00000030: 725e 8cba b63d 0bbd 9df9 41bb a11a 493c
00000040: 552d 44bd 486c e13c ba15 aebb 4f8b ffbc
00000050: e115 72bc a825 31bd 610b 9cbd 2f47 69bc
00000060: b959 7e3a 3fe4 9c3c 69ff 483d c023 74bd
00000070: 4e70 1fbd d35d 2a3d 6ce9 b0bc c27f 8ebc
00000080: ddd4 eebc 84d3 02bd 576b b13d e972 1cbd
00000090: de6a 83bd b5f9 adbd 7e2b 43bd b951 043d
000000a0: f674 7fbd 0235 3ebc 08d9 5ebd 069c 5ebc
000000b0: 3b50 4e3d 89fe 54bb 4a39 843d 0c82 e8bb
000000c0: 9478 4abd d9e0 ddbc 9df0 a63d 0f95 f3bb
000000d0: 0389 a8bc 4fa6 23bc 0609 d4bb 8950 85bd
000000e0: 6dcf 13bc cfd4 2ebb 78e5 6cbb 2cc6 103b
000000f0: ee48 bbbd f069 8dbd b858 01bc f435 d7bc
00000100: d800 4fbc 1acf 823d 3802 fbbc ea1a 133b
00000110: fac0 c2bc 1014 25bd c814 20bd a4ac 85bc
00000120: 49dc f2bc 27cc 3ebd 51cb 34bd 5450 debd
00000130: 1497 febb 12a6 bcbc 8a17 8cbc 7b57 bbbb
00000140: d406 5cbd f512 2e3d 8422 cfbc 1b41 a3bc
00000150: f4f2 7dbc a1da 45bc ceab c9bb b51f 193d
00000160: ff1f 043c c3e8 0a3d a385 91bb 0e86 75bd
00000170: 2142 9dbc 21b3 813a ef04 a1bc 14d4 d6bb
00000180: 12c0 59bd 26b6 39bd 9100 1abd 8103 84bd
00000190: 17c9 193d 5eef 06bb 79c0 21bd 26d3 74bd
000001a0: 3fa5 903d 55c9 6d3c 264f 97bc cbc0 5dbd
000001b0: 6b82 49bd ff50 20bd 50a9 12bd 3d9a 2dbb
000001c0: 226e 35bc ed97 42bd 4b71 99bc fd2d 9abd
000001d0: bfe7 083d 602d 58bd 19ce 7abd 82a7 52bc
000001e0: a67a ea3c 5b13 113c 46d0 debc 4f5d b33d
000001f0: 287b a4bc 014f 16bd 2c4e 46bc 2074 8ebd

network_body._body_endoder.seq_layers.2.weight f4 [128, 128]
0.19736882 -0.052110136 0.0008379944 -0.019772189 -0.056524884 -0.04576701 0.12904793 0.045605943
-0.07044418 0.03880105 0.06393303 -0.26385164 -0.07219625 -0.119334064 0.06613078 -0.14410594
0.07121189 0.053774588 0.0041470043 0.16563912 0.05103996 0.03302649 -0.03351504 -0.068202786
-0.00522457 0.061977662 -0.022798393 -0.06644727 0.06601038 -0.22875477 -0.13035081 0.038172897
0.12763183 0.018461403 0.025858367 0.080721416 0.033384338 -0.018431576 -0.027623799 0.032278918
-0.08467465 -0.04336987 -0.075159736 -0.025703594 0.011383847 0.02698881 0.0076793623 0.115418114
-0.036573637 0.04219102 0.057968102 0.1308978 -0.056359224 0.06477109 -0.04659041 0.17056789
1.9534598e-06 0.088975966 -0.066626795 -0.08510775 0.08378619 0.094013646 0.01276653 0.07921879
0.13301612 -0.09885004 0.06452031 -0.04780192 -0.021205094 -0.0032722894 0.12294507 -0.11394549
0.016639909 0.06993558 0.033327326 -0.01410325 -0.042853177 0.101947844 0.16554959 0.049956873
-0.17552473 -0.09580012 0.03883336 -0.09622 0.079559766 0.15588117 0.07100633 -0.09986451
-0.028942987 -0.0668216 0.07193893 -0.054273963 0.02011971 -0.041911792 0.07534119 -0.056173928
0.013385062 -0.092256285 -0.0023457722 0.033496123 -0.09780409 -0.026853623 0.1793043 0.021315398
0.006687482 -0.07250959 0.16176637 0.06627256 -0.09842464 -0.020513127 0.06931352 -0.077475615
0.12773357 -0.0751452 0.06428985 0.06155793 0.013468825 -0.06757404 -0.0825907 -0.098395444
-0.03733801 0.21872547 -0.12757719 0.0063209645 -0.06835977 -0.12551 -0.14916788 -0.17207801
-0.030237956 -0.033179212 0.009224564 0.008838728 -0.07389673 -0.22085272 0.037943333 0.16363315
0.042075142 -0.08147959 0.21665862 -0.17062387 0.16837402 -0.092559814 0.032250784 -0.067948
-0.01997465 0.021018224 -0.018353209 -0.0456632 -0.07568528 -0.037241794 -0.15451673 0.05007759
0.08425325 0.1638112 0.19720669 0.011867078 -0.118903905 -0.10043232 -0.29319245 0.07319836
0.0758268 0.09730666 0.12566079 -0.04118167 -0.0063952226 0.087358184 -0.06679412 -0.048191827
0.20221537 -0.0009629011 0.08899568 -0.016881442 -0.079343 -0.049566146 -0.1374093 0.1959428
0.089803115 0.10172749 -0.09767164 -0.14820857 -0.026155999 0.124155276 -0.013157198 0.013798017
-0.10187926 0.027641082 0.18150255 0.05107165 0.03319032 -0.090477444 -0.036133587 -0.10484013
-0.051091786 0.15413499 0.15177241 0.16791064 0.08391476 0.07480299 -0.012596099 -0.00661459
-0.092039526 0.00737209 -0.0016164233 -0.028494775 -0.096857384 0.033135638 0.1728737 0.061546117
0.0637308 0.05705517 0.036758788 0.03895255 -0.033487998 0.08909481 -0.14559464 -0.06951585
0.031415388 0.03300453 0.04794966 -0.1239789 0.061248224 -0.036730573 -0.0311591 0.020937813
0.12648396 -0.055691242 -0.087160915 -0.17084756 0.008111521 0.03927688 -0.09157593 0.11313738
-0.015782177 0.07377527 -0.02016991 -0.011729961 0.016088959 0.10334553 -0.05021764 0.027920937
-0.12783831 -0.16327505 -0.17251071 0.036414333 -0.22172922 0.15488622 0.01959406 -0.054179724
0.06540061 -0.0369852 -0.17537862 -0.15614992 -0.06948168 -0.22884913 -0.073558144 0.21808857
00000000: 0d1b 4a3e 7071 55bd daac 5b3a 49f9 a1bc
00000010: a386 67bd 3076 3bbd 2425 043e 4ccd 3a3d
00000020: 0a45 90bd daed 1e3d 52ef 823d 9017 87be
00000030: a1db 93bd 6b65 f4bd 936f 873d 8290 13be
00000040: 8ad7 913d be42 5c3d 98e3 873b 4d9d 293e
00000050: 470f 513d c946 073d 1147 09bd e7ad 8bbd
00000060: df32 abbb 4adc 7d3d b2c3 babc 8215 88bd
00000070: 7330 873d b13e 6abe af7a 05be 2f5b 1c3d
00000080: ebb1 023e 5e3c 973c edd4 d33c 4551 a53d
00000090: 04be 083d d1fd 96bc 4e4b e2bc e636 043d
000000a0: e769 adbd 9ba4 31bd 59ed 99bd 5890 d2bc
000000b0: 5183 3a3c a317 dd3c 29a3 fb3b 5560 ec3d
000000c0: 3dce 15bd 7ed0 2c3d f66f 6d3d 130a 063e
000000d0: eed8 66bd b5a6 843d 96d5 3ebd 59a9 2e3e
000000e0: 2f18 0336 0839 b63d a173 88bd f94c aebd
000000f0: 1898 ab3d 3a8a c03d b52a 513c 763d a23d
00000100: 6135 083e e471 cabd 3923 843d f2cb 43bd
00000110: 4eb6 adbc e873 56bb a0ca fb3d 415c e9bd
00000120: 6b50 883c 633a 8f3d 3c82 083d 5111 67bc
00000130: d086 2fbd 08ca d03d d585 293e 949f 4c3d
00000140: c1bc 33be da32 c4bd bb0f 1f3d fe0e c5bd
00000150: 3bf0 a23d 509f 1f3e c46b 913d c485 ccbd
00000160: d819 edbc c3d9 88bd b854 933d 604e 5ebd
00000170: 17d2 a43c b3ab 2bbd 7b4c 9a3d a216 66bd
00000180: 054d 5b3c ddf0 bcbd 87bb 19bb 3b33 093d
00000190: 834d c8bd 21fc dbbc 8c9b 373e a19d ae3c
000001a0: aa22 db3b e87f 94bd 15a6 253e e8b9 873d
000001b0: dc92 c9bd 250b a8bc 3ff4 8d3d 89ab 9ebd
000001c0: 97cc 023e bae5 99bd 66aa 833d 2b24 7c3d
000001d0: 59ac 5c3c 4264 8abd 5025 a9bd 8d83 c9bd
000001e0: beef 18bd 92f9 5f3e 98a3 02be 1820 cf3b
000001f0: 3500 8cbd b285 00be 77bf 18be 3835 30be
00000200: 97b5 f7bc ede6 07bd a022 173c 50d0 103c
00000210: 2b57 97bd 3727 62be 786a 1b3d 738f 273e
00000220: fc56 2c3d c5de a6bd c2db 5d3e 06b8 2ebe
00000230: 3d6a 2c3e 0090 bdbd 6619 043d 5228 8bbd
00000240: e1a1 a3bc 692e ac3c 7859 96bc 5609 3bbd
00000250: e200 9bbd da8a 18bd a239 1ebe 291e 4d3d
00000260: f88c ac3d 20be 273e 8df0 493e 226e 423c
00000270: e483 f3bd 76af cdbd 521d 96be 06e9 953d
00000280: 154b 9b3d b748 c73d 39ad 003e 1cae 28bd
00000290: 048f d1bb d9e8 b23d 5bcb 88bd cb64 45bd
000002a0: 8c11 4f3e 336b 7cba 5e43 b63d f34a 8abc
000002b0: 957e a2bd df05 4bbd 06b5 0cbe 3ba5 483e
000002c0: b2ea b73d 8156 d03d 1208 c8bd fdc3 17be
000002d0: 1b45 d6bc 1f45 fe3d 4a91 57bc 1411 623c
000002e0: 13a6 d0bd 8d6f e23c cedb 393e 8230 513d
000002f0: 93f2 073d 3d4c b9bd d000 14bd 6cb6 d6bd
00000300: 9f45 51bd 90d5 1d3e 3a6a 1b3e c4f0 2b3e
00000310: 80db ab3d 4f32 993d de5f 4ebc 34bf d8bb
00000320: 387f bcbd 9391 f13b 2ade d3ba e06d e9bc
00000330: 2a5d c6bd 3cb9 073d ce05 313e c817 7c3d
00000340: 4b85 823d afb2 693d 6290 163d b68c 1f3d
00000350: b62a 09bd 5777 b63d c316 15be 535e 8ebd
00000360: 6cad 003d c22f 073d dd66 443d a6e8 fdbd
00000370: 6bdf 7a3d cc72 16bd 5e41 ffbc c785 ab3c
00000380: 0385 013e 801c 64bd 6c81 b2bd aaf2 2ebe
00000390: 2fe6 043c cbe0 203d 298c bbbd 92b4 e73d
000003a0: a049 81bc 7d17 973d 5e3b a5bc 062f 40bc
000003b0: fecc 833c d2a6 d33d 03b1 4dbd 73ba e43c
000003c0: 0ce8 02be 9331 27be a6a6 30be 3227 153d
000003d0: fc0c 63be 7e9a 1e3e b983 a03c 8feb 5dbd
000003e0: c1f0 853d cb7d 17bd 7496 33be c4e5 1fbe
000003f0: 694c 8ebd 6d57 6abe a7a5 96bd 9c52 5f3e

network_body._body_endoder.seq_layers.2.bias f4 [128]
-0.0034444374 -0.027762344 -0.025821717 -0.031458173 -0.016834676 -0.024180995 -0.02552672 -0.0008689646
-0.028843073 -0.023769543 -0.03056014 -0.023851937 -0.037468646 -0.009146123 -0.031228542 0.043822832
-0.01390231 -0.033610135 -0.03188145 -0.009809853 -0.0055412785 -2.299204e-05 -0.026968002 -0.040255886
-0.019494515 -0.009790857 -0.039336435 -0.031193374 0.0043610088 -0.042135566 -0.028934548 -0.004681298
-0.0069380803 0.02108487 -0.032706838 -0.0135423355 -0.013735575 -0.008654758 -0.00043625545 -0.010737274
-0.006954841 -0.01900221 0.019705348 -0.0058491584 -0.006245165 -0.0143587645 -0.00765778 0.0019094648
0.02656863 -0.011136943 -0.018934552 -0.033947576 0.00796202 -0.04849427 0.009807093 -0.02392255
0.011828821 -0.017355582 -0.031105034 -0.03588206 -0.0023156428 -0.016890252 -0.022373293 -0.037840433
-0.038841795 -0.040734548 -0.0047422657 -0.009621617 0.010275168 -0.023983235 -0.030610792 -0.035206407
-0.011603046 -3.1590662e-05 -0.013237417 -0.020550106 0.025007756 -0.006263336 -0.035947748 -0.034918226
0.008816946 -0.013647616 -0.035009854 0.054246906 0.031365953 -0.024125567 0.012772976 -0.013236776
-0.016542558 -0.040368285 -0.02379178 -0.016691063 -0.0134375505 -0.024705566 0.004061402 0.0084158275
-0.028479958 -0.007107171 -0.032560274 0.0021135726 -0.02114285 -0.013209312 0.0058594593 -0.015908562
-0.02946197 -0.03504985 -0.009700799 -0.034887347 0.0148324035 -0.0038952993 -0.002963727 -0.0005673331
-0.025301531 -0.00070605794 0.04809697 -0.00997519 0.0052311486 -0.01825881 -0.01138333 -0.015471998
-0.01952498 -0.018907238 -0.011630666 0.024376912 -0.028612858 -0.02298234 0.007732945 -0.02251726
00000000: 12bc 61bb db6d e3bc 1188 d3bc 49da 00bd
00000010: e0e8 89bc 3917 c6bc 691d d1bc 3acb 63ba
00000020: 4f48 ecbc 58b8 c2bc 4259 fabc 2365 c3bc
00000030: b978 19bd 9fd9 15bc 00d3 ffbc 927f 333d
00000040: 84c6 63bc c8aa 09bd 2096 02bd 81b9 20bc
00000050: 9d93 b5bb 08df c0b7 00ec dcbc 5be3 24bd
00000060: f6b2 9fbc d569 20bc 3e1f 21bd 3f89 ffbc
00000070: cbe6 8e3b 5896 2cbd 2508 edbc 9365 99bb
00000080: d658 e3bb 2dba ac3c 9bf7 05bd ace0 5dbc
00000090: 2d0b 61bc b0cc 0dbc 37b9 e4b9 64eb 2fbc
000000a0: 6fe5 e3bb 86aa 9bbc 1c6d a13c 4caa bfbb
000000b0: 3ea4 ccbb 0641 6bbc 1dee fabb 0247 fa3a
000000c0: 75a6 d93c b977 36bc a21c 9bbc 9d0c 0bbd
000000d0: 2273 023c eda1 46bd eead 203c 39f9 c3bc
000000e0: accd 413c 4b2d 8ebc fccf febc 11f9 12bd
000000f0: 0ac2 17bb 6d5d 8abc 3248 b7bc 92fe 1abd
00000100: 9318 1fbd 45d9 26bd 0265 9bbb fda3 1dbc
00000110: 2e59 283c 7d78 c4bc 7cc3 fabc 9834 10bd
00000120: b41a 3ebc 3780 04b8 c0e1 58bc b258 a8bc
00000130: 11dd cc3c ac3c cdbb f23d 13bd 6a06 0fbd
00000140: f474 103c 409a 5fbc 7e66 0fbd 0132 5e3d
00000150: 9679 003d fba2 c5bc bf45 513c 10df 58bc
00000160: 4284 87bc 3759 25bd fbe6 c2bc b2bb 88bc
00000170: 2c29 5cbc 5463 cabc 8215 853b 8ae2 093c
00000180: cd4e e9bc 46e3 e8bb ec5d 05bd dd83 0a3b
00000190: c533 adbc df6b 58bc b500 c03b ac52 82bc
000001a0: 3b5a f1bc 6e90 0fbd 1af0 1ebc 09e6 0ebd
000001b0: 9c03 733c 4748 7fbb 173b 42bb 14b9 14ba
000001c0: 2845 cfbc bf16 39ba 5401 453d fb6e 23bc
000001d0: 0e6a ab3b 8093 95bc 2681 3abc 437e 7dbc
000001e0: daf2 9fbc 5ae3 9abc 8d8e 3ebc 17b2 c73c
000001f0: 8365 eabc 7645 bcbc a564 fd3b 1e76 b8bc

action_model._continuous_distribution.log_sigma f4 [1, 2]
0.47221938 0.20570727
00000000: bdc6 f13e eda4 523e

action_model._continuous_distribution.mu.weight f4 [2, 128]
-0.037666023 -0.028655723 0.016459646 0.003226307 0.011121845 -0.0027903111 -0.015514057 -0.047034986
0.011207115 0.0023324299 0.010028502 0.0066602635 0.0020843728 0.009599997 -0.0071167652 -0.08804173
-0.024078405 -0.00037318116 0.004140271 -0.026980422 0.0054606176 -0.03236822 -0.012566707 0.0029251727
0.0048955088 0.0018990212 0.0062574944 0.0032529011 -0.049007032 0.0024628409 0.010229511 0.01041902
-0.026987933 0.029074304 0.0034979836 0.030327363 -0.024073804 0.013738809 0.018024024 0.0254322
0.019427767 -0.023115078 -0.072439805 -0.016119104 -0.0323016 -0.0070774825 -0.022790397 -0.0033238423
-0.05762996 0.018035244 0.003503194 -0.0043459414 0.05478455 -0.0017346208 -0.034991447 -0.011628356
0.04394252 -0.02059145 0.004029932 -0.014783803 -0.03813099 0.019402308 -0.058337487 0.001273565
0.006262991 0.0054521626 -0.09042008 -0.0016810129 0.042624462 0.0015183921 0.0056100483 0.0043597855
0.02454051 0.016629925 -0.024296885 0.008812572 0.045388907 -0.026450869 -0.003145571 0.0057664015
0.0246858 0.0029864379 -0.0036422561 -0.028783396 0.015351496 0.04584766 -0.0535755 0.008006421
-0.011575036 8.228695e-05 0.013851586 0.011830508 0.0067333365 -0.0064242305 -0.0019661596 -0.0045844475
-0.0064397193 -0.03176754 -0.0008863623 0.007432487 0.0056077186 0.0043590968 -0.055981804 -0.007995206
0.009079738 -0.017444795 0.0077107255 -0.0020280713 0.04553748 -0.04239769 -0.026902242 0.0032102962
0.02636928 -0.03679939 0.04227502 0.0047740997 -0.03052404 0.013691108 0.035292935 0.0080274185
-0.009737185 0.01214302 0.006171907 -0.017278187 0.01682506 -0.0014515576 0.036189895 -0.021227118
0.0045572994 0.0036008798 0.028214235 0.00043940716 0.028364914 0.008614838 0.020637482 0.023605641
0.0013095423 0.0010317878 0.009488585 -0.0036990654 0.009021949 0.021499177 0.009477432 0.0051072557
0.04562339 0.008416396 0.0063401973 0.022874888 0.0034005477 -0.001987455 0.034520254 0.0024503567
0.015605798 -0.029059166 -0.0005119107 0.044198222 0.017359205 0.008218055 -0.004906981 -0.048387084
0.006036408 -0.002600853 -0.0056247404 0.025864191 0.011136627 0.017961675 0.011162615 0.0041235965
0.01939769 0.022073656 0.008129264 -0.010611327 0.028222358 -0.0009463073 0.0006102097 0.001814339
-0.03454705 -0.0021055217 0.001024804 -0.0006787772 0.09499755 0.0057386425 -0.009042024 0.013699656
0.011031011 0.019365083 0.0007590849 0.0118438685 0.021098863 0.03516526 -0.006700271 0.00020858624
-0.005060056 -0.0004321382 0.029487833 0.053415492 -0.038879868 0.009220979 0.021537546 0.00067333615
0.02625188 0.012246502 0.024218934 -0.007060661 -0.027671669 0.006865279 0.004106858 0.009626828
-0.020411123 0.00023758286 0.0224924 -0.025618272 0.037888173 -0.014915607 0.017970558 0.02537384
0.017976645 -0.0022276803 0.008099551 0.0016356222 0.0032363962 0.037465557 -0.02149391 -0.026711425
0.011299609 0.04241278 0.0026078282 0.023377491 -0.006829641 0.04505947 0.016767703 0.022491086
0.006766437 0.021400567 0.028577697 0.009312645 0.0047346116 0.04292217 -0.0062622842 0.027551001
-0.005632743 0.015844066 -0.013913222 0.004530175 -0.018180283 -0.003946689 0.0035041997 0.009917384
0.0068845856 0.032047145 0.016206915 0.00016738425 0.030325262 0.016800512 -0.0093448125 0.022727123
00000000: b047 1abd 68bf eabc 61d6 863c 7370 533b
00000010: 6638 363c a7dd 36bb ac2e 7ebc c2a7 40bd
00000020: 0c9e 373c aedb 183b 964e 243c 573e da3b
00000030: f999 083b 4e49 1d3c c133 e9bb 394f b4bd
00000040: 1340 c5bc 87a7 c3b9 1cab 873b 0c06 ddbc
00000050: fbee b23b 8a94 04bd 97e4 4dbc 41b4 3f3b
00000060: 816a a03b 94e8 f83a ab0b cd3b a02e 553b
00000070: 99bb 48bd 9d67 213b ae99 273c 8ab4 2a3c
00000080: cc15 ddbc 3c2d ee3c 6d3e 653b 1771 f83c
00000090: 6d36 c5bc be18 613c 1ea7 933c 3057 d03c
000000a0: fb26 9f3c d55b bdbc 525b 94bd 360c 84bc
000000b0: af4e 04bd 3aea e7bb edb2 babc d2d4 59bb
000000c0: 650d 6cbd a6be 933c d895 653b 6668 8ebb
000000d0: c465 603d 375c e3ba 3153 0fbd dc84 3ebc
000000e0: 12fd 333d 67af a8bc 850d 843b c437 72bc
000000f0: 3e2f 1cbd 97f1 9e3c 4af3 6ebd c0ed a63a
00000100: c739 cd3b 0ea8 b23b 2a2e b9bd 6f55 dcba
00000110: fd96 2e3d c904 c73a 7fd4 b73b 88dc 8e3b
00000120: 2e09 c93c 7b3b 883c 430a c7bc 9b62 103c
00000130: b8e9 393d 7eaf d8bc ed25 4ebb 15f4 bc3b
00000140: e039 ca3c 1db8 433b ebb2 6ebb 28cb ebbc
00000150: d784 7b3c c2ca 3b3d fc71 5bbd 5d2d 033c
00000160: 38a5 3dbc 7891 ac38 c3f1 623c bfd4 413c
00000170: 52a3 dc3b 5a82 d2bb afda 00bb 2239 96bb
00000180: 4804 d3bb ae1e 02bd c45a 68ba 388c f33b
00000190: f4c0 b73b c1d6 8e3b 2d4d 65bd 53fe 02bc
000001a0: 2ec3 143c 63e8 8ebc 41aa fc3b 64e9 04bb
000001b0: 8285 3a3d 33a9 2dbd 1762 dcbc d563 523b
000001c0: 6304 d83c f5ba 16bd 9228 2d3d 0d70 9c3b
000001d0: 8d0d fabc ab50 603c 538f 103d 6f85 033c
000001e0: b788 1fbc 84f3 463c b53d ca3b fc8a 8dbc
000001f0: b5d4 893c 3142 beba db3b 143d 7ee4 adbc
00000200: 6655 953b bdfc 6b3b 8a21 e73c 3b60 e639
00000210: 895d e83c 4025 0d3c f00f a93c 9e60 c13c
00000220: f3a4 ab3a 0e3d 873a 0376 1b3c 056c 72bb
00000230: ccd0 133c 0b1f b03c 3b47 1b3c c45a a73b
00000240: 97df 3a3d ece4 093c 6ec1 cf3b 1e64 bb3c
00000250: b9db 5e3b f63f 02bb 1c65 0d3d 2a96 203b
00000260: 76af 7f3c 7d0d eebc bf31 06ba 3209 353d
00000270: e434 8e3c 05a5 063c bdca a0bb 8931 46bd
00000280: 0fcd c53b 1373 2abb be4f b8bb 24e1 d33c
00000290: 6676 363c 5d24 933c 67e3 363c 3c1f 873b
000002a0: e8e7 9e3c d0d3 b43c 9b30 053c 22db 2dbc
000002b0: 9332 e73c 9c11 78ba 7bf6 1f3a 1dcf ed3a
000002c0: 3581 0dbd cbfc 09bb b752 863a f8ef 31ba
000002d0: 138e c23d 390b bc3b ff24 14bc 8674 603c
000002e0: 6abb 343c 86a3 9e3c 53fd 463a c90c 423c
000002f0: 86d7 ac3c 7309 103d f28d dbbb f1b7 5a39
00000300: d4ce a5bb 9b90 e2b9 7890 f13c 34ca 5a3d
00000310: 7f40 1fbd 9713 173c 826f b03c d382 303a
00000320: 2f0e d73c 8da5 483c c966 c63c 1e5d e7bb
00000330: b2af e2bc 22f6 e03b d292 863b d8b9 1d3c
00000340: 3a35 a7bc aa1f 7939 fb41 b83c 69dd d1bc
00000350: a130 1b3d 9760 74bc fe36 933c cddc cf3c
00000360: c243 933c 46fe 11bb fbb3 043c 6062 d63a
00000370: b819 543b 7c75 193d ff13 b0bc ebd1 dabc
00000380: ff21 393c 06b9 2d3d 19e8 2a3b 2782 bf3c
00000390: 2ecb dfbb 4790 383d 6c5c 893c 3a3f b83c
000003a0: fdb8 dd3b 3e50 af3c c61b ea3c 1094 183c
000003b0: cd24 9b3b 28cf 2f3d d933 cdbb a3b2 e13c
000003c0: df92 b8bb 6acb 813c 48f4 63bc dd71 943b
000003d0: d1ee 94bc 3a53 81bb b7a6 653b 867c 223c
000003e0: 1798 e13b de43 033d 5dc4 843c de83 2f39
000003f0: af6c f83c 3aa1 893c fc1a 19bc 3b2e ba3c

action_model._continuous_distribution.mu.bias f4 [2]
-0.021855332 -0.0017373686
00000000: f409 b3bc 6bb8 e3ba

exp_avg f4 [128, 6]
0.001144757 -0.00034394523 0.0021141237 0.0013472764 -0.00034006266 0.0020241311 0.004700639 0.0012112823
-0.0051161675 0.004806457 0.0011282143 -0.0045128795 0.00041063075 0.0005375296 -0.00038090633 0.00028333173
0.00052840053 -0.00043762533 -0.004023743 -0.0016115031 0.013545629 -0.005034775 -0.0015907371 0.013492902
0.0015240953 0.0003671245 -0.00013903381 0.0013265396 0.0003821744 0.0006309087 0.0023076595 0.0011571152
0.006499429 0.0027132807 0.001298933 0.0051028472 -0.0010935392 -0.0019518046 -5.3592506e-05 -0.0005731935
-0.0019377941 0.00025619462 -0.007295815 -0.004289875 0.0035717813 -0.0075617195 -0.0043781362 0.003955919
-0.00082821195 -0.0017074753 -0.00020086259 -0.00034126226 -0.0017034071 6.802067e-05 -0.0070294966 -0.0010047283
-0.018378912 -0.007878882 -0.0013393189 -0.017229151 -0.0051456257 0.00032549247 -0.008074482 -0.006091514
0.000100737605 -0.008365555 0.0001657898 0.0038076963 -0.019836716 -0.0006106212 0.003534343 -0.019727852
0.0026993358 0.0017888416 -0.008426701 0.0028191544 0.001735849 -0.008207185 -0.0044564377 -0.0023964755
0.002742234 -0.0043744347 -0.0024552706 0.0022228372 -6.6379866e-06 -7.8791145e-06 5.717995e-06 -3.9288707e-06
-7.3263072e-06 6.067923e-06 -0.00024923394 0.0042298827 -0.02415939 -0.0016004669 0.003892334 -0.022944095
-0.0011562773 -0.00086019316 -0.008416047 -0.0015779452 -0.0009866747 -0.0066462387 -0.008653023 -0.0012389921
-0.01666204 -0.009622113 -0.001651523 -0.016664667 -2.5356771e-06 -3.3409583e-06 2.359216e-06 -1.7642959e-06
-3.2900043e-06 2.7249803e-06 -0.008235961 -0.005100443 -0.004743125 -0.007956855 -0.0052110837 -0.003813014
-0.0060644797 -0.0022960915 -0.001294984 -0.006377927 -0.002449645 -0.00157996 -0.0016534186 0.00045465864
-0.0055466588 -0.0017854414 0.00031279455 -0.006070151 0.00013208325 -7.9743375e-05 0.00038527575 0.00017967251
-8.0130354e-05 0.00039004677 1.9858712e-07 2.6424868e-07 -1.8600281e-07 1.401411e-07 2.6132884e-07 -2.1644767e-07
0.0008560304 -0.0002723283 0.0016541281 0.001013179 -0.0002710924 0.0016125557 -0.0050777975 -0.009495623
0.04807091 -0.0048729177 -0.009267702 0.04750843 -0.00039939297 -0.00053000625 0.00037403757 -0.00028043624
-0.00052360207 0.00043396244 -0.0023178812 -0.00030989232 0.0013013593 -0.0029290908 -0.00038750257 0.0011242175
-9.1237354e-07 -2.3145147e-07 3.719969e-07 1.2222355e-07 2.2794522e-07 -1.8892274e-07 0.006278214 0.008971514
-0.007104226 0.004291002 0.008878963 -0.008085642 4.5065713e-05 -5.4403383e-05 0.000155756 5.7693676e-05
-5.263482e-05 0.00016336856 0.0007003016 0.00044435172 -0.001667533 0.00066943327 0.00044033045 -0.0016187481
0.00012887295 0.00017047209 -0.00011998648 8.9996276e-05 0.00016782088 -0.00013899822 1.2774304e-08 1.5307457e-08
-1.1168504e-08 7.726717e-09 1.44084e-08 -1.1933793e-08 0.00015499942 0.00020708435 -0.00014554732 0.000110263354
0.0002052388 -0.00017002726 0.0002968916 0.00022238071 0.00028238067 0.00024833158 0.00022660288 0.00026583995
0.0036990426 0.0027985233 -0.0145428665 0.0033774374 0.002701726 -0.013034574 -0.0010698909 -0.00077630463
0.0033525324 -0.0011830461 -0.0007589223 0.003377773 -0.0022273245 -0.0010602114 -0.006357008 -0.0021799062
-0.001149534 -0.005784281 -0.0007722413 -0.0008880843 0.003717846 -0.0011677481 -0.00086408184 0.0040805098
-0.002738935 -0.0030335956 0.0029543594 -0.00227176 -0.003001037 0.003453309 -0.0017977622 -0.0019275213
0.0037529382 -0.0017617123 -0.0018849075 0.004098672 1.7148458e-06 -4.770525e-07 2.2014433e-06 1.7998482e-06
00000000: ac0b 963a 8c53 b4b9 1c8d 0a3b 1897 b03a
00000010: 704a b2b9 49a7 043b d107 9a3b e4c3 9e3a
00000020: 86a5 a7bb 7c7f 9d3b 97e0 933a c7e0 93bb
00000030: ed49 d739 00e9 0c3a 62b4 c7b9 248c 9439
00000040: 5c84 0a3a 1471 e5b9 9ad9 83bb 1239 d3ba
00000050: 7cee 5d3c c1fa a4bb 4880 d0ba 5511 5d3c
00000060: 27c4 c73a 9e7a c039 9bc9 11b9 48df ad3a
00000070: 945e c839 9163 253a 1a3c 173b 58aa 973a
00000080: 29f9 d43b 4cd1 313b f640 aa3a c935 a73b
00000090: 1655 8fba b2d3 ffba 84c8 60b8 5d42 16ba
000000a0: 95fd fdba dc51 8639 bb11 efbb 1492 8cbb
000000b0: 8c14 6a3b 4dc8 f7bb 7876 8fbb a7a0 813b
000000c0: 5d1c 59ba 5dcd dfba a49e 52b9 72eb b2b9
000000d0: dc44 dfba 52a6 8e38 b157 e6bb 16b1 83ba
000000e0: 5f8f 96bc 6d16 01bc 168c afba 2624 8dbc
000000f0: a39c a8bb dca6 aa39 d54a 04bc 539b c7bb
00000100: 1743 d338 ae0f 09bc dcd7 2d39 8b8a 793b
00000110: 9c80 a2bc 1812 20ba 70a0 673b 4e9c a1bc
00000120: 57e7 303b 9077 ea3a 2510 0abc 90c1 383b
00000130: 6d85 e33a 6e77 06bc 4f07 92bb 300e 1dbb
00000140: 0db7 333b 6b57 8fbb 9be8 20bb 05ad 113b
00000150: dfbb deb6 8a30 04b7 34dd bf36 bed4 83b6
00000160: 80d4 f5b6 109b cb36 9dab 82b9 d49a 8a3b
00000170: eae9 c5bc c2c6 d1ba 8716 7f3b 41f5 bbbc
00000180: 3a8e 97ba 967e 61ba 76e3 09bc 0ed3 ceba
00000190: 4f53 81ba b1c8 d9bb 69c5 0dbc ad65 a2ba
000001a0: d57e 88bc 11a6 1dbc eb77 d8ba 5784 88bc
000001b0: 9a2a 2ab6 3a35 60b6 0653 1e36 bfcc ecb5
000001c0: d8c9 5cb6 cede 3636 20f0 06bc 9e21 a7bb
000001d0: 376c 9bbb 785d 02bc bdc1 aabb c2e3 79bb
000001e0: 8bb8 c6bb 067a 16bb 74bc a9ba eefd d0bb
000001f0: 398a 20bb a916 cfba 86b7 d8ba 405f ee39
00000200: bfc0 b5bb 7905 eaba 93fe a339 1ee8 c6bb
00000210: d47f 0a39 e63b a7b8 d6fe c939 7966 3c39
00000220: a80b a8b8 317f cc39 363b 5534 10de 8d34
00000230: 10b8 47b4 b179 1634 c34c 8c34 af68 68b4
00000240: 3a67 603a 49c7 8eb9 54cf d83a a5cc 843a
00000250: 6821 8eb9 645c d33a a763 a6bb 8893 1bbc
00000260: 01e6 443d ffac 9fbb 8fd7 17bc 3398 423d
00000270: 9e65 d1b9 1ef0 0aba 791a c439 8407 93b9
00000280: 5742 09ba 7485 e339 98e7 17bb 0b79 a2b9
00000290: 5f92 aa3a fdf5 3fbb b729 cbb9 7b5a 933a
000002a0: d5e9 74b5 e584 78b4 ddb6 c734 8e3c 0334
000002b0: 1bc1 7434 b0da 4ab4 7ab9 cd3b 42fd 123c
000002c0: 91ca e8bb 899b 8c3b 1279 113c a479 04bc
000002d0: f104 3d38 302f 64b8 6f52 2339 1dfc 7138
000002e0: 35c4 5cb8 ea4d 2b39 7294 373a e1f7 e839
000002f0: 1f91 daba e87c 2f3a 27dc e639 2c2c d4ba
00000300: 1222 0739 c1c0 3239 40a1 fbb8 62bc bc38
00000310: 13f9 2f39 0dc0 11b9 fc75 5b32 747d 8332
00000320: 9adf 3fb2 76be 0432 d088 7732 6005 4db2
00000330: 5787 2239 c824 5939 109e 18b9 303d e738
00000340: 5f35 5739 5849 32b9 1ea8 9b39 de2e 6939
00000350: 7e0c 9439 8032 8239 3f9c 6d39 6f60 8b39
00000360: a36b 723b 6e67 373b 3445 6ebc ff57 5d3b
00000370: 710f 313b f78e 55bc 953b 8cba ec80 4bba
00000380: 29b6 5b3b 7110 9bba 6af2 46ba a15d 5d3b
00000390: 4ef8 11bb cbf6 8aba 734e d0bb c2dc 0ebb
000003a0: f6ab 96ba 118a bdbb 3d70 4aba 54ce 68ba
000003b0: 1ba7 733b 200f 99ba 8d83 62ba ccb5 853b
000003c0: b47f 33bb 4acf 46bb ed9d 413b cfe1 14bb
000003d0: 0cad 44bb e950 623b e4a2 ebba e2a4 fcba
000003e0: dbf3 753b 41e9 e6ba 000f f7ba 274e 863b
000003f0: a729 e635 cc0e 00b5 82bc 1336 5092 f135

exp_avg_sq f4 [128, 6]
0.00091519346 8.679185e-05 0.0012540495 0.0008696338 8.287615e-05 0.0011112839 0.0008468925 0.00039269569
0.0068964735 0.0007940376 0.0003766429 0.0064572576 0.00013783234 5.3635864e-05 0.00011374604 0.00014275544
5.134806e-05 8.842999e-05 0.0006807129 0.0002737985 0.0034115366 0.0006487699 0.00026121232 0.0031985708
0.00042323957 0.00011222277 0.0019071846 0.00040737184 0.000107024556 0.0017669643 0.0020212147 0.0006562321
0.0076696156 0.0020223833 0.0006247493 0.0069659622 0.00035926508 0.0001378081 0.00083311455 0.00033982607
0.00013066495 0.0007375285 0.00074017217 0.00040387575 0.004989321 0.0006976521 0.00038585096 0.0046507274
0.000584442 0.00022221515 0.0018175722 0.0004756734 0.00021090597 0.0016925263 0.005931731 0.0019817816
0.027591607 0.0060618166 0.0018895497 0.02523964 0.0013509784 0.00046873858 0.0081381 0.0012972209
0.00044900327 0.007649383 0.0019551013 0.0006209913 0.009622144 0.00196097 0.0005912091 0.008860789
0.0001994289 9.156696e-05 0.0019105956 0.00017949323 8.771943e-05 0.0017732944 0.0007492623 0.0001359857
0.0015206116 0.00070886296 0.00012931606 0.0013975117 4.475431e-06 1.1476476e-06 1.360314e-06 2.3348464e-06
1.0601726e-06 3.4303395e-07 0.0032819286 0.0013082104 0.02322119 0.0031644027 0.0012526325 0.021545853
0.003057302 0.00090071 0.01292498 0.0031133492 0.0008553918 0.011796833 0.0022717183 0.0015388214
0.022354648 0.0020626967 0.0014735635 0.020904737 0.00020718442 1.5359738e-05 1.1951781e-05 0.00016212411
1.4707132e-05 1.0006501e-05 0.0030242726 0.0009572039 0.011445512 0.0029921988 0.00091569516 0.010448967
0.00066366425 0.0003294824 0.0045376276 0.0006483276 0.00031518526 0.0042153853 0.0004031821 0.00011417208
0.0011324221 0.00036581868 0.00010883432 0.0010684209 0.0010467423 0.00010690224 0.0008779021 0.001058196
9.974526e-05 0.00071795454 2.4350884e-09 1.7148782e-10 6.187173e-11 1.9993673e-09 1.6585212e-10 9.73451e-11
0.002707692 0.000253113 0.0024772924 0.0028008118 0.00023499032 0.0020877046 0.0069396934 0.0021662677
0.026335383 0.0068288175 0.002053998 0.02372774 0.0020681915 0.0002153405 0.0005401259 0.0018103078
0.00020582379 0.0004777524 0.00013478029 8.913112e-05 0.0014076588 0.00012618134 8.53982e-05 0.0013322082
3.6339182e-07 1.4692222e-07 9.0056254e-08 3.4177447e-07 1.4199024e-07 8.306766e-08 0.0051267073 0.0014922733
0.005450644 0.005262138 0.001409097 0.004141366 8.110649e-05 6.5776358e-06 6.903233e-05 8.467524e-05
6.1006226e-06 5.951216e-05 0.00011239721 3.9222832e-05 0.00043925096 0.00010070619 3.752846e-05 0.00041026206
7.673159e-06 2.304891e-06 2.055157e-06 4.960244e-06 2.1696878e-06 1.0046343e-06 6.080158e-10 1.670694e-10
1.750113e-10 4.033667e-10 1.5737116e-10 5.5697835e-11 1.0485841e-06 7.208716e-07 4.780486e-07 9.828649e-07
6.9874204e-07 6.070302e-07 5.05208e-06 1.352134e-06 7.485944e-06 4.791763e-06 1.295489e-06 7.4489553e-06
0.0032065 0.0007832794 0.011706157 0.0032630567 0.0007439656 0.010695797 0.00027304387 6.228091e-05
0.00030958597 0.00023172778 5.9419996e-05 0.00029022613 0.0010780136 0.0003020389 0.004035305 0.0010505135
0.00028767716 0.0037152888 0.00040967372 0.00019163424 0.0028489765 0.00037571575 0.00018313783 0.0025796427
0.0010080943 0.00016954882 0.001361619 0.0010472301 0.00015916703 0.0011250441 0.00023394579 0.00013323381
0.0010319855 0.00023045749 0.0001270569 0.0009659773 0.0007074744 5.1519502e-05 0.00017262794 0.0006318608
00000000: 98e9 6f3a 0504 b638 eb5e a43a 23f8 633a
00000010: cbcd ad38 80a8 913a fe01 5e3a b9e2 cd39
00000020: d0fb e13b f626 503a 2878 c539 6797 d33b
00000030: 1687 1039 12f7 6038 f18a ee38 9fb0 1539
00000040: 8f5e 5738 7d73 b938 df71 323a 9d8c 8f39
00000050: 1694 5f3b 3612 2a3a 53f3 8839 1d9f 513b
00000060: 41e6 dd39 2459 eb38 7ffa f93a 8694 d539
00000070: 5f72 e038 7c99 e73a 5b76 043b fe06 2c3a
00000080: 6651 fb3b f689 043b 37c6 233a ba42 e43b
00000090: be5b bc39 9580 1039 5f65 5a3a af2a b239
000000a0: 1b03 0939 b356 413a 1d08 423a 49bf d339
000000b0: 757d a33b a4e2 363a 0a4c ca39 2165 983b
000000c0: 3d35 193a 6d02 6939 9a3b ee3a ce63 f939
000000d0: a426 5d39 c2d7 dd3a f75e c23b c7e0 013b
000000e0: cb07 e23c 34a2 c63b c4aa f73a 5dc3 ce3c
000000f0: 5013 b13a 07c1 f539 aa55 053c 8307 aa3a
00000100: 3368 eb39 ada7 fa3b 2821 003b 05ca 223a
00000110: 32a6 1d3c 9e83 003b 5ffb 1a3a d82c 113c
00000120: ca1d 5139 a307 c038 f36c fa3a 5936 3c39
00000130: 03f6 b738 e36d e83a 246a 443a 6297 0e39
00000140: 424f c73a fdd2 393a 0499 0739 b62c b73a
00000150: a92b 9636 df08 9a35 0894 b635 5bb0 1c36
00000160: 414b 8e35 3a2a b834 a015 573b 4278 ab3a
00000170: 5d3a be3c de61 4f3b 5f2f a43a ee80 b03c
00000180: 045d 483b a01d 6c3a 4cc3 533c 5509 4c3b
00000190: 5f3c 603a 8147 413c 1ce1 143b 47b2 c93a
000001a0: 1821 b73c 4f2e 073b 9624 c13a 6940 ab3c
000001b0: a53f 5939 c9d8 8037 8284 4837 dcff 2939
000001c0: a7be 7637 98e1 2737 e032 463b deec 7a3a
000001d0: f585 3b3c c418 443b 430b 703a 2532 2b3c
000001e0: c1f9 2d3a 61be ac39 61b0 943b 87f4 293a
000001f0: 733f a539 3721 8a3b 2f62 d339 ab6f ef38
00000200: c86d 943a 5acb bf39 fb3d e438 420a 8c3a
00000210: d832 893a b430 e038 0323 663a 2ab3 8a3a
00000220: 542e d138 1d35 3c3a 8756 2731 888d 3c2f
00000230: b00e 882e 3e65 0931 395b 362f 6b10 d62e
00000240: 8973 313b 40b4 8439 125a 223b d38d 373b
00000250: bc67 7639 dfd1 083b 5e66 e33b f1f7 0d3b
00000260: 4dbd d73c 46c4 df3b 5e9c 063b ad60 c23c
00000270: 7f8a 073b 06cd 6139 3c97 0d3a da47 ed3a
00000280: 67d2 5739 d77a fa39 cf53 0d39 e8eb ba38
00000290: 3181 b83a 8c4f 0439 cf17 b338 7d9d ae3a
000002a0: 3118 c334 acc1 1d34 f364 c133 207d b734
000002b0: fb75 1834 ee62 b233 f0fd a73b 6298 c33a
000002c0: 519b b23b 036e ac3b 73b1 b83a 4cb4 873b
000002d0: b717 aa38 76b5 dc36 73c5 9038 ac93 b138
000002e0: f3b3 cc36 b29c 7938 cbb6 eb38 3283 2438
000002f0: 444b e639 3932 d338 e167 1d38 7118 d739
00000300: f8bb 0037 baad 1a36 54eb 0936 2c70 a636
00000310: f49a 1136 f9d6 8635 4f21 2730 dbb1 372f
00000320: 4d6d 402f d1c0 dd2f 0b08 2d2f 30f6 742e
00000330: 13bd 8c35 eb81 4135 4053 0035 fbea 8335
00000340: 3091 3b35 ccf2 2235 0985 a936 f87a b535
00000350: c52f fb36 eec8 a036 aae0 ad35 0af2 f936
00000360: 2524 523b fe54 4d3a 2ecb 3f3c 02d9 553b
00000370: b006 433a 6d3d 2f3c 5427 8f39 cf9c 8238
00000380: ed4f a239 f4fb 7239 bc39 7938 7e29 9839
00000390: 224c 8d3a fa5a 9e39 983a 843b 62b1 893a
000003a0: 60d3 9639 347c 733b 7ac9 d639 6df1 4839
000003b0: e5b5 3a3b b7fb c439 b008 4039 390f 293b
000003c0: 0822 843a eac8 3139 5a78 b23a 3643 893a
000003d0: 13e6 2639 3776 933a 584f 7539 aeb4 0b39
000003e0: b043 873a f6a6 7139 943a 0539 a439 7d3a
000003f0: ce75 393a a516 5838 7603 3539 76a3 253a

exp_avg f4 [128]
4.44607e-05 -0.00014750581 -6.908451e-05 0.00020797727 -4.9966486e-05 -0.00016982591 0.00025335242 0.0005724094
0.00022270798 0.00017510644 -1.3170691e-05 -0.00046208955 -0.00022694956 0.00032100867 9.578611e-07 -0.0005088942
0.00012900046 0.00021592468 4.30144e-07 0.0006813113 0.00032027316 -4.0895615e-05 1.0476462e-05 -3.416684e-08
3.544336e-05 0.0012116843 6.845714e-05 5.0663104e-05 -2.980169e-08 -0.0011608594 6.881615e-06 -5.7570003e-05
-2.1941354e-05 -1.8837925e-09 -2.6833475e-05 -2.962667e-05 -0.00035323104 9.922356e-05 0.0001502932 0.000112972375
0.0003923637 0.00024643782 6.088613e-08 -0.0004414686 -0.0012402294 7.562213e-08 -0.00034791807 0.000106219624
7.0774004e-06 0.00013268109 -0.0007127306 0.00030140195 0.00033657535 0.0005944763 4.1350067e-05 -0.00032422584
9.606537e-06 0.0003983886 -0.0005327913 0.0010787924 -0.0003685701 -0.00018922689 -5.924177e-05 0.00047444328
2.3373464e-06 -8.367473e-06 -3.5663322e-07 1.20324075e-05 -8.624509e-05 -9.168838e-05 0.0001952166 -0.00033109053
0.00022749501 5.408128e-05 6.7897636e-05 -0.00021639443 -4.7766235e-07 9.264915e-08 0.0007403497 0.0007168634
0.00014105429 -0.00026120167 0.00028518634 5.87843e-07 -6.4024084e-06 0.0011465745 0.00024367282 1.7488056e-06
0.00043582206 -0.00038430482 8.242993e-06 1.7615072e-05 -4.2959036e-06 8.1053244e-08 -8.25195e-07 -0.00042005474
-0.00042527937 -0.0004482131 -9.5991185e-05 7.183784e-05 -9.237674e-06 0.00023402314 -1.6104777e-06 3.246271e-05
6.8212485e-06 -0.00017058536 -9.484273e-06 5.259317e-06 -1.4657117e-07 -0.0002379167 0.00029713387 0.0009925168
0.0003224977 0.00026301085 -0.00035668374 3.0222725e-06 -0.0008571719 0.000112380265 0.0003579626 3.1827562e-07
0.001016584 0.0007954548 -0.00024806865 -0.00059210655 0.00012686268 -0.00032549075 5.8375736e-05 -0.00011198335
00000000: 507b 3a38 caab 1ab9 77e1 90b8 7914 5a39
00000010: 1b93 51b8 4c13 32b9 63d4 8439 bf0d 163a
00000020: b886 6939 c79c 3739 b0f7 5cb7 9c44 f2b9
00000030: 4ff9 6db9 0e4d a839 db8f 8035 5067 05ba
00000040: 4c44 0739 d769 6239 8bee e634 079a 323a
00000050: 56ea a739 5587 2bb8 10c4 2f37 d6be 12b3
00000060: 05a9 1438 61d1 9e3a a690 8f38 187f 5438
00000070: 9cfe ffb2 fa27 98ba 9fe8 e636 5277 71b8
00000080: b30e b8b7 0774 01b1 7318 e1b7 ca86 f8b7
00000090: de31 b9b9 3e16 d038 0698 1d39 95eb ec38
000000a0: 2ab6 cd39 5334 8139 81c0 8233 ea74 e7b9
000000b0: 318f a2ba b565 a233 c668 b6b9 3ac2 de38
000000c0: 687a ed36 4f20 0b39 8ad6 3aba 7c05 9e39
000000d0: 6176 b039 a1d6 1b3a 4c6f 2d38 dbfc a9b9
000000e0: c32b 2137 d0de d039 05ab 0bba 4466 8d3a
000000f0: a43c c1b9 356b 46b9 5e7a 78b8 b3be f839
00000100: 4edb 1c36 0662 0cb7 4c77 bfb4 ccde 4937
00000110: 7bde b4b8 d348 c0b8 0fb3 4c39 3896 adb9
00000120: ba8b 6e39 55d5 6238 4464 8e38 f0e7 62b9
00000130: b538 00b5 69f6 c633 0714 423a e3eb 3b3a
00000140: f9e7 1339 e5f1 88b9 1085 9539 43cc 1d35
00000150: 45d4 d6b6 a848 963a 6d82 7f39 81b8 ea35
00000160: 0c7f e439 857c c9b9 634b 0a37 14c4 9337
00000170: 8825 90b6 7e0f ae33 f882 5db5 cb3a dcb9
00000180: 08f8 deb9 25fe eab9 e04e c9b8 a6a7 9638
00000190: 82fb 1ab7 1c64 7539 9827 d8b5 9228 0838
000001a0: 14e2 e436 29df 32b9 a41e 1fb7 3079 b036
000001b0: 2d61 1db4 4779 79b9 a2c8 9b39 5617 823a
000001c0: e914 a939 b8e4 8939 4801 bbb9 3fd2 4a36
000001d0: d5b3 60ba b2ad eb38 edac bb39 78df aa34
000001e0: e63e 853a 1186 503a 360f 82b9 9937 1bba
000001f0: 7106 0539 a1a6 aab9 78d8 7438 9ad8 eab8

exp_avg_sq f4 [128]
1.4166569e-06 6.438207e-06 8.7772514e-07 4.465084e-06 1.8294442e-06 1.0679227e-05 2.2335405e-06 6.5955933e-06
3.6051504e-06 3.2299304e-05 7.675115e-06 1.0105904e-05 1.499446e-06 2.2104848e-06 1.8122229e-08 2.1412076e-05
1.4621766e-05 2.5188583e-05 2.5139826e-07 1.5652573e-05 5.3876634e-06 1.8603776e-06 1.7050105e-06 2.8350224e-12
4.0168416e-06 3.511033e-05 3.5182811e-06 1.4597679e-06 2.4271363e-09 2.4086605e-05 1.0428179e-07 6.414986e-07
3.7087904e-08 2.6900455e-12 1.194407e-08 2.214468e-08 1.2717097e-05 1.0157044e-06 4.9174587e-06 3.1304983e-06
2.720747e-06 2.1718636e-06 8.4580125e-07 8.664297e-06 1.6053926e-05 7.018475e-07 2.8957752e-06 9.863664e-06
3.3616845e-06 2.2786653e-05 1.0825201e-05 3.3044253e-06 6.8705356e-07 1.1660429e-05 9.320011e-06 4.8610746e-06
2.1390706e-08 1.585575e-05 1.2732934e-06 1.0963622e-05 1.5880009e-06 1.8068781e-06 3.669645e-08 2.2037912e-05
2.1852853e-05 1.5165601e-05 2.8789135e-12 1.6447557e-06 8.008235e-07 1.7158503e-05 8.67377e-07 4.321381e-06
2.191153e-05 1.5283358e-06 5.437064e-07 2.9329155e-06 2.6528355e-10 1.5108783e-06 2.0612651e-05 2.8772643e-05
2.3959499e-06 7.1114105e-06 1.6021882e-05 1.8064448e-07 1.1833196e-07 1.1299738e-05 4.9353907e-06 2.8971092e-09
2.4308774e-06 1.1853955e-05 2.036146e-09 3.0435854e-06 1.3835728e-08 9.949771e-07 2.9704263e-11 8.960801e-06
4.0673845e-06 1.0473491e-05 9.342159e-07 7.124299e-07 2.6098892e-06 3.3631177e-06 9.67681e-08 4.852499e-07
4.1240282e-06 1.1147584e-05 9.779972e-07 1.2492235e-06 1.6915086e-11 4.5954193e-06 2.2594706e-06 7.343036e-06
3.2609918e-05 1.9028773e-06 9.306949e-06 1.0516545e-08 1.6095411e-05 1.4202916e-05 1.3626673e-06 2.5782728e-11
5.552529e-06 1.7675093e-05 7.177395e-06 5.6381396e-06 8.206048e-06 2.3018827e-06 6.871369e-06 3.86166e-06
00000000: f623 be35 c707 d836 d09c 6b35 c8d2 9536
00000010: 398b f535 ee2a 3337 efe3 1536 b74f dd36
00000020: 03f0 7136 1d79 0738 5ec4 0037 878c 2937
00000030: 9240 c935 d757 1436 34ab 9b32 159e b337
00000040: 0250 7537 124c d337 eaf7 8634 a54d 8337
00000050: adc7 b436 16b2 f935 b7d7 e435 397f 472c
00000060: 68c8 8636 6e43 1338 9c1b 6c36 3eed c335
00000070: a2ca 2631 970d ca37 85f1 df33 7333 2c35
00000080: 954a 1f33 8d4b 3d2c 9332 4d32 ab38 be32
00000090: 845b 5537 5653 8835 a600 a536 8d15 5236
000000a0: 1496 3636 55c0 1136 050b 6335 df5c 1137
000000b0: 8bab 8637 9866 3c35 0a55 4236 1d7c 2537
000000c0: 4d99 6136 f725 bf37 e29d 3537 98c1 5d36
000000d0: f66d 3835 29a1 4337 245d 1c37 501c a336
000000e0: a9be b732 f701 8537 07e6 aa35 66f0 3737
000000f0: 4c23 d535 dc83 f235 2c9c 1d33 0ede b837
00000100: a550 b737 c36f 7e37 e595 4a2c 60c1 dc35
00000110: 2cf8 5635 9bef 8f37 b2d5 6835 6100 9136
00000120: a7ce b737 3821 cd35 38f3 1135 1bd3 4436
00000130: 57d7 912f 62c9 ca35 55e9 ac37 c85c f137
00000140: 1bca 2036 8d9e ee36 bb66 8637 2df7 4134
00000150: af1d fe33 0194 3d37 af9a a536 7c16 4731
00000160: 2822 2336 59e0 4637 42ec 0b31 6640 4c36
00000170: 2db2 6d32 278b 8535 07a4 022e 5956 1637
00000180: 917a 8836 4db7 2f37 d4c6 7a35 cf3d 3f35
00000190: 8e25 2f36 ecb1 6136 d3ce cf33 1f42 0235
000001a0: 2261 8a36 8206 3b37 ba43 8335 feaa a735
000001b0: 63c9 942d 5a32 9a36 69a1 1736 3364 f636
000001c0: a2c6 0838 5e66 ff35 0b25 1c37 41ac 3432
000001d0: a204 8737 0f49 6e37 e4e4 b635 8bc9 e22d
000001e0: dc4f ba36 f944 9437 5bd5 f036 402f bd36
000001f0: b5ac 0937 0b7a 1a36 9c90 e636 6893 8136
