results/ppo/MoveToGoal/MoveToGoal-37059.pt (torch, 439245 bytes, 36 tensors)

network_body._body_endoder.seq_layers.0.weight f4 [128, 6]
00000000: db1d 04be 4f0a a8be afa1 70be 0ce7 a6be
00000010: 69a1 d1be 932f 873f daf9 1bbe 8280 d7be
00000020: 44da 83bf 32ac 2dbf 9f3e 593f 0d1a 6e3e
00000030: c08d 78bf 9c39 3abe 7457 a03e f99d c2bd
00000040: 01a3 8b3e 9220 8d3e ed49 003f 9244 bf3e
00000050: 5281 c83d ec39 f0be 1f8d 41bf bac9 b8be
00000060: a32a 853e 49d5 b2be 7469 2dbf 79eb a83e
00000070: bbac 23bf 0e01 313e 5eba c33d 221f 59be
00000080: 7293 d5be 3471 e8be b25f cbbe d4f7 fb3d
00000090: 6a9e e03e cdd1 68be 5f85 73be bff4 12bf
000000a0: 7ed0 313d 44f9 663e 90b4 b2be 6bf3 a1be
000000b0: 1f55 18bf a8ed 84bd 05b6 5a3f c59e d7bd
000000c0: 7904 63be fca3 a0be 5e67 edbe 5ea8 ce3e
000000d0: 4d75 45be 3b8b 45bf d6c3 46be 19ae 58be
000000e0: a1a1 07be ab88 c7bd 9780 c93e f11b 38be
000000f0: 93e4 d63d 3c7c a5be 3897 873e ad91 24bf
00000100: 0731 023d e5a6 dbbd 94f0 583e d580 02bf
00000110: ad03 28be 9d5c 3a3f 1b0f cbbd ceb3 a5be
00000120: bdd2 c43d 29de ac3e 028a 98be 3d67 113e
00000130: ef27 3fbf f1db 18bf 7d5b c9be 917f 03bf
00000140: 9192 183f b9d3 32bf 9616 2abc 9d27 acbe
00000150: d4b4 cfbe 43a7 53be 0833 fd3e 6d12 adbe
00000160: c1f7 74bf 1c03 bc3e ba3b adbe e62f 363d
00000170: 0365 c03c 7620 7d3e 4531 afbd ef8c 123e
00000180: 2f85 edbd 924d 9bbe 6881 223f ed71 acbe
00000190: a593 56bd 7e03 d73e 1ff0 013f f158 3c3e
000001a0: d3d7 8bbe dcbd 78be 76f1 183d 0c33 bdbe
000001b0: 6d28 eb3e 1a0d b33d 44a7 b5bd 9433 223f
000001c0: 09f9 153f d099 78bf 23f8 72bd 3aba db3e
000001d0: b978 323f 448c 37bd 1a88 ca3e 5e46 593e
000001e0: af7e 3fbd 22f2 b23e 057d 29be 66aa 75be
000001f0: 3958 2b3d c581 91be e975 80be 15f7 1e3e
00000200: 5284 22be bfb0 0a3f 08ab 0b3f e117 353f
00000210: 7c5c 0dbf cd68 32bf 1a4b b03c e7c7 cc3e
00000220: 7522 e8be 9765 e6be fa2f cc39 9ae2 e1bd
00000230: 63e2 d0be 6c46 253f f6cf b9bd 1d5a 093f
00000240: 95fa c63e 0deb 203f 8c1d 11be c5e2 c1be
00000250: 66c8 a63e 5af4 27be 2b4e ca3d 122b ca3e
00000260: a93d 803e a849 113f 6b99 8c3a 0933 b63e
00000270: e176 173f 5bff 823d bd42 12be ccf9 5cbe
00000280: 40e3 88be ca3a 663e 6766 abbb 4a41 a8bd
00000290: f49d 4cbe 972e a6be e126 cebd a642 093e
000002a0: cdb8 183e 641b dbbe 7859 b0be cfed 3d3d
000002b0: a573 15bf 0d91 1f3f 993c 083f 63e1 95be
000002c0: 96a0 a13e 3d12 07bf 8d30 0fbc ab66 de3e
000002d0: b36b 163e 6773 2abd fc90 0abf 57c1 333e
000002e0: da03 3f3f 7330 083e a51f 493f b17a 9abe
000002f0: 8fe6 563e 7745 edbe 9d39 4dbe 5cdd d73e
00000300: ef90 a83e 7eb2 143f f66c 79bd 3955 963e
00000310: 2512 6ebc 39c6 d23d 72db 783f 48de 09bf
00000320: 7c23 0f3f f48a 723d 9948 98be 7af7 0b3e
00000330: 2779 81bd 7023 053f 0835 b23e fce2 99bd
00000340: e22d 74be aa23 7cbd 8c08 663d d810 783e
00000350: 1c07 203e 7f3e a13e 5574 f2be fd70 c1be
00000360: 4837 debc d53b 423e 940b b33d 6501 cd3e
00000370: bb28 103e 4e42 fbbd ee45 083d 6205 463e
00000380: b0e5 24bf 9fb5 bb3d 1cc5 713f b9bc 0d3e
00000390: a0da 08bf fbb6 963e 044e 31bf 97b8 8a3e
000003a0: 795c 7f3d ff63 10bf 0fd1 07bf 7cdf d93e
000003b0: 8aaa 15be 74d9 38bf fab8 fb3e 9163 da3c
000003c0: 0898 23bf 9ae5 b43e d87e 633e 9a54 cd3d
000003d0: 1082 5abe 8a75 173e 57f1 70bd 51f8 ebbe
000003e0: 03fd a13d 68c3 c53e 25c0 aebe be5b 04bf
000003f0: e3fe afbe ddce ba3e 2935 b53d b63b f5bd
-0.12902014 -0.32820365 -0.23499177 -0.3259815 -0.4094346 1.0561393 -0.1523203 -0.4209023
-1.0300984 -0.67840874 0.8486118 0.23252125 -0.97091293 -0.18186039 0.3131672 -0.09502787
0.272728 0.27563912 0.501128 0.37357002 0.09790291 -0.4691919 -0.7560596 -0.36091405
0.26009092 -0.3492835 -0.67739034 0.3299215 -0.6393544 0.17285559 0.09557031 -0.21203282
-0.41714054 -0.45398867 -0.39721447 0.12303129 0.4387086 -0.22736283 -0.23781346 -0.574047
0.043411724 0.22556025 -0.34903383 -0.31631026 -0.59504884 -0.06490642 0.8543399 -0.1052833
-0.22169675 -0.3137511 -0.46367925 0.4036283 -0.19283028 -0.77165574 -0.19410643 -0.21160163
-0.1324525 -0.09742864 0.3935592 -0.17979409 0.10492816 -0.32321346 0.26482558 -0.64284784
0.031785037 -0.10725192 0.21185523 -0.5097783 -0.16407652 0.72797567 -0.099149905 -0.32363743
0.09610508 0.33763245 -0.29792792 0.14199539 -0.7467031 -0.59710604 -0.39327613 -0.51366526
0.5959864 -0.69854313 -0.0103813615 -0.33623973 -0.40567648 -0.20669274 0.49452996 -0.3380312
-0.9569054 0.36721122 -0.3383463 0.044479273 0.023485666 0.24719414 -0.08554319 0.14311574
-0.115976684 -0.3033262 0.6347871 -0.33680668 -0.0523869 0.41994852 0.5075702 0.18393303
-0.27313098 -0.24291176 0.03733965 -0.36953008 0.4592928 0.08742733 -0.08869794 0.6335995
0.5858312 -0.971097 -0.059318673 0.42915517 0.6971546 -0.044811502 0.39556962 0.21218249
-0.046751674 0.34950358 -0.16551597 -0.23990783 0.041832183 -0.2841932 -0.25089958 0.15523942
-0.15870789 0.54175943 0.5455785 0.7073956 -0.55219245 -0.69691163 0.021520186 0.39996263
-0.4533879 -0.44999382 0.00038945657 -0.11029549 -0.4079772 0.6456058 -0.090728685 0.53653127
0.38863054 0.6285866 -0.14171427 -0.37868324 0.32574767 -0.16401806 0.098781906 0.39485985
0.25047043 0.56753016 0.0010726874 0.35585812 0.5916577 0.063963614 -0.14283271 -0.21579665
-0.26735878 0.22483364 -0.005230713 -0.08215578 -0.1998213 -0.3245742 -0.10066009 0.1340433
0.14914246 -0.42794335 -0.3444326 0.04636937 -0.58379585 0.62330705 0.53217465 -0.2927352
0.3156783 -0.52762204 -0.008739603 0.43437704 0.14689521 -0.041613963 -0.5412748 0.17554222
0.7461525 0.13299732 0.7856391 -0.3017173 0.20986389 -0.4634206 -0.20041509 0.4216107
0.32923076 0.5808486 -0.06089493 0.29361895 -0.014530693 0.10291714 0.97209847 -0.538548
0.5591352 0.059214547 -0.29742888 0.13668624 -0.06321936 0.520072 0.34806085 -0.07513997
-0.23845628 -0.06155745 0.056160495 0.24225175 0.15627712 0.31492993 -0.4735438 -0.37781516
-0.02712597 0.18968137 0.08742443 0.40040126 0.14078037 -0.12268506 0.033269815 0.19337991
-0.64412975 0.09165501 0.9444139 0.13841523 -0.53458595 0.29436478 -0.6925967 0.27093956
0.06234405 -0.5640258 -0.53053373 0.42553318 -0.14615837 -0.7220681 0.49164563 0.026658805
-0.63903856 0.35331422 0.22216356 0.10025902 -0.21338677 0.14790931 -0.05882391 -0.46087888
0.07909586 0.38625646 -0.3413097 -0.5170249 -0.3437415 0.3648595 0.0884803 -0.119742796

network_body._body_endoder.seq_layers.0.bias f4 [128]
00000000: 0d1c a13a 862b 7c39 46e7 aa3a 873d c439
00000010: a393 093a 3e75 b4bb 85eb c7b9 df4a 533b
00000020: dc52 293a 9541 ab3a 7799 b2b9 400e fbba
00000030: 7504 11ba d726 f539 5f7c 1aba 1f69 93ba
00000040: d41e a5b9 0335 c7b7 af3b 663b e4ad dd39
00000050: ad9e 52b9 ce33 1b39 e12d 163a 81d2 1eb9
00000060: a670 84b9 d95b 0dbb 8da9 f5b9 1c1a 783a
00000070: 81fc 07b8 06e9 05bb 5b46 a239 73bd 8b38
00000080: c4e9 76ba 18ca 96b9 367b 16ba 0686 4cbb
00000090: 48f9 57b9 17c0 063a e728 d33b 4dce f13b
000000a0: 77d8 743a 1835 ae39 5b95 0ebb d419 683a
000000b0: 7227 96bb 6dbc 873b a85d 74ba 129b aeba
000000c0: 572f 9fba 25e3 8bb9 454e 7fba 1944 beba
000000d0: e620 02bb 5114 e639 f8ee 3bba d5ea a139
000000e0: 57e7 d339 f21d 23bb 65d9 9039 9b09 87ba
000000f0: b6c1 8eba 9b33 ecba 5006 e4b9 218d b4ba
00000100: 4946 b43a 3d15 8c38 5c2a f739 a467 f138
00000110: 1220 7f39 8bf3 9d3b 174e 46ba bf23 92ba
00000120: c927 4a38 be19 e138 ae91 9f39 7522 073a
00000130: eda0 81b8 394a 2eb9 b092 9cb8 4957 77b9
00000140: 3042 0bbb 69d2 c0b7 875e 2eb9 9100 6eb9
00000150: 87a6 a9b9 178e b23b 3075 c33a 6880 c439
00000160: 2dc6 053b efee ce39 a341 d53a 0023 8d3a
00000170: 9083 e9ba 1f19 5f38 d92f 9f3a cc18 49b9
00000180: c7eb 1538 09e7 10b9 c989 df3b 58cc 803a
00000190: aff5 d0b9 be62 67b9 c656 f639 cc05 52b9
000001a0: 16ac 11bb 444d 99bb 0fe3 8f39 4c00 a2b7
000001b0: c160 6aba 6ce5 13ba 1267 2bba 79c5 58ba
000001c0: 7f6f 853a 434c baba 4edc 21bb 46e1 bb3a
000001d0: c7a4 74ba a95d 8ebb de8b fd3b 6379 663a
000001e0: 6ed2 25bb f0d1 6bba 5fc4 9dba a2d1 083c
000001f0: 192f 1ebb 8310 1b3c 70d0 623b 16c0 a4ba
0.0012291685 0.00024048807 0.0013038896 0.00037429875 0.0005248135 -0.0055071404 -0.00038131714 0.0032240672
0.00064591854 0.001306581 -0.00034065146 -0.0019154027 -0.0005531975 0.0004675898 -0.00058931665 -0.0011246538
-0.0003149422 -2.3747334e-05 0.003513079 0.00042281963 -0.00020086272 0.0001480125 0.00057288824 -0.00015146473
-0.00025260932 -0.0021569638 -0.00046856367 0.000946434 -3.242167e-05 -0.0020433082 0.00030951467 6.663324e-05
-0.0009418989 -0.000287608 -0.0005740406 -0.0031207814 -0.00020596862 0.0005140318 0.006444085 0.0073793293
0.0009340117 0.00033227424 -0.0021756503 0.00088539463 -0.004582339 0.004142335 -0.0009321817 -0.0013321361
-0.0012144846 -0.00026681382 -0.0009739141 -0.0014516144 -0.0019856035 0.00043884155 -0.0007169093 0.00030883276
0.00040417418 -0.0024889675 0.00027627792 -0.0010302545 -0.0010891471 -0.0018020751 -0.00043492252 -0.001377497
0.0013753857 6.679676e-05 0.0004714307 0.0001151108 0.00024330642 0.0048202923 -0.0007564737 -0.0011149569
4.8197606e-05 0.00010733631 0.00030435383 0.0005154976 -6.181174e-05 -0.00016621583 -7.465982e-05 -0.00023588272
-0.0021249168 -2.2986163e-05 -0.00016629147 -0.0002269766 -0.00032358264 0.0054490673 0.0014912244 0.00037479703
0.0020412311 0.000394694 0.0016270172 0.0010767877 -0.0017815698 5.319074e-05 0.0012144997 -0.00019178091
3.5743953e-05 -0.00013818977 0.006821845 0.0009826524 -0.000398559 -0.00022066661 0.00046985428 -0.0002002932
-0.0022227815 -0.0046784002 0.00027444257 -1.9312043e-05 -0.0008940809 -0.00056417915 -0.0006538491 -0.0008269172
0.0010180323 -0.0014213402 -0.0024697962 0.0014334104 -0.0009332415 -0.0043446613 0.0077376207 0.0008791892
-0.0025302428 -0.00089958217 -0.0012036673 0.008350762 -0.002413696 0.009464386 0.0034609102 -0.0012569453

network_body._body_endoder.seq_layers.2.weight f4 [128, 128]
00000000: 3314 5fbd 1226 cb3d aa5a 04be 4787 323e
00000010: 3ebd 9b3d 926f f33c a253 4fbd 7edc f6bc
00000020: 9043 e03d 5ba4 923d dc46 f1bd 29e9 1fbe
00000030: a95b 5a3c 8782 be3d b56d 86bd 953a e3bd
00000040: 4ec4 bc3d efd8 113c fbe5 95bd cd17 d0bc
00000050: 7d7e 5d3d d3eb 2dbd 1671 3dbc e5d2 9e3d
00000060: ddf6 773d 153c 29be f848 1f3e 521e a0bc
00000070: 52ce bcbd 8568 f5bc 4d71 003e 5896 213d
00000080: 60dc cabd 9aac bdbc ea7a 89bd abf6 21be
00000090: 5ec3 0f3e e234 993e ef72 41bc ba87 253e
000000a0: 11b0 c4bd 7182 213e 67d1 b8bd 37f3 6f3d
000000b0: b986 f3bd 6099 273e b875 193d aac3 083e
000000c0: cc52 ad3d cd05 31be 8273 1dbb 378e 893c
000000d0: e88b 233e 8aa5 06be 85db a53d 4fce a0bd
000000e0: 5344 7d3d 6707 753c 5c81 93bd 4039 ecbd
000000f0: b6b1 9f3d 6347 f43c 06de 0d3e 45f8 ea3d
00000100: 80bb 263c da1e a9bd c8a7 01bd 2dbb 173e
00000110: b384 033e 7799 a3bc 5c66 183d 456e 17be
00000120: 8c47 413d 0ed8 e73b 2423 693e 83b2 a1bd
00000130: 1f6b dabc 3496 11be 6d94 823d c130 273e
00000140: 174b f03c 82ba 833d e463 2fbd e4d5 07bd
00000150: b714 e93b afa8 35bd b5c5 d0bc c78d 593d
00000160: 9321 6abe 6b91 ccbd 6c06 5f3d 7e87 fd3c
00000170: cfe3 513d 2e7e d7bd a3e8 3e3c 4875 813c
00000180: 541a cb3b 2bf4 953c 64f2 ea3d ee10 d2bd
00000190: 868d f23b e089 f9bc 802b f7bd 2852 013d
000001a0: f3b2 03bd cca2 b83d 1001 f7bd b9b5 2abb
000001b0: c08d 8fbd 5b04 713d 1c86 78bd 1c4c e5bb
000001c0: f79a 1abe 354c 12bc 72e8 ac3d 7c3b fe3d
000001d0: 809c 10be 7270 8abb 12c1 763c e468 09bd
000001e0: 5315 013e 4142 4b3c f63b d23d 79e3 9c3c
000001f0: 3a79 37be b8f5 2cbe 7980 05bd 9b07 00be
00000200: 281d bbbc b03f a6bd 2320 44bd cafc 893d
00000210: fa87 e9bd 3196 383d a190 d23d 1482 ef3d
00000220: 9b3e 33be b3a4 d03d a732 b5bc 7ea5 0f3e
00000230: 1c5a d73d 1614 3bbe a5ae 99bd b766 edbc
00000240: 2d7b cd3d 96e5 cb3d 53a4 793d a426 7abe
00000250: 11dd b1bd 467e 0dbe 2530 c33b 85cb d93b
00000260: a1ea 423e e4a4 18bd 0614 3cbe 5a28 e83c
00000270: 199c c13d d551 96bc cdc2 aebd 4f9b 07be
00000280: 0661 803c d3a1 253d ce4d 91bd 2c72 fb3d
00000290: aa8b a53c 0c61 e53c 392f d03d b43f c43c
000002a0: 8dc9 23bd 817d 0ebe 64d3 53bc 6554 ffbd
000002b0: 70af 1bbd d915 59bd 6f28 9ebd f477 083d
000002c0: b039 dc3d e217 47be a2e0 673c dc86 8bbd
000002d0: 40d9 143d f619 ffbd d5ef edbd c789 34bd
000002e0: 0ca5 1d3d 0c86 54bd 4764 193e c669 73bd
000002f0: b858 753c c782 193d 22e2 623e b3f0 f2bc
00000300: 1db6 3c3d 3f39 743d 9412 8c3d d20b 913c
00000310: 6f3a 0d3e cc00 d33d e750 2abc 5210 093e
00000320: 4758 1bbe cd08 883d 6b32 c6bd 1a71 d53c
00000330: 7880 813d 7c83 19be 32a0 8abd 6e96 c8bd
00000340: 9e3f 263e 0ff7 0e3d 35cc ea3d 055e 2abd
00000350: 5a76 ff3d 88e3 ff3d 96c5 74bd 0d33 be3d
00000360: cd06 623d a6f0 053d c099 afbc 2e76 27bd
00000370: 99b5 4b3e 25ec 30be 37b2 15be c774 45bd
00000380: 32ad aebd dd02 11be 8824 56bd 622a b2bb
00000390: 19b4 04bd b703 583d 7253 773d cf89 ef3d
000003a0: 2b47 1b3e 8de5 933d 8237 98bd 2abb 83bc
000003b0: 225d 5e3c fa46 a0bb 9e7b e6bd 7070 7a3d
000003c0: e904 903d 9f58 863d 4857 243e 4c42 12be
000003d0: 32fc a13d 47c1 fabd e784 6e3c 1845 a53c
000003e0: f6a6 093c 01f2 143c 6bf7 593d 1c59 503c
000003f0: fcdd 82bd 90e7 c6bc d113 033d 5e4b 893c
-0.054462623 0.09919371 -0.1292521 0.17434417 0.076044545 0.029716287 -0.050616868 -0.030134436
0.109503865 0.071602546 -0.117810935 -0.15616287 0.013327518 0.0930224 -0.06563894 -0.11095158
0.0921713 0.008901819 -0.07319256 -0.025401974 0.054075707 -0.042461228 -0.011562606 0.07755069
0.06053816 -0.16526826 0.15555179 -0.019545708 -0.0921904 -0.029957065 0.12543221 0.03945002
-0.099053144 -0.023153592 -0.06712897 -0.15816753 0.1403937 0.2992316 -0.011807187 0.16165057
-0.096038945 0.15772416 -0.09024315 0.058581557 -0.11890931 0.16367102 0.03746578 0.1335589
0.08463058 -0.17287369 -0.0024025147 0.016791446 0.15971339 -0.13149086 0.08098511 -0.0785185
0.061832737 0.014955378 -0.07202408 -0.11534357 0.077975675 0.029819196 0.13854226 0.11473135
0.010176539 -0.082578376 -0.03165415 0.14817496 0.1284359 -0.019970639 0.037206993 -0.14788158
0.047187373 0.0070753163 0.22767311 -0.078953765 -0.026662407 -0.14217454 0.06375966 0.16327192
0.02933268 0.06432058 -0.042819872 -0.033162966 0.007113065 -0.044350322 -0.025484899 0.053113725
-0.2286437 -0.09988674 0.054449484 0.030948397 0.051242646 -0.10522114 0.011652145 0.015802994
0.006198207 0.018304905 0.114720136 -0.10257135 0.007402125 -0.030461252 -0.12068844 0.03157249
-0.03215308 0.09015426 -0.120607495 -0.0026048257 -0.070094585 0.058842044 -0.06067477 -0.0069975983
-0.15098177 -0.008929302 0.08442773 0.124136895 -0.141222 -0.0042248303 0.01506068 -0.033547297
0.12605791 0.012405933 0.10265343 0.019151436 -0.17917338 -0.1689061 -0.032593224 -0.12502901
-0.022841051 -0.08117616 -0.04788221 0.06737669 -0.114028886 0.04506511 0.10281492 0.11694732
-0.17504351 0.10187664 -0.02211888 0.14027974 0.10515234 -0.18269381 -0.07504014 -0.028979642
0.100332595 0.099558994 0.060947727 -0.24428803 -0.08684743 -0.138177 0.005956667 0.006646576
0.19034816 -0.037266627 -0.18367013 0.028339554 0.094536014 -0.018349567 -0.08533249 -0.1324284
0.015671264 0.04043753 -0.07094918 0.12277636 0.020208199 0.028000377 0.10165257 0.023956157
-0.039987136 -0.13915063 -0.012928817 -0.12467269 -0.038009107 -0.05299935 -0.07722556 0.03331752
0.107531905 -0.19442704 0.014152678 -0.06812832 0.03634 -0.124561235 -0.1161801 -0.044076707
0.03848748 -0.05188565 0.14979659 -0.059427045 0.0149747655 0.037478235 0.22156575 -0.02965579
0.046072114 0.059624907 0.06839481 0.017705832 0.13791822 0.10302886 -0.010395265 0.13385132
-0.15170394 0.066423036 -0.09677585 0.026054908 0.063233316 -0.14991564 -0.06768836 -0.09794317
0.16235206 0.034903582 0.11464731 -0.04159357 0.12473746 0.1249457 -0.059758745 0.09287081
0.055182267 0.032700203 -0.021435618 -0.04088419 0.19893493 -0.17277582 -0.14618765 -0.04820707
-0.08529128 -0.14161249 -0.052280933 -0.0054371813 -0.032398317 0.052737918 0.060382314 0.11696207
0.15163867 0.07221518 -0.07432462 -0.016080458 0.013572009 -0.0048912736 -0.11254047 0.061142385
0.070321865 0.06559872 0.1604892 -0.14283103 0.079094306 -0.12243896 0.014558054 0.020174548
0.008401623 0.009090901 0.05321447 0.012716558 -0.063899964 -0.02428034 0.03200132 0.01675957

network_body._body_endoder.seq_layers.2.bias f4 [128]
00000000: d3db ccbb df3b a4bb dcfe 3039 f25b 0b3c
00000010: 474f 313a cee3 18ba 1cbc e0b9 739f cc39
00000020: db47 8e3b 5f8f d7ba 0ef9 5b39 01d5 e4b9
00000030: 397e 35ba c847 0dbc c6a6 22ba 9990 82bb
00000040: 21f3 b1b9 3a7e bb3b fd4d eaba a678 e2b8
00000050: eacc cdbb bcb6 7bba 977c 073a 0dbd 90b8
00000060: 33c0 e1bb 17e9 a4ba 26a5 deba 0a9a ac39
00000070: 622a f5ba c3af ab39 458f 91b7 11bc 9b3b
00000080: 6165 99b9 396e eeb7 ffe1 07bb 46b5 c7ba
00000090: 11c1 303c da25 8cb9 ae98 eabb 0cc6 42bb
000000a0: a22f 2ab9 1b9d 52ba 92ad 053a f7e5 66bb
000000b0: ec89 00b9 184a d3b9 6f48 2dba ea9e 5dba
000000c0: 231c 93ba 81cc 68ba ab35 d0b9 dc21 05b7
000000d0: 53d5 b138 4d22 e939 e7cc d0bb 6e07 61ba
000000e0: 495f 603b 4d63 ea39 3f4f 0fba 837b 0eba
000000f0: bc99 2fba 9529 0939 8e95 f6b8 db43 133c
00000100: e033 9ebb c22a 2c38 ddee 8c3b 0401 8fbb
00000110: 5407 6eba a0c1 17bc f095 82ba db0f 9f3b
00000120: 33f8 c63a e747 85ba 99b0 663a 3412 50ba
00000130: 639f 39ba 9481 8638 76f3 243c c913 23b9
00000140: 3ecb e5b9 dbe0 6bba 34a7 0aba 9e6d 19bb
00000150: 6dae 2c3b 9c71 1139 e720 67b9 3013 d4ba
00000160: 3080 46ba f5a8 35ba 8629 813a e73a 7cba
00000170: a2bc e93b 122f 0cba 47a3 48ba baf6 4fbb
00000180: 6944 973b 7182 ca3a e763 0bbc 6def ae3b
00000190: b0a6 a2ba c8ef afbb 0fff 61ba 521a c839
000001a0: 6900 b3ba f3a2 c8bb e58d 44b8 c716 6238
000001b0: 7c5d 2038 f0a0 183c a461 2f3a fdd7 47ba
000001c0: b7bf 67b9 2e7a 303b 559b 68b9 0e28 233a
000001d0: a580 60ba c45b 393a 5dbc deb8 71c4 f139
000001e0: bc14 3cbb 87ac 9d3b d14d 9b37 653e 8fba
000001f0: 226b 39b8 3d61 cc39 d200 f339 5cd4 2bba
-0.006251791 -0.00501202 0.0001687961 0.008505808 0.00067638274 -0.00058322854 -0.00042864762 0.0003902871
0.004342062 -0.0016445926 0.00020978248 -0.0004364625 -0.00069234107 -0.008623071 -0.0006204661 -0.0039845225
-0.00033941216 0.0057218345 -0.0017876026 -0.00010798992 -0.006280531 -0.00096021197 0.00051684066 -6.9016685e-05
-0.006889367 -0.0012581673 -0.0016986474 0.00032921165 -0.0018704648 0.00032746614 -1.7352062e-05 0.004752644
-0.00029257967 -2.8423137e-05 -0.002073407 -0.0015236519 0.010788218 -0.00026731082 -0.007159314 -0.0029720096
-0.00016230208 -0.0008034275 0.00050994114 -0.0035232285 -0.00012258411 -0.0004030026 -0.000661022 -0.0008454161
-0.0011223595 -0.0008880571 -0.00039712837 -7.935301e-06 8.4797524e-05 0.0004446678 -0.0063720825 -0.0008584176
0.0034236482 0.00044705943 -0.00054668257 -0.0005435275 -0.00066986284 0.00013080829 -0.00011758051 0.008988346
-0.0048279613 4.1047817e-05 0.0043009357 -0.0043641347 -0.00090800715 -0.009262472 -0.0009962898 0.004854185
0.001518017 -0.0010168523 0.0008800119 -0.0007937283 -0.00070809404 6.413754e-05 0.010067811 -0.00015552262
-0.0004382971 -0.00089980447 -0.00052891974 -0.0023411284 0.0026349083 0.000138706 -0.00022042134 -0.0016180035
-0.0007572202 -0.00069297786 0.0009854294 -0.0009621814 0.0071330825 -0.000534759 -0.0007653725 -0.0031732754
0.0046163094 0.0015450252 -0.008507705 0.0053386004 -0.0012409296 -0.0053691603 -0.00086210755 0.00038166583
-0.0013656738 -0.0061229407 -4.686219e-05 5.3903812e-05 3.8234037e-05 0.009315714 0.000669027 -0.00076234323
-0.00022101296 0.0026928294 -0.0002218311 0.0006223925 -0.00085640914 0.0007070864 -0.0001062087 0.00046113462
-0.0028698882 0.0048118266 1.8513676e-05 -0.0010928629 -4.4207212e-05 0.0003898236 0.00046349183 -0.00065547763

action_model._continuous_distribution.log_sigma f4 [1, 2]
00000000: b487 01bb 193b 59ba
-0.0019764723 -0.00082866993

action_model._continuous_distribution.mu.weight f4 [2, 128]
00000000: 4551 b43c 0f7d ccbb b2de 08bb b9b4 a2bc
00000010: fa1d 39bc cd5b 8f3c b5c4 a1bc 44ef ba3c
00000020: 29c5 1fbb 9e18 503c 1c12 c8bc b32b 84bc
00000030: c8bc 9c3c 76df ed3b 94a4 f9ba c6e6 0dbc
00000040: 9be9 b5bb f45e bfbc aabf 913c 731d b9bc
00000050: 9c25 a43c dd54 463d 4dac dabc 6322 28bb
00000060: b689 de3c 6ac8 f93c 6f1d da3b 9f3c cfbb
00000070: e093 863b 8e1a 77bc a87d 84bb b7fc a53b
00000080: f3c8 a4bb 5cfd b23b 66ba e83b 7fe0 dd39
00000090: 99bf 38bb f0e4 c73c 8c77 af3b 3679 aebc
000000a0: 63a7 5dbd 1530 963a 1e00 edbc 8cb9 b2bc
000000b0: c8e0 55bc 5dd4 023d c1ef 7dbc 25a6 1aba
000000c0: 9b6e 47bb 347e cb3c bb34 a5bc b6e2 69bc
000000d0: 6dbd 8a3c 2b5b f73b 57ae 053c 26a1 ad3b
000000e0: 6075 d63a 2324 bebc 2acf c03b 6d5e babc
000000f0: 4329 f239 abcc 653d e11f a5bc 98dd 54bc
00000100: 3f84 803c 8da5 88bc a2fe f43b 83a8 27ba
00000110: 475d 883c 3d19 863c 6331 13bb cddd a33c
00000120: 550b 93bc 8710 633c 13f0 1fbd 84b8 2bbb
00000130: 37db 3f3c 41a9 b8bc 45b3 22bb bb7a af3b
00000140: 1606 dfbc 6a4d dd39 3e42 8a3c 1e5a 9f3b
00000150: 5d17 103a 8b7b b0bb b493 63bc 232d df3b
00000160: 0e2d 7cbc a064 e63c 88dc 163b 797a fa3a
00000170: c5eb aabc 1110 4d3c 4715 c7bc 773f 803a
00000180: 3563 b33b 6b49 da3c 0b29 2b3c 2c52 37bb
00000190: 357f 4d3c 41de a0bb 5029 72bc 2257 c93c
000001a0: 85a5 853c e821 b83c 9eac 9c3b 802e e539
000001b0: d1be 1b3b 0ffa 0ebc 0009 58bb 487c 90bc
000001c0: 3e30 eabc 8f8d 0abc 0edc 613c 3e8d 8abc
000001d0: 73e0 963c 47f7 0f3c 7822 45bc d337 ecbb
000001e0: 9380 163d e9a9 00bd 9277 863b f872 86bb
000001f0: d443 a13c 1c12 0f3d 10c4 b8bc 242f 43bc
00000200: 55cb 953c 1acb 0f3d 5911 61bc 52bd f4bc
00000210: 71e7 51bc 010d b13c a50b 67bc d7f9 953c
00000220: 5a2f 73bc 24f1 c7b9 c5a0 9a3b e188 543c
00000230: 5342 083d 444a a03c 11fc 0dbc c2a5 83b9
00000240: a1af 393c 3dd2 a4bc 6682 bf3a cfe2 903c
00000250: 9a71 423c 8b13 1bbb 0b77 89bc 7ea5 88bc
00000260: 7bb6 bd3c e9d7 89bb 3e72 833c 79cb 9ebc
00000270: 800d bd39 62d2 343a c4ca 84bc cccd 20bc
00000280: 7703 e83c 6353 5bbc d9c5 6f3b df02 5c3c
00000290: a93c 81bc ad6d d2bc 0f91 643c 4d80 a53c
000002a0: 529b 893a 124e 963c 02ef d73a 6cdf fc3c
000002b0: 5e41 173c 375e 54bb f15d 153c 1dc6 413c
000002c0: 4a06 bf3c bd91 db3c c239 193d 25ed 20bc
000002d0: 11b4 25bd bff5 8ebc 26d1 ad3b 1248 443b
000002e0: 8406 53bc a85a 343c 999d 25bb 6bb2 d8ba
000002f0: 284a cf3b 7dd1 0a3d fec3 993c 4e6b 6fbc
00000300: 8ef4 b23c dfc7 8e3b b506 8dbc 980d 8aba
00000310: 40c4 8f3b 3cc6 5e3d 4338 b63b e9ca 17bc
00000320: 095d acbc e6cc d33c 8e1c 8ebb e012 703c
00000330: 10fc a73b ad9f c03b 77ce 8cbc 0902 1ebc
00000340: 3824 ca3b 4962 2bbc 6263 56bc eb33 e33b
00000350: 9ea1 42bc 0bbc 16bc 63db 253b b864 dd3a
00000360: 73fd b53a fb70 c63b 285f 9fbc c531 b1ba
00000370: 7c63 93bc 88f9 023c 338c 06bc ce15 aa3b
00000380: d74f fabc dd90 68bc e9a5 a93c 76dc 3dbc
00000390: e431 ab3a 5da3 0a3d 63ff 4a3c 25b0 b6bc
000003a0: bfb9 043a 3b23 9a3c c374 ecbb 9df1 f8bb
000003b0: 86e4 16bc 04ff 23bd 8248 44bc f459 09bd
000003c0: 6578 73bc 3067 63bc 29ab 51bc e914 33bc
000003d0: d18a 743b 89ce c13c 2fbd b33c 923d efbc
000003e0: bcda f73b b8f2 02bc 7b8a 01bd c3a2 873c
000003f0: 43be abbb 2309 c33b 144e d8bb bf18 c03c
0.022011409 -0.006240494 -0.002088469 -0.019861566 -0.011298651 0.017499829 -0.019747118 0.022819169
-0.0024378991 0.012701182 -0.024422698 -0.016134119 0.019132987 0.0072593046 -0.001904624 -0.008660978
-0.0055515296 -0.023360707 0.017791588 -0.02259705 0.020037465 0.048420776 -0.026693488 -0.0025655262
0.027165275 0.030491073 0.006656341 -0.0063243653 0.0041069835 -0.015082015 -0.0040432997 0.0050655263
-0.005028838 0.0054623317 0.0071022986 0.00042319667 -0.0028190373 0.024401158 0.0053548273 -0.021298032
-0.05411471 0.0011458421 -0.02893072 -0.021816991 -0.01305408 0.031940807 -0.015499056 -0.0005899391
-0.0030430916 0.024840452 -0.020166745 -0.0142752435 0.016936028 0.00754871 0.008159242 0.0052987514
0.0016361885 -0.02321059 0.005884071 -0.022750104 0.0004618858 0.05610339 -0.020156803 -0.012992285
0.01568806 -0.016680503 0.0074766437 -0.00063956546 0.01664604 0.016369456 -0.0022459857 0.020003224
-0.01794974 0.013858921 -0.039047312 -0.002620251 0.01170998 -0.022541644 -0.0024826091 0.005355207
-0.027224582 0.00042210083 0.01687729 0.0048630377 0.00054966455 -0.005385821 -0.013890196 0.0068108006
-0.015391601 0.028124154 0.002301963 0.0019109986 -0.020864377 0.012516038 -0.024302138 0.0009784539
0.005474473 0.026646337 0.010446797 -0.0027972562 0.012542536 -0.004909307 -0.0147803575 0.024577681
0.016314277 0.022477105 0.0047813198 0.0004371293 0.0023764858 -0.008726611 -0.0032964349 -0.017637387
-0.028587457 -0.008456602 0.013785375 -0.016913053 0.018417573 0.008786983 -0.012032144 -0.007208803
0.03674371 -0.03141204 0.0041036094 -0.004103061 0.019685663 0.03492938 -0.022554427 -0.011913095
0.018285433 0.035105802 -0.013737046 -0.029875431 -0.012811528 0.021612646 -0.014101897 0.01830761
-0.014842832 -0.00038135902 0.0047188723 0.012972088 0.033266377 0.019566663 -0.008666054 -0.00025109766
0.011333377 -0.02011978 0.0014611005 0.017686276 0.011867905 -0.0023662772 -0.016780397 -0.016680475
0.023158303 -0.0042066467 0.016045686 -0.019384133 0.00036058947 0.00068978046 -0.016209967 -0.009814691
0.028321965 -0.01338658 0.0036586432 0.013428419 -0.015775995 -0.025687063 0.0139506 0.02020278
0.001049856 0.018347774 0.0016474428 0.030868255 0.009231893 -0.003240479 0.009116636 0.011827019
0.023318429 0.026802892 0.037408598 -0.009822165 -0.040454928 -0.017451165 0.0053044735 0.0029950184
-0.012879971 0.011007942 -0.0025270937 -0.0016532665 0.006325979 0.03389119 0.018770214 -0.014612986
0.021845128 0.0043573226 -0.017215112 -0.0010532616 0.0043874085 0.05438827 0.005560906 -0.009264686
-0.021040456 0.02585454 -0.0043369 0.014652938 0.0051264837 0.00587841 -0.017188294 -0.00964404
0.0061688684 -0.010460445 -0.013085218 0.0069336793 -0.011879353 -0.009200106 0.0025307767 0.0016890978
0.0013884738 0.006055949 -0.019454554 -0.0013518861 -0.017991774 0.007994063 -0.008212137 0.0051905876
-0.030555649 -0.014194694 0.020708995 -0.0115882065 0.0013061133 0.0338472 0.0123899905 -0.02230079
0.0005063079 0.018815627 -0.0072160675 -0.007597162 -0.009209758 -0.040038124 -0.011980178 -0.03353305
-0.014860247 -0.013879582 -0.012797155 -0.010930278 0.0037314186 0.023658054 0.021940796 -0.029204164
0.007563917 -0.007992439 -0.031626206 0.016557103 -0.005241187 0.005952017 -0.0066011045 0.0234493

action_model._continuous_distribution.mu.bias f4 [2]
00000000: ec7c f7b9 d72b ceb9
-0.00047204585 -0.00039324045

exp_avg f4 [128, 6]
00000000: d171 0cb8 389c 9f36 0aad 273a 020a 88b6
00000010: c963 2137 2048 163a 6e83 2bb5 3435 6c34
00000020: 4a9b 29b2 9a9f 2435 0a44 6c34 61ee 2cb3
00000030: 5e3d ca37 3682 8ab6 46cc 6c3a c418 1038
00000040: a9f1 e036 6457 563a 15bd a4b8 6658 e7b6
00000050: 36cf f7b7 8c55 a9b8 7cfa e5b5 2477 86b7
00000060: 3f5b d1ba a5b1 a3b7 9d16 d3b8 6610 feba
00000070: 68fb 26b8 0a7d 4bb9 5b14 31b5 c29e 7034
00000080: 1b81 cc35 e322 0f35 f25b 6434 7f56 b535
00000090: 5d25 1d37 ec2a 0e36 7b95 c838 41c6 5337
000000a0: 84f8 5535 6a6d bd38 fd25 0d36 9b17 02b6
000000b0: 5c46 6c35 f680 49b7 f5f8 09b6 b8a5 0335
000000c0: d78f 61b8 cfbd 1438 d804 4c38 d26a e5b8
000000d0: 05ca 0fb6 301a 6cb7 59fd 7e37 49fc d4b4
000000e0: 6959 4ab6 74bc 9737 21f7 9734 1d42 e0b5
000000f0: 6e6c c436 dd07 01b8 fc66 97ba ec74 67b8
00000100: 97fb 6cb7 39b7 8eba b471 013a c0fb ab37
00000110: f372 b139 3d79 253a 3c55 9437 6179 be39
00000120: a53c b1ba e2b5 a137 cc79 1339 6432 d5ba
00000130: 298b e8b7 d8ac 2037 23eb 11b5 833c 4336
00000140: a972 313a 4eac d037 96aa 1137 02bd 213a
00000150: d9d9 a937 ef68 6eb6 9018 8e3a 4a1a 8738
00000160: 1646 0b37 0e82 873a 5bca 6cb9 0dad 6a36
00000170: 74e5 17ba d9ba 85b9 8200 01b6 319b 17ba
00000180: 33fd c739 122b 0bb7 9a4b bbb9 3c90 f439
00000190: f672 0037 59e5 92b9 595c c4ba a71d 22b8
000001a0: 317a 3db7 b624 ecba 05bb 18b8 a87a a8b8
000001b0: 81e2 7fb9 913c 79b7 7c79 8737 4479 b1b9
000001c0: da2b 33b7 6acc 8e37 6a46 a339 0707 a5b7
000001d0: ca81 7eba 6e67 9739 d927 76b7 c856 5cba
000001e0: 63ed 05b7 c930 c1b4 7466 3736 f3b3 33b7
000001f0: f162 f6b4 8704 1336 cf46 573a 1dbb b937
00000200: 2555 82ba d6e1 793a 84d8 0837 a624 64ba
00000210: 5a5b 9037 e1c9 b0b6 7b4a 1ab6 4330 0638
00000220: d92a 7335 0d29 e9b2 f890 973a ee0b b237
00000230: b396 ac3a d4cd ba3a d4c3 1b38 9271 a93a
00000240: 1424 97b8 d311 e635 0cfb 4eb7 c204 adb8
00000250: 3c6e 66b5 1360 2ab7 3c11 1fba bc37 1db7
00000260: f45a df39 624f 34ba e73b cab6 0135 bf39
00000270: 6daf 633a cfab 4ab6 124b 1ab9 ae33 893a
00000280: 50eb 7737 63e9 82b8 4cae 4e37 99cc 11b6
00000290: 4b37 89b8 c9c6 1137 d224 81b5 cfa2 7db8
000002a0: bad4 173a e6c1 2338 08af d139 8361 353a
000002b0: a4a8 aa37 b6d1 bc39 bae8 84b9 6f79 5d37
000002c0: 2a24 0a3a 47cc 84b9 2015 9c36 da9c e739
000002d0: a37e ceba 64f0 d2b7 c12a ec37 4699 f9ba
000002e0: fbe3 1cb8 7aac 57b8 7f3e 5aba 95ff bab7
000002f0: 4a08 19ba 7a30 84ba 1e0f adb7 c7c3 1cba
00000300: 356c 57ba 5570 30b6 6be0 433a 175b 7dba
00000310: 2f81 75b7 70ca 2a3a fcfe 063b 95f4 9938
00000320: a336 6e3a 6200 223b 5ecf 4b38 70a6 803a
00000330: ee1c e839 14de 4db7 24c4 aeba 9491 0f3a
00000340: 4e5f f836 9a67 a1ba 9b04 55b9 f143 c337
00000350: d367 1db9 a4cb 29b9 603e 1a37 bdd8 39b9
00000360: a4fd 65ba 444b e2b7 2b81 99b9 1f06 82ba
00000370: 351a 5ab7 8e9c 99b9 b958 81ba 811a 60b8
00000380: 44f8 b2b9 da44 95ba 77e9 91b7 7976 afb9
00000390: 01c1 c1b7 215f c0b6 cd3a 1d36 17f5 80b8
000003a0: b969 c3b6 d35e ba32 a000 7437 3926 87b6
000003b0: 015c 1a38 6999 3bb7 5389 80b6 46aa 0d38
000003c0: 7a4f c638 47f0 7a37 1056 d33a d455 ba38
000003d0: 24a8 f436 0b6c c43a 3bc3 ba3a 12b9 1138
000003e0: 81ce 12b8 c52f dd3a e3c1 f337 ec08 3538
000003f0: 47d4 e1b5 8d85 1436 bb7c c1b8 3480 9638
-3.34846e-05 4.7567555e-06 0.0006396329 -4.054281e-06 9.619581e-06 0.00057327934 -6.389372e-07 2.1998568e-07
-9.872403e-09 6.132701e-07 2.2003965e-07 -4.0263675e-08 2.4108853e-05 -4.127879e-06 0.00090331247 3.435534e-05
6.703853e-06 0.00081764744 -7.855349e-05 -6.8946274e-06 -2.9541185e-05 -8.074482e-05 -1.713473e-06 -1.6029524e-05
-0.0015972628 -1.9513836e-05 -0.00010065476 -0.0019383549 -3.9811624e-05 -0.0001940617 -6.596726e-07 2.2409498e-07
1.5236759e-06 5.332242e-07 2.1267604e-07 1.3510725e-06 9.366629e-06 2.1184633e-06 9.564586e-05 1.262274e-05
7.971032e-07 9.032602e-05 2.103275e-06 -1.938525e-06 8.801924e-07 -1.201056e-05 -2.0559503e-06 4.9042455e-07
-5.377814e-05 3.5462723e-05 4.86419e-05 -0.00010939468 -2.1426251e-06 -1.4072793e-05 1.5198567e-05 -3.967164e-07
-3.015239e-06 1.8088358e-05 2.8305752e-07 -1.6708542e-06 5.853878e-06 -3.076332e-05 -0.0011551077 -5.5183584e-05
-1.4125274e-05 -0.0010888345 0.00049379026 2.0502019e-05 0.00033845715 0.00063123164 1.7682665e-05 0.00036330058
-0.0013522102 1.9277391e-05 0.00014064385 -0.0016265628 -2.7721357e-05 9.5769865e-06 -5.435888e-07 2.9092487e-06
0.00067691 2.4875768e-05 8.682391e-06 0.0006169827 2.0247813e-05 -3.5525843e-06 0.001084106 6.442198e-05
8.301364e-06 0.0010338442 -0.00022582097 3.4969446e-06 -0.0005794384 -0.0002550695 -1.9222794e-06 -0.0005783318
0.00038144886 -8.295074e-06 -0.00035723747 0.0004664677 7.656161e-06 -0.00028018167 -0.0014981135 -3.8651426e-05
-1.1293728e-05 -0.0018016312 -3.64138e-05 -8.033711e-05 -0.00024403074 -1.4855658e-05 1.6149825e-05 -0.0003385042
-1.0679441e-05 1.7022907e-05 0.00031142245 -1.9672805e-05 -0.0009708671 0.00028878025 -1.467202e-05 -0.00084052654
-7.982689e-06 -3.5984547e-07 2.732876e-06 -1.0711129e-05 -4.589306e-07 2.1907342e-06 0.00082121504 2.214085e-05
-0.0009943588 0.00095322484 8.156643e-06 -0.0008702971 1.7208677e-05 -5.2687105e-06 -2.2991142e-06 3.1993037e-05
9.0586906e-07 -2.7143438e-08 0.001156359 2.1224809e-05 0.001316747 0.0014252015 3.713726e-05 0.0012927523
-7.206961e-05 1.7141523e-06 -1.2337008e-05 -8.250169e-05 -8.584209e-07 -1.0155159e-05 -0.0006067937 -9.370906e-06
0.0004260164 -0.0006878284 -6.0270427e-06 0.0003646985 0.0008685503 -3.0200351e-06 -0.0001471455 0.0010467672
1.4777135e-05 -6.242355e-05 1.23191385e-05 -2.1725775e-06 -6.542968e-05 8.688957e-06 -9.621965e-07 -6.0471528e-05
0.00057918916 3.904281e-05 0.00039993995 0.00069191324 2.0344109e-05 0.000360144 -0.00025350397 1.32009e-05
0.0005269671 -0.000253292 4.6516216e-06 0.00044176617 -0.0015754293 -2.5145891e-05 2.8153301e-05 -0.0019042871
-3.740562e-05 -5.1420626e-05 -0.00083253527 -2.2291943e-05 -0.0005837722 -0.0010085248 -2.0630247e-05 -0.0005980101
-0.0008217723 -2.629143e-06 0.00074721006 -0.00096647575 -1.4633216e-05 0.0006515151 0.002059876 7.3411655e-05
0.0009087121 0.0024719466 4.8592097e-05 0.0009815227 0.00044272043 -1.2270659e-05 -0.0013333601 0.000547671
7.402071e-06 -0.0012314201 -0.00020314979 2.327745e-05 -0.00015011364 -0.00016192958 9.193638e-06 -0.00017723716
-0.0008773452 -2.6976348e-05 -0.00029278672 -0.0009920037 -1.2999914e-05 -0.00029299076 -0.000986836 -5.3430445e-05
-0.00034135778 -0.0011388317 -1.7394063e-05 -0.0003346687 -2.3097267e-05 -5.7331204e-06 2.342905e-06 -6.149167e-05
-5.8237606e-06 2.1696371e-08 1.4543679e-05 -4.027763e-06 3.6802146e-05 -1.1181787e-05 -3.830684e-06 3.37756e-05
9.4561794e-05 1.4957105e-05 0.0016123671 8.885158e-05 7.291341e-06 0.0014985813 0.0014248857 3.4743054e-05
-3.5001434e-05 0.0016875198 2.9058143e-05 4.3162072e-05 -1.6825587e-06 2.2131455e-06 -9.22619e-05 7.176437e-05

exp_avg_sq f4 [128, 6]
00000000: 99f4 3b34 2176 c12f 72a6 1536 ac38 8434
00000010: 92da e92f fb6d 0536 048c a82b faab 062a
00000020: 9c11 c628 bfdc 8e2b cbac 062a 26d6 a526
00000030: c4cb f833 cec7 1230 ee70 6736 45be 5234
00000040: a0fe 3830 9d83 4f36 57bd 6033 b09b 632d
00000050: e1cb 912f 17c0 a433 3157 c02d 168b 302f
00000060: 4c5c d936 1412 ce30 3e0f 6634 08fd 1a37
00000070: 80e5 2c31 d989 8034 e4c2 832a ccd5 7528
00000080: a52d cd2b 6e79 be2a 5020 6728 4fd0 a92b
00000090: 5bb3 b630 bb1b 032d f1a5 5633 dbc1 1b31
000000a0: 4377 2f2d 5162 3d33 e5a2 782e 0d2d b52c
000000b0: e51a 752b e501 862e 4489 b52c f25d b129
000000c0: c73f 8236 a3a5 ab30 478c f031 c2e6 bb36
000000d0: 6ed2 de30 2189 bf2f b4eb 932f 8b58 6b2b
000000e0: 7118 0c2c 524d 0130 290e 8c2b 6bbc 892b
000000f0: c60d b530 6f03 1130 7e60 8536 9fd9 0a32
00000100: 0ff1 4330 6d3e 6636 9605 bd34 154c 6a2f
00000110: 3b0d 3235 df77 0235 0710 5f2f c9e7 3235
00000120: 77f0 f036 531e f730 9c3d 4432 a136 2d37
00000130: e42d 4231 9796 3531 f2be 8b2f b11a a62e
00000140: bfa9 2635 d0a3 8330 5864 f22e 8ead 0f35
00000150: dac8 1b36 13cc fc30 6577 1d37 f907 5d36
00000160: 69c8 1331 c8a3 1637 0829 cc35 9009 9b30
00000170: be06 ad36 fcbe 1636 29b4 dc30 c30f a336
00000180: a105 2035 b892 3530 48d2 5436 59c0 6b35
00000190: 1813 5430 b213 4836 80fd ac36 5f70 ce30
000001a0: e940 8a32 6098 f636 7980 0d31 a138 9332
000001b0: e09b 3f35 f25b 9a2f 7fc1 8e33 3cba 8935
000001c0: f2ef a82f 403a 9633 8598 e835 896b da30
000001d0: 9d50 fe36 d275 2636 9227 fb30 d841 eb36
000001e0: 3bb4 aa2e 793d 7b2c 544f 382c 5dc5 052f
000001f0: 1a78 7e2c 7581 f62b 69f1 7336 1765 e430
00000200: e1cb 6b36 483c ad36 b0fe 0e31 7bd1 5336
00000210: 80e8 8f32 e353 302d cb9e 5b2e abeb d332
00000220: a2c8 0a2d 6bdb 642c 6aee 8336 aa83 dc30
00000230: 4e8e b736 ccf9 be36 9dc1 2f31 1a80 a636
00000240: 78c5 be32 cff9 682d dd48 0130 2784 0033
00000250: 5049 162d 3d09 0a30 8cda 0336 087c 3830
00000260: 90bc 4a35 0a48 3a36 973f 7430 73e3 4d35
00000270: 6d67 d536 30a0 0431 6558 8b36 66ed 1737
00000280: 0b57 5131 00e0 8636 1d63 0c2e ed33 402c
00000290: a75b 9232 983f f52e de30 772c 86f1 7c32
000002a0: 329d 4a36 0f9e 8f30 f795 0036 c3a4 8e36
000002b0: 4b19 c330 209e 0136 6638 7435 6646 1730
000002c0: 59c3 f335 7f2f ad35 fdbe 2a30 ba3e e435
000002d0: 8ab5 9536 65a3 9430 5648 0133 2952 d536
000002e0: 99bd ec30 359f 1e33 5575 9336 fa83 1d31
000002f0: 778d d636 ce1c d536 0a53 5731 c569 cd36
00000300: 136d ad35 fb27 8330 d8ff 9136 f772 fe35
00000310: 5e7b a130 de27 8636 ae53 7c37 8a96 0932
00000320: 6a18 a737 902b b837 a2ad 4132 7db8 9c37
00000330: c722 3936 7bba 8f31 3aaf c037 b854 8c36
00000340: 173d af31 b619 b237 326f 4635 4941 b52f
00000350: ac2a 7b35 7702 8935 5bf1 c52f 045b 8035
00000360: c27c f436 7a87 4731 a380 6136 61e5 2e37
00000370: ad1f 8131 4f3c 5e36 9530 3c37 2fc9 7731
00000380: 2f97 7733 ebe8 8637 26a2 9c31 23a8 a333
00000390: fb28 9c31 6ce1 272d f292 c42d c265 f431
000003a0: 1c31 312d 90d9 ee24 0b12 f42e 701d 532d
000003b0: 8da2 9e31 ce4f df2e e27c 512d 40b6 8931
000003c0: 2b12 8a35 9047 2f31 9c33 6737 ce62 dd35
000003d0: e046 4931 ee4e 5437 e4b2 d236 81c5 0531
000003e0: c7ba b933 1d83 1537 9343 2631 c500 f033
000003f0: 5681 da34 bd84 fd2f 29f9 1136 2aba 1f35
1.7504716e-07 3.519043e-10 2.2299614e-06 2.462815e-07 4.2537757e-10 1.9882561e-06 1.197598e-12 1.1961257e-13
2.1990053e-14 1.0150976e-12 1.196154e-13 1.150722e-15 1.1585465e-07 5.339843e-10 3.4487416e-06 1.9626994e-07
6.7300654e-10 3.0922013e-06 5.2326268e-08 1.2938026e-11 2.652021e-10 7.671786e-08 2.1866594e-11 1.605652e-10
6.4778487e-06 1.4993611e-09 2.1425964e-07 9.238029e-06 2.515975e-09 2.3942155e-07 2.3405507e-13 1.3646592e-14
1.4578795e-12 3.383504e-13 1.2830083e-14 1.206599e-12 1.3293219e-09 7.452645e-12 4.997668e-08 2.2665663e-09
9.97408e-12 4.409441e-08 5.653335e-11 5.149331e-12 8.707881e-13 6.093951e-11 5.159569e-12 7.876676e-14
3.8817266e-06 1.2488964e-09 7.000867e-09 5.599898e-06 1.6212434e-09 3.4840134e-10 2.690662e-10 8.361165e-13
1.9908764e-12 4.7039805e-10 9.951529e-13 9.786732e-13 1.3173398e-09 5.275557e-10 3.974942e-06 8.0821385e-09
7.128315e-10 3.4309007e-06 3.5208058e-07 2.1309206e-10 6.632942e-07 4.860321e-07 2.0287426e-10 6.664746e-07
7.180551e-06 1.7980234e-09 1.142271e-08 1.0324323e-05 2.8256801e-09 2.6424567e-09 2.5419628e-10 7.5535474e-11
6.208683e-07 9.578063e-10 1.10227105e-10 5.3524207e-07 2.321371e-06 1.8393415e-09 9.385728e-06 3.2936207e-06
2.1505235e-09 8.97883e-06 1.5211126e-06 1.1280452e-09 5.1565867e-06 2.246291e-06 1.6058311e-09 4.8596135e-06
5.9612836e-07 6.6055916e-10 3.1712862e-06 8.7824225e-07 7.7152285e-10 2.9813787e-06 5.1555107e-06 1.502041e-09
1.6094832e-08 7.34911e-06 2.0591229e-09 1.7138804e-08 7.137987e-07 2.8077768e-10 6.647587e-08 1.0261497e-06
3.0729513e-10 6.995515e-08 1.7329736e-06 1.5892151e-09 7.5791745e-06 2.4804508e-06 1.82739e-09 7.011211e-06
7.76272e-11 3.570337e-12 2.6192009e-12 1.2166397e-10 3.616224e-12 1.7515283e-12 3.635034e-06 1.6617915e-09
3.5136402e-06 5.1628194e-06 2.0808493e-09 3.1563384e-06 1.675312e-08 1.0023068e-11 4.993587e-11 2.4670802e-08
7.888941e-12 3.252255e-12 3.9318593e-06 1.6044528e-09 5.4703914e-06 5.6915214e-06 2.5575908e-09 4.9620985e-06
2.220871e-08 1.3243142e-11 4.703347e-10 2.9922514e-08 8.5427915e-12 5.0217236e-10 1.9647732e-06 6.711507e-10
7.552526e-07 2.7758092e-06 8.885705e-10 7.6699433e-07 6.359935e-06 1.9299584e-09 4.1528133e-06 9.055575e-06
3.046298e-09 4.0195882e-06 3.1920345e-11 2.7313666e-12 1.7038316e-08 1.11526066e-10 3.5127938e-12 1.4723247e-08
3.0191845e-06 1.0449542e-09 1.9160777e-06 4.2511106e-06 1.4195306e-09 1.9314539e-06 9.0979154e-07 5.503352e-10
1.8161765e-06 1.2903328e-06 6.211705e-10 1.700558e-06 4.46168e-06 1.0814857e-09 3.0100942e-08 6.3574594e-06
1.7225147e-09 3.693204e-08 4.3946006e-06 2.2921527e-09 6.3941657e-06 6.351248e-06 3.133382e-09 6.1217893e-06
1.2921249e-06 9.542868e-10 4.351121e-06 1.8957934e-06 1.1749355e-09 3.9981524e-06 1.5039854e-05 8.008678e-09
1.991932e-05 2.1954795e-05 1.1273558e-08 1.8682558e-05 2.7587391e-06 4.183048e-09 2.296978e-05 4.1821877e-06
5.1001154e-09 2.1231226e-05 7.392256e-07 3.2970096e-10 9.356688e-07 1.0208013e-06 3.6005585e-10 9.563232e-07
7.2862904e-06 2.903532e-09 3.360249e-06 1.0424615e-05 3.7579952e-09 3.3115682e-06 1.1216985e-05 3.605759e-09
5.764667e-08 1.6082506e-05 4.5586317e-09 7.620863e-08 4.5448565e-09 9.542905e-12 2.2347877e-11 7.112903e-09
1.007219e-11 1.0358461e-16 1.10990404e-10 1.2000498e-11 4.616885e-09 1.0155042e-10 1.1908004e-11 4.007944e-09
1.0287089e-06 2.550653e-09 1.3780689e-05 1.6494539e-06 2.9289637e-09 1.2654562e-05 6.2793133e-06 1.9466315e-09
8.6487084e-08 8.911619e-06 2.419459e-09 1.1176011e-07 4.0699769e-07 4.6114748e-10 2.1751714e-06 5.950302e-07

exp_avg f4 [128]
00000000: c963 a137 0944 ec34 adf1 6037 83fa 65b6
00000010: 69fb a6b8 f25b e434 7ef8 d535 f6f8 89b6
00000020: f8c9 8fb6 20f7 1735 94fb ecb7 3c55 1438
00000030: 2a8b 68b8 97aa 9137 2046 8b37 7700 81b6
00000040: f472 8037 04bb 98b8 db2b b3b7 e227 f6b7
00000050: f562 76b5 88d8 8837 e62a f335 d3c3 9b38
00000060: 3f6e e6b5 e53b 4ab7 4feb f737 d724 01b6
00000070: a6a8 2a38 2715 1c37 fae3 9cb8 1e0f 2db8
00000080: 2d81 f5b7 5ecf cb38 595f 7837 603e 9a37
00000090: 331a dab7 73e9 11b8 b969 43b7 5389 00b7
000000a0: 34a8 7437 e3c1 7338 3966 9137 494e f4b8
000000b0: 644a d235 0f28 e4b4 6213 7c38 9f35 b6b6
000000c0: 78c8 0bb8 49a3 fd38 e289 08b8 4297 8bb7
000000d0: e40e 0036 e0cd e0b7 a2e9 88b7 5bc5 19b8
000000e0: abdf ed37 8ba8 4e37 b18f 99b6 e2a6 4c36
000000f0: 5252 9338 22ed fb37 a802 00b8 51e6 d0b7
00000100: 8a52 64b8 8218 0437 a61a b1b7 c23e fe33
00000110: af2d c2b7 67df 82b6 e8f4 59b5 04d7 a537
00000120: d06d cab8 62ca 3c38 3543 ac38 5a66 2737
00000130: dca7 94b7 236a d8b7 056e 2e38 ac3b 0b36
00000140: 363f 17b7 6cf0 98b7 f694 0238 86d8 9db8
00000150: 0527 6a37 3eb2 c7b5 1cb3 4db6 a0b9 0ab7
00000160: 3e30 4eb5 b2df d0b7 2d50 beb6 0694 b737
00000170: f6cd beb6 9f35 97b7 69f0 00b5 e7b8 5737
00000180: 37c6 9a38 34c1 7537 aa2d 20b7 3bba ea34
00000190: 4ae0 0ab9 5a09 2738 606b e238 a0ff 9536
000001a0: 8a8c 9b37 7c80 acb5 d55f b137 35bc fbb5
000001b0: a528 5133 847f a137 bc8b 5c38 aa1b 8233
000001c0: b5b4 e9b7 74af d0b6 e276 7337 1322 bab7
000001d0: f44a 2537 e205 af37 9b6b d5b5 ad7a aa37
000001e0: f901 15b6 9bdd 9736 11fb 1b38 6f29 ecb6
000001f0: bad8 1cb6 0251 33b7 126e 47b6 a703 0cb7
1.9239162e-05 4.4007928e-07 1.340771e-05 -3.4269476e-06 -7.9623256e-05 4.2535208e-07 1.5942057e-06 -4.111901e-06
-4.2852444e-06 5.66115e-07 -2.8250543e-05 3.536533e-05 -5.5442717e-05 1.7364784e-05 1.6602746e-05 -3.8445537e-06
1.5312318e-05 -7.282759e-05 -2.1358885e-05 -2.9344057e-05 -9.178614e-07 1.6313294e-05 1.8117396e-06 7.427451e-05
-1.7168421e-06 -1.20540835e-05 2.9554269e-05 -1.9243942e-06 4.0688225e-05 9.3032495e-06 -7.4811236e-05 -4.1260493e-05
-2.9266428e-05 9.7184195e-05 1.4804152e-05 1.8387276e-05 -2.5999825e-05 -3.478811e-05 -1.1647521e-05 -7.661368e-06
1.4582696e-05 5.8116286e-05 1.7332948e-05 -0.000116494084 1.566787e-06 -4.2497456e-07 6.0099534e-05 -5.430265e-06
-3.3326884e-05 0.00012094394 -3.255334e-05 -1.6640526e-05 1.9082154e-06 -2.6798749e-05 -1.6321257e-05 -3.6661844e-05
2.8356755e-05 1.2317799e-05 -4.576483e-06 3.0495507e-06 7.0248396e-05 3.0031955e-05 -3.0520052e-05 -2.4902782e-05
-5.4436307e-05 7.873519e-06 -2.1112453e-05 1.1839212e-07 -2.3147875e-05 -3.9003094e-06 -8.1195185e-07 1.9769657e-05
-9.652565e-05 4.5011177e-05 8.2141174e-05 9.977806e-06 -1.772114e-05 -2.579863e-05 4.1587296e-05 2.0747348e-06
-9.015019e-06 -1.8231767e-05 3.1133146e-05 -7.526674e-05 1.3956572e-05 -1.4878531e-06 -3.0651636e-06 -8.26866e-06
-7.681118e-07 -2.4899698e-05 -5.671775e-06 2.1884229e-05 -5.6864183e-06 -1.8025572e-05 -4.803356e-07 1.285805e-05
7.3802126e-05 1.4648122e-05 -9.547375e-06 4.3721397e-07 -0.0001324426 3.9824612e-05 0.0001079652 4.4703047e-06
1.8542883e-05 -1.2852393e-06 2.114467e-05 -1.8755733e-06 4.869857e-08 1.9252075e-05 5.2582225e-05 6.058629e-08
-2.7859913e-05 -6.2193085e-06 1.4511608e-05 -2.2188795e-05 9.852218e-06 2.0864365e-05 -1.5901054e-06 2.0322705e-05
-2.2203878e-06 4.525949e-06 3.7188704e-05 -7.0381716e-06 -2.3371963e-06 -1.06880925e-05 -2.971738e-06 -8.345501e-06

exp_avg_sq f4 [128]
00000000: 91da e930 ccac 062b 9dfe 3831 3257 c02e
00000010: 80e5 2c32 4f20 6729 4277 2f2e 4389 b52d
00000020: 6dd2 de31 290e 8c2c 0ff1 4331 0910 5f30
00000030: e72d 4232 5864 f22f 68c8 1332 27b4 dc31
00000040: 1813 5431 7980 0d32 f2ef a830 9127 fb31
00000050: 1b78 7e2d b1fe 0e32 a3c8 0a2e 9cc1 2f32
00000060: 4d49 162e 983f 7431 0b57 5132 de30 772d
00000070: 4b19 c331 fdbe 2a31 99bd ec31 0853 5732
00000080: 5e7b a131 a1ad 4133 173d af32 58f1 c530
00000090: ae1f 8132 26a2 9c32 1a31 312e e27c 512e
000000a0: e146 4932 9343 2632 4a85 0f31 c6e3 2533
000000b0: 3d85 692b 80ae a529 e098 e031 a745 052d
000000c0: f377 2332 f87f 2a33 2158 a431 4f0e 3531
000000d0: c835 4e30 63d1 ba30 5f33 2830 fe36 8f30
000000e0: c351 1a31 cf48 0830 97ab d932 caa1 2231
000000f0: 5e71 b632 45cc b530 d85a 6531 ce32 8231
00000100: 2e16 ae32 1b78 e131 afc0 5831 af27 2529
00000110: ba8d c431 e985 112c 30e3 092c ecf3 ab31
00000120: 72d4 b732 4f5c 2c31 e5fa 3333 c654 d031
00000130: d8ff 0832 a40f 3f32 1856 c231 b3b6 b130
00000140: 0c4c a631 963c 3a30 2786 ca32 7c26 5932
00000150: a7bb d131 a159 832c 81cb 042e 7932 7031
00000160: e2d8 042b bd7c 6232 1958 092e c4fa 4931
00000170: a703 d431 ceeb 5a32 94a4 c62b a2d9 3b32
00000180: 3357 9432 eee5 5132 f15a aa2d 7fb8 412c
00000190: d3c9 8133 c84e 9231 c1fb 9432 d40c ec30
000001a0: f3e5 9130 a4eb 1a2d eb3e 0b31 114f 942e
000001b0: a60a 1629 d11d e031 135d 3431 8273 d531
000001c0: f61e f230 1d14 fb2e 7863 1830 f106 c230
000001d0: 0253 9231 98bd 8430 e9a0 c02b 3af8 1030
000001e0: ced7 6a2c 13fd 3c30 2bcf ba31 43b1 232e
000001f0: 1576 8230 4b34 c12d 4af2 122c 151a 7731
1.7015102e-09 4.7846167e-13 2.6920255e-09 8.746638e-11 1.00639e-08 5.1320327e-14 3.9896315e-11 2.0638274e-11
6.484973e-09 3.9806114e-12 2.851326e-09 8.1149715e-10 1.1302723e-08 4.4090842e-10 8.602093e-09 6.4233237e-09
3.0860914e-09 8.2364915e-09 1.2291805e-09 7.3095596e-09 1.4464897e-11 8.323398e-09 3.155577e-11 1.0230362e-08
3.4171155e-11 3.5542822e-09 1.2185192e-08 1.4051175e-11 5.6781224e-09 2.484682e-09 6.8900587e-09 1.2533526e-08
4.699742e-09 4.509423e-08 2.0400462e-08 1.440223e-09 1.5031983e-08 1.8234527e-08 4.028875e-11 4.7632016e-11
1.1715856e-08 9.677836e-09 2.0885005e-09 3.8624215e-08 8.2963134e-13 7.357743e-14 6.536638e-09 7.575641e-12
9.515122e-09 3.9697596e-08 4.7830473e-09 2.63471e-09 7.501879e-10 1.3592792e-09 6.1191047e-10 1.0420249e-09
2.2456426e-09 4.957998e-10 2.5340155e-08 2.366607e-09 2.1239142e-08 1.322754e-09 3.3375525e-09 3.789274e-09
2.0266352e-08 6.5620163e-09 3.1541665e-09 3.667178e-14 5.720463e-09 2.0680074e-12 1.9594985e-12 5.0044857e-09
2.1400613e-08 2.5081766e-09 4.1904872e-08 6.0632344e-09 7.974414e-09 1.11212195e-08 5.655931e-09 1.2930371e-09
4.8398814e-09 6.7752504e-10 2.35769e-08 1.2639813e-08 6.104034e-09 3.7331947e-12 3.0194073e-11 3.4953287e-09
4.7196806e-13 1.3183294e-08 3.122844e-11 2.9391893e-09 6.1704273e-09 1.2742886e-08 1.4114426e-12 1.0934317e-08
1.7269121e-08 1.2217681e-08 1.9367149e-11 2.7529366e-12 6.043742e-08 4.2581156e-09 1.7343952e-08 1.7174906e-09
1.0615494e-09 8.806209e-12 2.0262927e-09 6.744306e-11 3.3315927e-14 6.5226478e-09 2.6246354e-09 6.2122476e-09
1.7616617e-09 1.1417731e-10 5.543863e-10 1.4117331e-09 4.258596e-09 9.65815e-10 1.3687082e-12 5.2739646e-10
3.3373196e-12 6.875364e-10 5.4368647e-09 3.721935e-11 9.492306e-10 2.1964782e-11 2.0882345e-12 3.5958057e-09
