results/ppo/MoveToGoal/MoveToGoal-2752.pt (torch, 145754 bytes, 11 tensors)

network_body._body_endoder.seq_layers.0.weight f4 [128, 1]
0	0x3eb3210c	0.3498615
1	0x401b467d	2.4261773
2	0x3f35bfc8	0.7099576
3	0xbae4801c	-0.0017433199
4	0xbf744b15	-0.95427066
5	0x3e892c80	0.26791763
6	0x3f2a6cb2	0.66572106
7	0x3f1fdd0a	0.62446654
8	0x3f00ede0	0.5036297
9	0x3d3b1969	0.04567853
10	0xbeffe305	-0.4997789
11	0xbf2211e6	-0.6330856
12	0xbf9951a9	-1.1978046
13	0xc0070fc1	-2.1103365
14	0x3f6a41bf	0.9150657
15	0x3f0a85a3	0.54110163
16	0x3ea67f3e	0.32518953
17	0x3ea9d5ef	0.3317103
18	0x3f795408	0.97393847
19	0x3e1ad196	0.15119013
20	0x3f63555f	0.8880214
21	0xbec8cd95	-0.39219347
22	0x3c9d2163	0.01918096
23	0x3ebe8f76	0.37218827
24	0x3ee12410	0.43972826
25	0xbecc57d8	-0.3991077
26	0x3f9b15b8	1.2116003
27	0xbd7aa6ee	-0.061194353
28	0x3f543e37	0.8290743
29	0x3f981e5d	1.1884266
30	0xbf63f10c	-0.89039683
31	0x3ef4427d	0.47706977
32	0xbfc2328f	-1.5171679
33	0x3fda68e9	1.7063266
34	0xbf6c3fc0	-0.92284775
35	0x3f81f251	1.0152074
36	0x3d14ea14	0.036356047
37	0x3f445482	0.7669145
38	0xbe6001e1	-0.21875717
39	0x3e3b4ab9	0.18290223
40	0xbfa92ad4	-1.3216195
41	0xbf8da1ee	-1.1065042
42	0x3e60927f	0.21930884
43	0xbf02dfa2	-0.51122487
44	0xbf9090b8	-1.1294165
45	0xbf3e6736	-0.7437624
46	0x3fd6aa18	1.6770658
47	0x3fbb3dca	1.4628232
48	0xbe76beab	-0.24096172
49	0xbfd63c9e	-1.6737249
50	0xbeba54e1	-0.36392882
51	0x3f963303	1.1734318
52	0x3d97422c	0.07385668
53	0xbe1646dd	-0.1467547
54	0x3fef336e	1.868757
55	0x3e973b44	0.29537404
56	0xbe56e48a	-0.20985618
57	0xbdfaacc3	-0.12239983
58	0x3e7334d6	0.23750624
59	0x3f8558f7	1.0417775
60	0xbf4b8f9b	-0.79516
61	0x3f39a339	0.72514683
62	0x3e590808	0.2119447
63	0x3fc0c3b3	1.5059723
64	0xbf3f9de0	-0.74850273
65	0x3f7bdf75	0.98387843
66	0x3e98defe	0.2985763
67	0x3e8fdf55	0.28100076
68	0x4007ef79	2.1239913
69	0xbf16560d	-0.58725053
70	0x3e0f253c	0.13979048
71	0x3f9408b5	1.1565157
72	0xbf893239	-1.0718452
73	0x3f95106d	1.1645638
74	0x3d93f652	0.07224716
75	0xbf62213b	-0.88331956
76	0x3f57562b	0.84115857
77	0x3fb42e53	1.4076637
78	0x3ec70299	0.3886917
79	0x3f8be9b8	1.09307
80	0x3ffba876	1.9660785
81	0x3fa4eb7b	1.2884363
82	0xbf6ac333	-0.917041
83	0xc029e08f	-2.654331
84	0xbe1d8217	-0.15381657
85	0xbeec2442	-0.46121413
86	0x3f925f0b	1.1435255
87	0xbf889324	-1.0669904
88	0x3f09a215	0.5376294
89	0x3f65aad7	0.89713806
90	0x3f4b84be	0.79499424
91	0xbe23c205	-0.15991981
92	0x3ec3f74a	0.38274604
93	0xbf720195	-0.94533664
94	0x3fcd5cba	1.6043923
95	0xbeb424de	-0.35184377
96	0x3f5f95fe	0.87338245
97	0xbed3416c	-0.4126085
98	0xbf517ee1	-0.81834227
99	0x3ea5f30a	0.32411987
100	0x3f659c83	0.8969194
101	0x3f44d0ff	0.768814
102	0x3f104bc4	0.5636561
103	0xbe05ae59	-0.1305479
104	0x3f4be3d7	0.7964453
105	0x3e6a19f3	0.22861461
106	0xbf6a9a14	-0.91641355
107	0x3f501fb4	0.81298375
108	0x3f3e3908	0.7430577
109	0x3c6235b0	0.013806745
110	0xbfa2f867	-1.2732056
111	0xc026d5cf	-2.6067998
112	0xbeba3a00	-0.36372375
113	0x3f587d03	0.8456575
114	0xbfd54afa	-1.6663506
115	0xbfd49139	-1.6606818
116	0x40438cb3	3.0554626
117	0xbfca2b1c	-1.5794406
118	0xbf6aaa0a	-0.9166571
119	0xbf8c0d91	-1.094164
120	0xbfd9c56b	-1.7013372
121	0x3d7674db	0.060170036
122	0x3f837c7b	1.0272363
123	0xbfbea4c2	-1.489403
124	0xbfd61d7c	-1.6727748
125	0x3c808a3d	0.015690917
126	0xbf11f8c6	-0.57020223
127	0x3e9984b8	0.2998407

network_body._body_endoder.seq_layers.0.bias f4 [128]
0	0x00000000	0.0
1	0x00000000	0.0
2	0x00000000	0.0
3	0x00000000	0.0
4	0x00000000	0.0
5	0x00000000	0.0
6	0x00000000	0.0
7	0x00000000	0.0
8	0x00000000	0.0
9	0x00000000	0.0
10	0x00000000	0.0
11	0x00000000	0.0
12	0x00000000	0.0
13	0x00000000	0.0
14	0x00000000	0.0
15	0x00000000	0.0
16	0x00000000	0.0
17	0x00000000	0.0
18	0x00000000	0.0
19	0x00000000	0.0
20	0x00000000	0.0
21	0x00000000	0.0
22	0x00000000	0.0
23	0x00000000	0.0
24	0x00000000	0.0
25	0x00000000	0.0
26	0x00000000	0.0
27	0x00000000	0.0
28	0x00000000	0.0
29	0x00000000	0.0
30	0x00000000	0.0
31	0x00000000	0.0
32	0x00000000	0.0
33	0x00000000	0.0
34	0x00000000	0.0
35	0x00000000	0.0
36	0x00000000	0.0
37	0x00000000	0.0
38	0x00000000	0.0
39	0x00000000	0.0
40	0x00000000	0.0
41	0x00000000	0.0
42	0x00000000	0.0
43	0x00000000	0.0
44	0x00000000	0.0
45	0x00000000	0.0
46	0x00000000	0.0
47	0x00000000	0.0
48	0x00000000	0.0
49	0x00000000	0.0
50	0x00000000	0.0
51	0x00000000	0.0
52	0x00000000	0.0
53	0x00000000	0.0
54	0x00000000	0.0
55	0x00000000	0.0
56	0x00000000	0.0
57	0x00000000	0.0
58	0x00000000	0.0
59	0x00000000	0.0
60	0x00000000	0.0
61	0x00000000	0.0
62	0x00000000	0.0
63	0x00000000	0.0
64	0x00000000	0.0
65	0x00000000	0.0
66	0x00000000	0.0
67	0x00000000	0.0
68	0x00000000	0.0
69	0x00000000	0.0
70	0x00000000	0.0
71	0x00000000	0.0
72	0x00000000	0.0
73	0x00000000	0.0
74	0x00000000	0.0
75	0x00000000	0.0
76	0x00000000	0.0
77	0x00000000	0.0
78	0x00000000	0.0
79	0x00000000	0.0
80	0x00000000	0.0
81	0x00000000	0.0
82	0x00000000	0.0
83	0x00000000	0.0
84	0x00000000	0.0
85	0x00000000	0.0
86	0x00000000	0.0
87	0x00000000	0.0
88	0x00000000	0.0
89	0x00000000	0.0
90	0x00000000	0.0
91	0x00000000	0.0
92	0x00000000	0.0
93	0x00000000	0.0
94	0x00000000	0.0
95	0x00000000	0.0
96	0x00000000	0.0
97	0x00000000	0.0
98	0x00000000	0.0
99	0x00000000	0.0
100	0x00000000	0.0
101	0x00000000	0.0
102	0x00000000	0.0
103	0x00000000	0.0
104	0x00000000	0.0
105	0x00000000	0.0
106	0x00000000	0.0
107	0x00000000	0.0
108	0x00000000	0.0
109	0x00000000	0.0
110	0x00000000	0.0
111	0x00000000	0.0
112	0x00000000	0.0
113	0x00000000	0.0
114	0x00000000	0.0
115	0x00000000	0.0
116	0x00000000	0.0
117	0x00000000	0.0
118	0x00000000	0.0
119	0x00000000	0.0
120	0x00000000	0.0
121	0x00000000	0.0
122	0x00000000	0.0
123	0x00000000	0.0
124	0x00000000	0.0
125	0x00000000	0.0
126	0x00000000	0.0
127	0x00000000	0.0

network_body._body_endoder.seq_layers.2.weight f4 [128, 128]
0	0xbd917175	-0.07101718
1	0xbe7dd580	-0.24788475
2	0x3d26ed5d	0.04075371
3	0xbe32db74	-0.17466527
4	0x3d349970	0.044091642
5	0x3e370a1c	0.1787495
6	0xbda76cd6	-0.08175056
7	0x3db0fc20	0.08641839
8	0x3c9864e9	0.018602805
9	0xbcd7e1e1	-0.026352825
10	0x3d1cd04b	0.03828458
11	0xbd320c3e	-0.043468706
12	0xbd0830e8	-0.033249766
13	0x3dc91a2e	0.098194465
14	0xbdaf2057	-0.0855109
15	0x3cbea51f	0.023272095
16	0xbda3d217	-0.07999056
17	0x3d42f5c9	0.04759768
18	0x3d19f514	0.03758724
19	0x398828ec	0.0002597043
20	0x3b281cac	0.0025651855
21	0x3e1c32b5	0.15253718
22	0xbcc06045	-0.023483405
23	0xbc9326c6	-0.017962825
24	0x3d5317a8	0.051536232
25	0xbd63666d	-0.055517603
26	0x3ddddf69	0.10833628
27	0x3dde07d5	0.108413376
28	0x3cc84a73	0.024449563
29	0x3ddf220a	0.10895164
30	0x3b1392c2	0.0022517894
31	0x3da7e9f0	0.08198917
32	0xbdf1a676	-0.11799328
33	0xbd705fc5	-0.058685083
34	0x3dc54f63	0.096342824
35	0x3de606e1	0.11231781
36	0xbdf1f895	-0.118149914
37	0xbd9c4ba7	-0.07631617
38	0x3d14fdaa	0.036374725
39	0x3d9be261	0.07611538
40	0xbdaf24ce	-0.08551942
41	0xbbfea47b	-0.0077710724
42	0xbda990c1	-0.08279563
43	0x3d301f39	0.042998526
44	0x3e844ecd	0.2584137
45	0x3d49e968	0.04929486
46	0xbe15d9c8	-0.14633858
47	0xbd2a9f90	-0.041656077
48	0x3dbdef3a	0.092741445
49	0x3daaaad3	0.083333634
50	0xbdbf91e0	-0.09353995
51	0x3d29342a	0.041309513
52	0x3e11df0a	0.14245239
53	0x3d8ac866	0.06776504
54	0xbdf21432	-0.11820258
55	0xbe43f526	-0.19136485
56	0x3d698748	0.05701378
57	0x3e2d2bb2	0.169112
58	0xbdecf27c	-0.11569688
59	0xbb8678df	-0.0041037644
60	0x3d381975	0.044946153
61	0xbdd81513	-0.105508946
62	0x3d6a5fcd	0.05722027
63	0x3c98beef	0.018645732
64	0x3e27e02d	0.1639411
65	0x3e05b321	0.13056614
66	0xbd6a2859	-0.057167385
67	0x3da7aafc	0.081869096
68	0xbe32e7d2	-0.17471245
69	0x3dfa3e1f	0.1221888
70	0x3db94498	0.09046286
71	0xbd3ca462	-0.046055205
72	0x3d82ecf3	0.06392851
73	0x3db01b28	0.0859893
74	0xbd13de97	-0.03610095
75	0x3e541911	0.20712687
76	0xbd8f91d2	-0.07010235
77	0xbcc3a614	-0.023882903
78	0x3e560204	0.20899206
79	0x3db3ae45	0.08773474
80	0xbdd75841	-0.1051488
81	0xbde432e0	-0.11142516
82	0x38ebd4a5	0.00011245281
83	0x3ddfbe5e	0.109249815
84	0x3d4ea666	0.05045166
85	0xbc5de899	-0.013544225
86	0xbd0af94e	-0.03392916
87	0x3ca46681	0.020068409
88	0xbd95d2aa	-0.073155716
89	0xbc6d602a	-0.014488259
90	0x3db3c289	0.08777339
91	0x3e1d7023	0.15374808
92	0xbddc4acf	-0.10756456
93	0xbdc9219d	-0.09820864
94	0x3cd78bc4	0.026311763
95	0xbce583b5	-0.028016904
96	0xbe9d953b	-0.30777916
97	0xbde7918d	-0.113070585
98	0x3db664f5	0.08905975
99	0x3cbe860e	0.023257282
100	0x3dee7940	0.1164422
101	0xbdf5b30c	-0.11997041
102	0x3d4e99d6	0.050439678
103	0xbd818510	-0.06324208
104	0x3dafbb2f	0.08580624
105	0xbe25572b	-0.16146533
106	0xbd5d8377	-0.054080453
107	0x3dfa0b33	0.12209167
108	0xbc56d33b	-0.013111885
109	0xbd28f210	-0.041246474
110	0x3e1e2113	0.15442304
111	0x3d842dff	0.064540856
112	0x3def1c3c	0.11675307
113	0x3e209467	0.15681611
114	0x3d370631	0.04468364
115	0x3e15419a	0.14575806
116	0x3c9da968	0.019245818
117	0x3da89a35	0.08232538
118	0x3da342de	0.07971738
119	0xbe2caa48	-0.16861832
120	0x3db524bb	0.088448964
121	0x3d8faccb	0.070153795
122	0xbe3e98df	-0.18613003
123	0xbd9093e6	-0.070594594
124	0x3de66e1e	0.11251472
125	0x3d833f68	0.06408578
126	0x3e42b685	0.19014938
127	0xbd495296	-0.049151026
128	0x3df7ca7d	0.120991684
129	0xbd5edc94	-0.05440958
130	0xbd6c5834	-0.057701305
131	0x3d969f6b	0.07354625
132	0x3b09d221	0.0021029788
133	0xbd6aa79d	-0.057288755
134	0x3d65731c	0.05601798
135	0x3a5b5ff5	0.0008368486
136	0xbc5a105e	-0.013309566
137	0xbd4b66ad	-0.049658466
138	0x3cea281a	0.028583575
139	0xbc825d3d	-0.0159136
140	0xbd8530ce	-0.065034494
141	0x3d3448af	0.04401463
142	0xbd70b609	-0.058767352
143	0xbd8fbdce	-0.07018624
144	0x3d491173	0.049088906
145	0xbe575382	-0.2102795
146	0xbdaebbe3	-0.0853193
147	0xbd6a4447	-0.05719402
148	0x3dee7a43	0.11644413
149	0x3d1a7a7d	0.03771447
150	0xbcc8dcdb	-0.024519375
151	0x3c5628f0	0.013071284
152	0x3bb23a0e	0.0054390496
153	0xbc4c526e	-0.012470825
154	0x3db5b835	0.08873025
155	0xbde3e4ac	-0.111276
156	0x3d3dac52	0.046306916
157	0x3e22c926	0.15897045
158	0x3d689116	0.05677899
159	0xbd2ce628	-0.04221168
160	0x3c990533	0.018679237
161	0xbd971ef5	-0.073789515
162	0x3cfccc16	0.030859035
163	0xbd4b5f69	-0.049651537
164	0x3d98bbf2	0.07457723
165	0xbe3bc2fc	-0.183361
166	0x3c53855e	0.012910215
167	0xbc5b3a43	-0.01338059
168	0x3deddffb	0.116149865
169	0x3d2a7823	0.041618478
170	0xbdfdd7ad	-0.123946525
171	0x3d05bf47	0.03265312
172	0x3e18e365	0.14930494
173	0xbe588d29	-0.21147598
174	0xbc93596b	-0.017986974
175	0xbda071ae	-0.07834183
176	0x3c666f51	0.014064626
177	0xbd9edf74	-0.07757464
178	0xbd2ac631	-0.041692916
179	0xbdda05a8	-0.1064561
180	0x3d14f85f	0.036369678
181	0x3d2fb517	0.04289731
182	0x3a1374c0	0.0005625002
183	0x3e56e0ab	0.20984142
184	0xbc9863ba	-0.01860224
185	0x3d8c481e	0.06849693
186	0xbdbf25ef	-0.09333407
187	0x3d91a236	0.071110174
188	0x3bcfa2a8	0.006336529
189	0xbbb3f89e	-0.005492284
190	0xbd999221	-0.07498575
191	0x3d83a208	0.064273894
192	0xbce71b88	-0.02821137
193	0x3c435eb6	0.011924436
194	0xbe1dcb6d	-0.15409632
195	0xbd31c203	-0.043397915
196	0xbe30f6bb	-0.1728162
197	0x3e87f0ed	0.26551
198	0x3d2ee03c	0.042694315
199	0x3be881b9	0.0070955423
200	0x3e33d10c	0.17560214
201	0x3d26a621	0.040685777
202	0xbd3300d2	-0.043701954
203	0x3d68f0b8	0.056870192
204	0xbda54649	-0.080700465
205	0x3d5d72bc	0.054064497
206	0xbd8f9548	-0.07010895
207	0xbd69ade4	-0.0570506
208	0x3daf8517	0.08570307
209	0xbd86b9e6	-0.06578426
210	0xbca3dbcd	-0.02000227
211	0xbde38420	-0.11109185
212	0xbd035944	-0.032067552
213	0x3dcae6c0	0.09907293
214	0x3b8f6064	0.0043755043
215	0x3de32167	0.11090355
216	0x3e37dd5a	0.17955533
217	0x3d5bb300	0.053637505
218	0xbdb41e66	-0.087948605
219	0x3d82acc5	0.063806094
220	0xbd836b85	-0.06416992
221	0x3e137106	0.14398584
222	0x3d370b57	0.04468855
223	0x3d20dbf9	0.039272282
224	0xbd226a10	-0.03965193
225	0x3da1cf25	0.07900838
226	0x3da21dc7	0.07915836
227	0x3de15906	0.11003308
228	0xbd27e444	-0.040989175
229	0x3b8547af	0.0040673832
230	0x3cf94dc3	0.030432587
231	0x3d9f0a1f	0.07765602
232	0x3df731e0	0.1207006
233	0x3d207ca8	0.03918138
234	0xbddad23a	-0.10684629
235	0xbd6b43b1	-0.057437602
236	0x3e039e94	0.12853462
237	0x3b2a36c7	0.0025972591
238	0x3dc30787	0.0952292
239	0xbd858c08	-0.065208495
240	0xbd8d1e77	-0.06890576
241	0x3e0c7341	0.13715841
242	0xbd5fe087	-0.054657485
243	0xbdab8af3	-0.08376112
244	0xbbf09744	-0.007342251
245	0xbc2ade06	-0.010428911
246	0x3d3a0b63	0.045421015
247	0xbd3755b7	-0.04475948
248	0xbda4a955	-0.0804011
249	0xbc5c84d5	-0.013459404
250	0x3e481d5c	0.1954245
251	0xbaef2bc6	-0.0018247298
252	0x3e0cf073	0.13763599
253	0xbce5906e	-0.028022971
254	0xbdf50b61	-0.11965061
255	0x3d3169c0	0.04331374

network_body._body_endoder.seq_layers.2.bias f4 [128]
0	0x00000000	0.0
1	0x00000000	0.0
2	0x00000000	0.0
3	0x00000000	0.0
4	0x00000000	0.0
5	0x00000000	0.0
6	0x00000000	0.0
7	0x00000000	0.0
8	0x00000000	0.0
9	0x00000000	0.0
10	0x00000000	0.0
11	0x00000000	0.0
12	0x00000000	0.0
13	0x00000000	0.0
14	0x00000000	0.0
15	0x00000000	0.0
16	0x00000000	0.0
17	0x00000000	0.0
18	0x00000000	0.0
19	0x00000000	0.0
20	0x00000000	0.0
21	0x00000000	0.0
22	0x00000000	0.0
23	0x00000000	0.0
24	0x00000000	0.0
25	0x00000000	0.0
26	0x00000000	0.0
27	0x00000000	0.0
28	0x00000000	0.0
29	0x00000000	0.0
30	0x00000000	0.0
31	0x00000000	0.0
32	0x00000000	0.0
33	0x00000000	0.0
34	0x00000000	0.0
35	0x00000000	0.0
36	0x00000000	0.0
37	0x00000000	0.0
38	0x00000000	0.0
39	0x00000000	0.0
40	0x00000000	0.0
41	0x00000000	0.0
42	0x00000000	0.0
43	0x00000000	0.0
44	0x00000000	0.0
45	0x00000000	0.0
46	0x00000000	0.0
47	0x00000000	0.0
48	0x00000000	0.0
49	0x00000000	0.0
50	0x00000000	0.0
51	0x00000000	0.0
52	0x00000000	0.0
53	0x00000000	0.0
54	0x00000000	0.0
55	0x00000000	0.0
56	0x00000000	0.0
57	0x00000000	0.0
58	0x00000000	0.0
59	0x00000000	0.0
60	0x00000000	0.0
61	0x00000000	0.0
62	0x00000000	0.0
63	0x00000000	0.0
64	0x00000000	0.0
65	0x00000000	0.0
66	0x00000000	0.0
67	0x00000000	0.0
68	0x00000000	0.0
69	0x00000000	0.0
70	0x00000000	0.0
71	0x00000000	0.0
72	0x00000000	0.0
73	0x00000000	0.0
74	0x00000000	0.0
75	0x00000000	0.0
76	0x00000000	0.0
77	0x00000000	0.0
78	0x00000000	0.0
79	0x00000000	0.0
80	0x00000000	0.0
81	0x00000000	0.0
82	0x00000000	0.0
83	0x00000000	0.0
84	0x00000000	0.0
85	0x00000000	0.0
86	0x00000000	0.0
87	0x00000000	0.0
88	0x00000000	0.0
89	0x00000000	0.0
90	0x00000000	0.0
91	0x00000000	0.0
92	0x00000000	0.0
93	0x00000000	0.0
94	0x00000000	0.0
95	0x00000000	0.0
96	0x00000000	0.0
97	0x00000000	0.0
98	0x00000000	0.0
99	0x00000000	0.0
100	0x00000000	0.0
101	0x00000000	0.0
102	0x00000000	0.0
103	0x00000000	0.0
104	0x00000000	0.0
105	0x00000000	0.0
106	0x00000000	0.0
107	0x00000000	0.0
108	0x00000000	0.0
109	0x00000000	0.0
110	0x00000000	0.0
111	0x00000000	0.0
112	0x00000000	0.0
113	0x00000000	0.0
114	0x00000000	0.0
115	0x00000000	0.0
116	0x00000000	0.0
117	0x00000000	0.0
118	0x00000000	0.0
119	0x00000000	0.0
120	0x00000000	0.0
121	0x00000000	0.0
122	0x00000000	0.0
123	0x00000000	0.0
124	0x00000000	0.0
125	0x00000000	0.0
126	0x00000000	0.0
127	0x00000000	0.0

action_model._discrete_distribution.branches.0.weight f4 [5, 128]
0	0x3b9b4ce8	0.0047393925
1	0x39914457	0.00027707472
2	0xbc9b5f8f	-0.018966464
3	0xb8877ceb	-6.4605694e-05
4	0xbc274b26	-0.010210788
5	0x3a63e150	0.0008692937
6	0x3c71b345	0.014752214
7	0xbc2b6e17	-0.010463259
8	0xb9b7dbb8	-0.00035068183
9	0x3bf17358	0.0073684864
10	0xbaa6180f	-0.0012671965
11	0x3baa2677	0.0051925736
12	0xbbbfbb9b	-0.0058512217
13	0xbc8aeeb8	-0.016959533
14	0x3c77b3a5	0.015118514
15	0x3aea07df	0.0017855129
16	0x3bfa439b	0.0076374537
17	0x3bbe48b7	0.005807008
18	0x3ab291ff	0.0013623832
19	0xbc753d72	-0.014968263
20	0xba498125	-0.00076867855
21	0xbb6b04f8	-0.0035861116
22	0x3c18a358	0.009316288
23	0x3c15b68e	0.009137763
24	0xbc6ab812	-0.014326112
25	0xbc25a10f	-0.0101092
26	0x3a914f8f	0.0011086332
27	0xbba5ad95	-0.005056093
28	0xbab297ac	-0.0013625524
29	0x3ab370d7	0.0013690245
30	0x3c39516e	0.011310918
31	0x3a79e755	0.00095330674
32	0x3b9c807d	0.004776059
33	0xbba96cd4	-0.005170444
34	0x3baa4f8e	0.005197472
35	0x3afca615	0.001927557
36	0x3b75b150	0.003748972
37	0xbb5e8aba	-0.00339572
38	0x39e9643a	0.00044515898
39	0xbc82fc27	-0.015989376
40	0xbcaf0f34	-0.021369554
41	0xbaaee6c3	-0.0013343919
42	0xba3133eb	-0.00067597505
43	0x3b757830	0.003745567
44	0x3c8fbbb2	0.017545555
45	0xbb892743	-0.0041855886
46	0x3bafeafc	0.0053685885
47	0xbb87d306	-0.004145029
48	0x3cb5caf8	0.02219151
49	0xbc8f11cb	-0.017464539
50	0x3bb06fa9	0.0053844047
51	0x3c112526	0.0088589545
52	0xbb7930ef	-0.0038023551
53	0xbac5d64b	-0.0015093772
54	0x3ca45bea	0.02006336
55	0xbc34c6cf	-0.011033728
56	0x3bd97c6d	0.006637147
57	0x3bdc5ce0	0.0067249388
58	0x3bf5cfb8	0.0075015686
59	0x3cabeab5	0.02098594
60	0xbbb706db	-0.005585534
61	0xba54c95f	-0.0008117165
62	0xbbffa04a	-0.0078010904
63	0x3bd9acca	0.0066429125
64	0x3b627c00	0.0034558773
65	0x3b9fbcd7	0.0048748064
66	0xbc184332	-0.009293364
67	0xbc4fc73d	-0.012681779
68	0xbc605f28	-0.013694562
69	0xbbb685b9	-0.00557014
70	0xbc593990	-0.013258353
71	0x3bd8fddd	0.0066220597
72	0xbbaa06af	-0.005188785
73	0x3b205b1e	0.0024468373
74	0xbc0fd160	-0.008777946
75	0xbc41fb16	-0.011839649
76	0xbbf2e245	-0.0074122273
77	0x3bf072d7	0.0073379087
78	0x3be167ea	0.0068788426
79	0x3b3949de	0.0028272788
80	0x3c4705a7	0.012147344
81	0xbab6abb7	-0.0013936673
82	0x3c1c6b57	0.009547076
83	0x3bac0d79	0.0052506295
84	0x3b3fab29	0.0029246307
85	0xbac9b70f	-0.0015389639
86	0x3ba61b6a	0.005069186
87	0x3adae978	0.0016701659
88	0xbc01578b	-0.007894407
89	0x3c61b853	0.0137768565
90	0xbbc39375	-0.005968506
91	0xbbcb39a4	-0.0062019397
92	0xbb3e6598	-0.0029052254
93	0x3bf8e7a0	0.007595971
94	0xbbb97d11	-0.005660661
95	0x3ac3ce92	0.0014938882
96	0x3c505ff2	0.012718188
97	0xbb452e7c	-0.0030087521
98	0x3c0944dd	0.008378235
99	0x3ca0383f	0.01955807
100	0xba038494	-0.0005017009
101	0xbb7ddae5	-0.0038735208
102	0x3afbfd0b	0.0019225193
103	0x3bb3b9b9	0.0054847864
104	0x3b685275	0.003544954
105	0x3bee4917	0.0072718966
106	0xba7d8cdf	-0.00096721755
107	0xb9b3214f	-0.00034166357
108	0x3c4312f7	0.011906377
109	0xbb540f28	-0.0032357667
110	0x3b812fe3	0.003942476
111	0x3bd366aa	0.0064514475
112	0x3b65e1c5	0.0035077196
113	0xbc48e908	-0.01226259
114	0x3b8f6cb6	0.004376973
115	0x3c1bdf7c	0.009513732
116	0x3bc9a9fb	0.0061542965
117	0x3ac16b9d	0.0014756803
118	0x3bd1bb3a	0.006400493
119	0xbbe3c042	-0.006950409
120	0x3a69bb4b	0.00089161535
121	0x3c0e1cab	0.008673827
122	0xbba37725	-0.0049885684
123	0xbb129b27	-0.002237031
124	0xbbf17bc2	-0.0073694894
125	0xbb26c9ed	-0.0025449947
126	0x39b6827e	0.0003481097
127	0x3a5f315f	0.0008514132
128	0xbbc3ed70	-0.0059792325
129	0xbb9287ab	-0.0044717393
130	0xbbac680b	-0.0052614263
131	0x3bf966f3	0.0076111495
132	0xba883a79	-0.0010393403
133	0xbc818855	-0.015812078
134	0x3bf23257	0.007391255
135	0x3b7009d8	0.003662696
136	0x3c2ecf25	0.010669504
137	0xbc147f8f	-0.009063615
138	0xbc781f47	-0.015144176
139	0xbbe2e05d	-0.006923719
140	0xb8d67517	-0.00010226125
141	0x3c0329a7	0.008005536
142	0xbc85756f	-0.016291348
143	0x3a507b72	0.0007952965
144	0xbc4f9ee0	-0.012672156
145	0xbc1005d7	-0.008790455
146	0xbc36368c	-0.011121403
147	0xbb20570e	-0.002446595
148	0x3b83d44c	0.0040231105
149	0x390ebce0	0.00013612537
150	0xbb23e5d1	-0.0025008807
151	0x39c9e2ff	0.00038506833
152	0x3bb6815b	0.0055696196
153	0x3be5147a	0.0069909664
154	0xbb6ddd0a	-0.003629508
155	0xbc0eb0ba	-0.008709127
156	0x3a8e3c7f	0.001085177
157	0x3bd84948	0.0066005327
158	0x3bac726c	0.0052626636
159	0x3b04f00b	0.0020284678
160	0xbb58853f	-0.0033038405
161	0xba624f32	-0.0008633017
162	0x3c72f26b	0.014828305
163	0x3bb63673	0.00556069
164	0x3b89f5fb	0.0042102314
165	0xbbe1f352	-0.006895461
166	0x39e45a45	0.00043554805
167	0xbc45fcf7	-0.012084237
168	0x3aaa39a9	0.0012987155
169	0x3b570195	0.003280734
170	0xbb8c45eb	-0.004280796
171	0xbbebc388	-0.00719494
172	0x3b8f9494	0.0043817256
173	0x3c0774db	0.008267607
174	0x3b034637	0.0020030865
175	0x3c271372	0.010197507
176	0xba0555b9	-0.0005086321
177	0xbacc6757	-0.0015594763
178	0xbc20a773	-0.009805548
179	0xbb848825	-0.00404455
180	0x3c125b38	0.008932881
181	0x3c44bb0b	0.012007485
182	0x3b8057ba	0.003916708
183	0xbc454d2b	-0.012042324
184	0x3c13626b	0.008995633
185	0x3bd379ed	0.0064537437
186	0x3951f780	0.00020023994
187	0x3beb2ef5	0.0071772286
188	0x3c2bc4e9	0.010483959
189	0xbb06f1c2	-0.0020590876
190	0x3ba957e2	0.005167947
191	0x3bc17c97	0.005904745
192	0x3c0d2bc5	0.0086163925
193	0xbb925f28	-0.00446691
194	0xba1c78ec	-0.00059689465
195	0x3a1859e7	0.00058117363
196	0xbc7defc0	-0.015499055
197	0x3ba2bc9d	0.004966332
198	0x3bd5f270	0.006529145
199	0x3c716b9f	0.0147351315
200	0x3c15e64f	0.009149148
201	0xbc254a95	-0.0100885825
202	0xbbcf5380	-0.0063270926
203	0xbc87d0cb	-0.016579052
204	0x3b942992	0.004521557
205	0xbb83d50b	-0.0040231994
206	0xbc2c018e	-0.010498418
207	0x3b3b5cda	0.002858928
208	0x3637950b	2.735588e-06
209	0xbb9e5a49	-0.00483254
210	0x3b944687	0.004525009
211	0xb9430ae4	-0.00018600706
212	0xbc86af3c	-0.01644098
213	0x3c3f8d7a	0.0116914455
214	0xbbeef412	-0.007292279
215	0x3c801091	0.0156329
216	0x3abbaff4	0.0014319406
217	0xbb366e03	-0.0027836568
218	0xbc988e3b	-0.018622508
219	0xbbb61a59	-0.00555734
220	0x378ba6db	1.664779e-05
221	0xbbb2f077	-0.0054607945
222	0xb9b7027e	-0.00034906337
223	0xbc5225e7	-0.012826419
224	0xbc569472	-0.013096916
225	0x3ba2723c	0.0049574655
226	0x3baa982f	0.00520613
227	0xbab81047	-0.0014042937
228	0xbc678fe3	-0.014133426
229	0x3c1c6e6d	0.009547812
230	0xbb80d034	-0.0039310697
231	0x3c0ebb7c	0.008711692
232	0xbbe9f775	-0.007140095
233	0x3c77f4cd	0.015134049
234	0xbbe83992	-0.007086941
235	0xbada8b1b	-0.0016673537
236	0x3a89c3d3	0.0010510631
237	0x38f608b2	0.00011731814
238	0x3c17f20f	0.00927402
239	0x3b8ff527	0.004393238
240	0x3b215455	0.0024616916
241	0x3ba69bea	0.0050845044
242	0x3c59328f	0.013256683
243	0xbbf19d60	-0.007373497
244	0xbc433e53	-0.011916715
245	0xbb85018b	-0.004059022
246	0xbc28f78f	-0.010312929
247	0xbb76be05	-0.0037649882
248	0x3bdcba20	0.006736055
249	0x3b868b8c	0.0041059908
250	0xbc46c9db	-0.012133087
251	0x3c4662b2	0.012108492
252	0xbb6bf9a0	-0.0036006942
253	0x3b98b5ac	0.004660329
254	0xbbc119ef	-0.005892984
255	0xbc0a7161	-0.008449883

action_model._discrete_distribution.branches.0.bias f4 [5]
0	0x00000000	0.0
1	0x00000000	0.0
2	0x00000000	0.0
3	0x00000000	0.0
4	0x00000000	0.0

network_body._body_endoder.seq_layers.0.weight f4 [128, 1]
0	0xbf8c0acb	-1.0940794
1	0x3f9cc0b5	1.224631
2	0xbf3a89fe	-0.7286681
3	0x3edbf799	0.4296234
4	0xbfcc98ae	-1.5984094
5	0x3f7405b5	0.9532121
6	0x3ee8ee88	0.45494485
7	0x3e9290e2	0.28626162
8	0xbf482eec	-0.781966
9	0x3f6d8cf2	0.9279319
10	0xbf07e901	-0.5308991
11	0x3f8a4e70	1.0805187
12	0x3ee8ffb7	0.45507595
13	0xbfd7e67a	-1.6867211
14	0xbe705f3f	-0.23473834
15	0x3dd7e6f1	0.105420955
16	0xbe11fd40	-0.14256763
17	0xc0038e62	-2.0555654
18	0x3eaf090f	0.341866
19	0xbe90ce01	-0.28282169
20	0xbfa1922c	-1.2622733
21	0xbf16cc95	-0.5890592
22	0xbe1fb4d8	-0.1559633
23	0x3efd3a17	0.49458382
24	0x3fb8cca8	1.4437456
25	0xbe7d48bc	-0.24734777
26	0xbe703670	-0.23458266
27	0xbe8a32de	-0.26991934
28	0xbf802f2d	-1.0014397
29	0xbfcde360	-1.6085014
30	0x3ec2c09c	0.38037574
31	0xbf499c47	-0.78754085
32	0x3f2ed666	0.68295896
33	0x3d29d4ad	0.04146259
34	0x3e892951	0.26789334
35	0xbee2d740	-0.44304848
36	0xbd085395	-0.033282835
37	0x3f55b100	0.83473206
38	0xbe56ce7d	-0.20977207
39	0xbe624597	-0.22096859
40	0x3fbbde85	1.4677283
41	0x3edea4ee	0.43485206
42	0xbedbc55f	-0.4292402
43	0xbf36bb4f	-0.7137956
44	0xbf92dc21	-1.1473428
45	0x3f4d3384	0.8015673
46	0x3fe067e1	1.7531701
47	0x3e940592	0.289105
48	0xbf157a0a	-0.5838934
49	0xbfa1df99	-1.2646362
50	0x3f779286	0.9670795
51	0xbe416eec	-0.1888997
52	0x3de65150	0.11245978
53	0xbd31d08e	-0.043411784
54	0xbf8e4648	-1.1115198
55	0xbeef7629	-0.46769837
56	0x3f77d913	0.96815604
57	0x3f88ab4c	1.0677276
58	0xbf1c38c7	-0.61024135
59	0xbfada48d	-1.3565842
60	0xbd25583e	-0.040367357
61	0xbe945f12	-0.28978783
62	0x3e9614d9	0.2931278
63	0xbf3d2d38	-0.73897123
64	0xbe7cb442	-0.24678138
65	0x3fd51bda	1.6649125
66	0x3fa173eb	1.26135
67	0x3fcefcc7	1.6170892
68	0xbf93b8de	-1.1540792
69	0xbc3be4a2	-0.0114680845
70	0xbf9d084a	-1.2268155
71	0x3f5d7bcf	0.8651704
72	0xbf9597c0	-1.1686935
73	0xbe435bf7	-0.1907805
74	0x3f8ecfcb	1.1157163
75	0xbfa79fb1	-1.3095609
76	0xbfde6bde	-1.7376668
77	0x3957c32c	0.00020576705
78	0xbe26007e	-0.16211125
79	0xbfdd9a26	-1.7312667
80	0x3f80cfd2	1.0063422
81	0xbfc4bd6d	-1.5370308
82	0x3fd52a29	1.6653491
83	0x3fb75e09	1.4325572
84	0x3f027374	0.5095742
85	0xbf101e17	-0.56295913
86	0x3b70e850	0.0036759563
87	0xbf17204c	-0.59033656
88	0x3fe1cb2b	1.7640127
89	0x3d040661	0.032232646
90	0x3fa05e0b	1.25287
91	0x3e92037c	0.28518283
92	0x3eeebab1	0.4662681
93	0x3f748ad0	0.9552431
94	0x3ed23ddb	0.41062817
95	0xbdb91f1d	-0.090391375
96	0x3f819e20	1.0126381
97	0xbf11a1f6	-0.5688776
98	0xbf3c4e0c	-0.7355659
99	0xbe9928a0	-0.29913807
100	0x3ef03288	0.46913552
101	0x3ff0b31a	1.8804657
102	0xc000548e	-2.0051608
103	0x3f5b4285	0.85648376
104	0x3ecd139e	0.4005403
105	0x3fec2d90	1.8451405
106	0xbfd2a106	-1.645539
107	0x3fd56258	1.6670637
108	0xbf30f403	-0.6912233
109	0x3fb40972	1.4065382
110	0xbfe14f4f	-1.7602328
111	0x3f9367ce	1.1516054
112	0xbfb22bae	-1.391958
113	0x4004a918	2.0728207
114	0xbf412ff7	-0.75463814
115	0x3f3e1abf	0.7425956
116	0x3f5e5478	0.8684764
117	0xbe7e7634	-0.24849778
118	0xbe87952f	-0.26481006
119	0x3f9ef90c	1.2419753
120	0xbf00656d	-0.50154763
121	0xbfb57578	-1.4176474
122	0x3e55fd42	0.20897391
123	0xc02933ec	-2.643794
124	0x3f9d4f2a	1.2289784
125	0xbe146ac4	-0.14493853
126	0x3fcc1fad	1.5947167
127	0xbf9c8800	-1.2229004

network_body._body_endoder.seq_layers.0.bias f4 [128]
0	0x00000000	0.0
1	0x00000000	0.0
2	0x00000000	0.0
3	0x00000000	0.0
4	0x00000000	0.0
5	0x00000000	0.0
6	0x00000000	0.0
7	0x00000000	0.0
8	0x00000000	0.0
9	0x00000000	0.0
10	0x00000000	0.0
11	0x00000000	0.0
12	0x00000000	0.0
13	0x00000000	0.0
14	0x00000000	0.0
15	0x00000000	0.0
16	0x00000000	0.0
17	0x00000000	0.0
18	0x00000000	0.0
19	0x00000000	0.0
20	0x00000000	0.0
21	0x00000000	0.0
22	0x00000000	0.0
23	0x00000000	0.0
24	0x00000000	0.0
25	0x00000000	0.0
26	0x00000000	0.0
27	0x00000000	0.0
28	0x00000000	0.0
29	0x00000000	0.0
30	0x00000000	0.0
31	0x00000000	0.0
32	0x00000000	0.0
33	0x00000000	0.0
34	0x00000000	0.0
35	0x00000000	0.0
36	0x00000000	0.0
37	0x00000000	0.0
38	0x00000000	0.0
39	0x00000000	0.0
40	0x00000000	0.0
41	0x00000000	0.0
42	0x00000000	0.0
43	0x00000000	0.0
44	0x00000000	0.0
45	0x00000000	0.0
46	0x00000000	0.0
47	0x00000000	0.0
48	0x00000000	0.0
49	0x00000000	0.0
50	0x00000000	0.0
51	0x00000000	0.0
52	0x00000000	0.0
53	0x00000000	0.0
54	0x00000000	0.0
55	0x00000000	0.0
56	0x00000000	0.0
57	0x00000000	0.0
58	0x00000000	0.0
59	0x00000000	0.0
60	0x00000000	0.0
61	0x00000000	0.0
62	0x00000000	0.0
63	0x00000000	0.0
64	0x00000000	0.0
65	0x00000000	0.0
66	0x00000000	0.0
67	0x00000000	0.0
68	0x00000000	0.0
69	0x00000000	0.0
70	0x00000000	0.0
71	0x00000000	0.0
72	0x00000000	0.0
73	0x00000000	0.0
74	0x00000000	0.0
75	0x00000000	0.0
76	0x00000000	0.0
77	0x00000000	0.0
78	0x00000000	0.0
79	0x00000000	0.0
80	0x00000000	0.0
81	0x00000000	0.0
82	0x00000000	0.0
83	0x00000000	0.0
84	0x00000000	0.0
85	0x00000000	0.0
86	0x00000000	0.0
87	0x00000000	0.0
88	0x00000000	0.0
89	0x00000000	0.0
90	0x00000000	0.0
91	0x00000000	0.0
92	0x00000000	0.0
93	0x00000000	0.0
94	0x00000000	0.0
95	0x00000000	0.0
96	0x00000000	0.0
97	0x00000000	0.0
98	0x00000000	0.0
99	0x00000000	0.0
100	0x00000000	0.0
101	0x00000000	0.0
102	0x00000000	0.0
103	0x00000000	0.0
104	0x00000000	0.0
105	0x00000000	0.0
106	0x00000000	0.0
107	0x00000000	0.0
108	0x00000000	0.0
109	0x00000000	0.0
110	0x00000000	0.0
111	0x00000000	0.0
112	0x00000000	0.0
113	0x00000000	0.0
114	0x00000000	0.0
115	0x00000000	0.0
116	0x00000000	0.0
117	0x00000000	0.0
118	0x00000000	0.0
119	0x00000000	0.0
120	0x00000000	0.0
121	0x00000000	0.0
122	0x00000000	0.0
123	0x00000000	0.0
124	0x00000000	0.0
125	0x00000000	0.0
126	0x00000000	0.0
127	0x00000000	0.0

network_body._body_endoder.seq_layers.2.weight f4 [128, 128]
0	0x3e2d8284	0.16944319
1	0xbb9f4801	-0.0048608785
2	0xbc3551ed	-0.011066896
3	0xbdc1be23	-0.09460094
4	0x3d566065	0.052338023
5	0xbd75b849	-0.0599902
6	0x3dc1708a	0.09445293
7	0xbda50e7c	-0.08059403
8	0xbd4bbbcf	-0.049739655
9	0xbd03b9bd	-0.032159556
10	0x3e0de7c2	0.1385794
11	0x3dc79264	0.09744719
12	0xbcee86fa	-0.029117096
13	0x3cc88641	0.02447808
14	0xbdbb99fc	-0.091602296
15	0xbcd4a287	-0.025956405
16	0xbdf66b5c	-0.12032196
17	0x3e1fd478	0.15608394
18	0x3db57dac	0.08861861
19	0xbcca35d1	-0.024683865
20	0x3d3d1585	0.0461631
21	0xbdea365a	-0.11436148
22	0xbda60726	-0.08106832
23	0x3d821d3b	0.063532315
24	0xbc34b953	-0.011030513
25	0xbca149a5	-0.019688437
26	0x3d6fe17c	0.058564648
27	0xbdff3c43	-0.12462666
28	0xbd9d2036	-0.076721594
29	0x3c9c8e3b	0.01911079
30	0xbd0ea653	-0.034826588
31	0x3d954c8f	0.07289993
32	0x3de77bd6	0.11302917
33	0xbb56d4d5	-0.0032780666
34	0xbdc340fb	-0.095338784
35	0xbcc53005	-0.024070749
36	0x3da36245	0.07977728
37	0x3d2903d8	0.04126343
38	0x3cdf30c6	0.027244937
39	0x3d45210b	0.048127215
40	0xbe07f7cf	-0.13278125
41	0xbde33600	-0.11094284
42	0xbc8ed6c6	-0.017436396
43	0x3d5d81e6	0.05407896
44	0x3d192238	0.03738615
45	0xbd872cf9	-0.06600375
46	0x3ddbd4c0	0.10733938
47	0x3ce0402c	0.02737435
48	0x3d32a8d5	0.043618042
49	0xbc3d0ac2	-0.011538209
50	0xbc8acf8c	-0.01694467
51	0x3d80c0ca	0.062867716
52	0xbe3756d9	-0.17904224
53	0x3d418fed	0.0472564
54	0xbdb7dc64	-0.08977583
55	0xbd21747a	-0.03941772
56	0x3d2e345d	0.042530406
57	0xbd84c2cc	-0.06482467
58	0xbd2ac4f3	-0.04169173
59	0x3d855e3f	0.06512117
60	0x3d6c1b41	0.05764318
61	0x3c70206c	0.0146561675
62	0x3cc3de07	0.023909582
63	0xbd2bf4c9	-0.041981492
64	0xbe09aafa	-0.13444129
65	0xbcde3470	-0.027124614
66	0x3d25923a	0.040422656
67	0xbe0c3423	-0.13691764
68	0x3b8178f9	0.0039511886
69	0x3da9388d	0.08262739
70	0xbc310703	-0.010804894
71	0x3d1b94f3	0.037983846
72	0xbc9b882c	-0.01898583
73	0xbda6ee44	-0.08150914
74	0x3d5e1138	0.05421564
75	0x3d354d1a	0.044262983
76	0x3d4cd64e	0.050009064
77	0xbd4e2e88	-0.050337344
78	0x3d5dc7cd	0.054145623
79	0x3dc6a8ac	0.0970014
80	0xbe322b64	-0.17399365
81	0x3e0e0f4f	0.13873027
82	0xbd1c1b80	-0.038112164
83	0xbd8109bd	-0.063006856
84	0x3d63d8d0	0.05562669
85	0x3d76ee38	0.060285777
86	0x3d8b4acc	0.06801376
87	0xbd5589e1	-0.052133445
88	0xbc366c77	-0.0111342585
89	0xbc7ebdb9	-0.015548163
90	0xbdeaa5f7	-0.114574365
91	0x3d8a2b9c	0.06746599
92	0xbdcdb5f0	-0.100444674
93	0x3df0e8f7	0.117631845
94	0xbcd1bc21	-0.025602402
95	0xbe107c07	-0.14109813
96	0x3c59a427	0.013283766
97	0x3dc2783d	0.0949559
98	0xbb182099	-0.002321279
99	0x3dfd4ebd	0.12368534
100	0x3d24f672	0.04027409
101	0xbdcc862c	-0.09986529
102	0x3c4295ce	0.0118765365
103	0x3dd68d23	0.104761384
104	0x3c9d3327	0.01918943
105	0x3d84e7f5	0.06489555
106	0xbddd0012	-0.10791029
107	0x3d9d55af	0.076823585
108	0xbcc02fa6	-0.02346022
109	0x3e12a594	0.14320976
110	0x3d30cb32	0.043162532
111	0xbde60240	-0.11230898
112	0xbdcd185d	-0.100144126
113	0xbe32af0f	-0.17449592
114	0xbcf57f34	-0.029967882
115	0x3da767d7	0.08174103
116	0xbd0f2f96	-0.03495749
117	0x3d0b5e36	0.034025393
118	0xbcccc3a3	-0.02499563
119	0x3c346772	0.011010991
120	0xbd46c2f2	-0.048525758
121	0xbd73df7f	-0.059539314
122	0x3dbe348e	0.09287368
123	0x3d88be15	0.0667688
124	0x3d0a4e78	0.03376624
125	0x3db7d349	0.08975846
126	0xbd913620	-0.07090402
127	0xbd40012f	-0.04687613
128	0xbc602c32	-0.013682412
129	0x3d07d0f6	0.033158265
130	0x3ca1b594	0.019739904
131	0xbd5971a6	-0.0530869
132	0xbbe5a9a0	-0.0070087463
133	0xbe1569bd	-0.14591117
134	0xbd891a35	-0.06694452
135	0xbe093086	-0.13397416
136	0x3cd76e70	0.026297778
137	0xbde59513	-0.11210074
138	0xba639eff	-0.0008683055
139	0x3e058b5f	0.13041447
140	0xbdb680b9	-0.08911271
141	0x3daa4140	0.08313227
142	0x3cabba85	0.020962963
143	0xbdba9bd2	-0.091117516
144	0xbc9bd565	-0.019022653
145	0x3cca6552	0.024706516
146	0x3dbf16a4	0.0933049
147	0x3ba29904	0.0049620885
148	0x3dc57bce	0.096427545
149	0xbdc2af4b	-0.09506091
150	0xbe581696	-0.21102366
151	0x3ca1c6d9	0.019748138
152	0xbd5e1bfc	-0.054225907
153	0xbde35be6	-0.111015126
154	0x3e804e85	0.25059906
155	0xbc176491	-0.0092402855
156	0xbd339145	-0.04383971
157	0xbcb1ab55	-0.021688143
158	0x3e21c7e3	0.15798907
159	0x3d9f0253	0.07764115
160	0xbc05c7f8	-0.008165352
161	0xbd881222	-0.066440836
162	0xbe6744d8	-0.22584856
163	0xbd08e18d	-0.033418227
164	0x3c0d9b14	0.008642931
165	0xbe0cdb14	-0.13755447
166	0xbcc827a0	-0.024432957
167	0xbbdd036a	-0.0067447918
168	0xbd2892e4	-0.04115571
169	0x3c904a8c	0.017613672
170	0x3db7d47e	0.089760765
171	0xbd228f05	-0.039687175
172	0xbd234948	-0.03986481
173	0xbd9db728	-0.0770095
174	0x3d6a3f98	0.057189554
175	0x3c319281	0.010838152
176	0x3d9847aa	0.07435544
177	0xbd901dc7	-0.070369296
178	0xbc2a1732	-0.010381507
179	0x3d12463b	0.03571151
180	0x3d9dcc6a	0.077050045
181	0x3dbdeb08	0.09273344
182	0xbe10fef3	-0.14159755
183	0x3e15fe0a	0.1464769
184	0x3af2c6e5	0.001852241
185	0x3c1a76ff	0.009427785
186	0xbd7832a4	-0.06059517
187	0x3e147e40	0.14501286
188	0x3d94f82b	0.07273897
189	0xbb688f18	-0.003548568
190	0x3d2dedbb	0.042463046
191	0xbd570eef	-0.052504476
192	0x3c91d46a	0.017801482
193	0x3dd462a6	0.10370378
194	0xbd8b9877	-0.0681619
195	0x3df97184	0.121798545
196	0x3c597739	0.013273054
197	0xbc0488bd	-0.008089242
198	0xbcf92139	-0.03041135
199	0xbd54eb6a	-0.05198232
200	0xbe23ac5a	-0.15983716
201	0x3d1a8f16	0.037734114
202	0xbc27309b	-0.01020446
203	0x3dfff1bc	0.12497279
204	0xbd9118be	-0.07084797
205	0x3dc39946	0.09550719
206	0x3d2b0c6b	0.04175989
207	0xbde03015	-0.10946671
208	0x3e264d93	0.1624053
209	0xbe193624	-0.1496206
210	0x3caaa9f6	0.020832997
211	0x3c0706f3	0.008241403
212	0xbd61d290	-0.05513245
213	0xbdab947c	-0.083779305
214	0x3d8290ff	0.06375312
215	0x3e06b640	0.1315546
216	0xbe36a8e5	-0.17837866
217	0x3d47cb48	0.04877785
218	0x3d8826ef	0.06648051
219	0xbc9f4abd	-0.019444818
220	0xbbde9074	-0.0067921225
221	0x3d483471	0.048878137
222	0xbda4f02e	-0.08053623
223	0x3e48e76f	0.19619535
224	0xbbdd40f6	-0.0067521287
225	0xbd4d3e9d	-0.05010854
226	0x3d2d7292	0.04234559
227	0xbcbfbae5	-0.023404548
228	0x3c73bb54	0.0148762055
229	0x3d5e8077	0.054321732
230	0x3e1f9870	0.15585494
231	0x3d0bbe7e	0.034117214
232	0x3b90731e	0.0044082543
233	0xbdcd8cb1	-0.100366004
234	0xbc4654a1	-0.012105138
235	0xbcc31662	-0.023814384
236	0x3da0d5ab	0.07853254
237	0xbc77452c	-0.015092175
238	0x3df82a87	0.121174864
239	0xbdc1a1f8	-0.09454721
240	0x3b4ce48b	0.0031264152
241	0x3cfa6365	0.030564973
242	0x3d97d5cd	0.07413826
243	0xbda3e954	-0.08003488
244	0x3d359e33	0.044340324
245	0xbd8fd50f	-0.070230596
246	0x3dec3c9f	0.11535
247	0x3bda1036	0.0066547645
248	0xbd296fd6	-0.04136642
249	0xbd12155d	-0.035664905
250	0xbe16660b	-0.14687364
251	0xbdc0573a	-0.09391637
252	0x3c9506d9	0.018191742
253	0xbce734d6	-0.028223436
254	0x3e2f60fe	0.17126843
255	0xbd828452	-0.06372894

network_body._body_endoder.seq_layers.2.bias f4 [128]
0	0x00000000	0.0
1	0x00000000	0.0
2	0x00000000	0.0
3	0x00000000	0.0
4	0x00000000	0.0
5	0x00000000	0.0
6	0x00000000	0.0
7	0x00000000	0.0
8	0x00000000	0.0
9	0x00000000	0.0
10	0x00000000	0.0
11	0x00000000	0.0
12	0x00000000	0.0
13	0x00000000	0.0
14	0x00000000	0.0
15	0x00000000	0.0
16	0x00000000	0.0
17	0x00000000	0.0
18	0x00000000	0.0
19	0x00000000	0.0
20	0x00000000	0.0
21	0x00000000	0.0
22	0x00000000	0.0
23	0x00000000	0.0
24	0x00000000	0.0
25	0x00000000	0.0
26	0x00000000	0.0
27	0x00000000	0.0
28	0x00000000	0.0
29	0x00000000	0.0
30	0x00000000	0.0
31	0x00000000	0.0
32	0x00000000	0.0
33	0x00000000	0.0
34	0x00000000	0.0
35	0x00000000	0.0
36	0x00000000	0.0
37	0x00000000	0.0
38	0x00000000	0.0
39	0x00000000	0.0
40	0x00000000	0.0
41	0x00000000	0.0
42	0x00000000	0.0
43	0x00000000	0.0
44	0x00000000	0.0
45	0x00000000	0.0
46	0x00000000	0.0
47	0x00000000	0.0
48	0x00000000	0.0
49	0x00000000	0.0
50	0x00000000	0.0
51	0x00000000	0.0
52	0x00000000	0.0
53	0x00000000	0.0
54	0x00000000	0.0
55	0x00000000	0.0
56	0x00000000	0.0
57	0x00000000	0.0
58	0x00000000	0.0
59	0x00000000	0.0
60	0x00000000	0.0
61	0x00000000	0.0
62	0x00000000	0.0
63	0x00000000	0.0
64	0x00000000	0.0
65	0x00000000	0.0
66	0x00000000	0.0
67	0x00000000	0.0
68	0x00000000	0.0
69	0x00000000	0.0
70	0x00000000	0.0
71	0x00000000	0.0
72	0x00000000	0.0
73	0x00000000	0.0
74	0x00000000	0.0
75	0x00000000	0.0
76	0x00000000	0.0
77	0x00000000	0.0
78	0x00000000	0.0
79	0x00000000	0.0
80	0x00000000	0.0
81	0x00000000	0.0
82	0x00000000	0.0
83	0x00000000	0.0
84	0x00000000	0.0
85	0x00000000	0.0
86	0x00000000	0.0
87	0x00000000	0.0
88	0x00000000	0.0
89	0x00000000	0.0
90	0x00000000	0.0
91	0x00000000	0.0
92	0x00000000	0.0
93	0x00000000	0.0
94	0x00000000	0.0
95	0x00000000	0.0
96	0x00000000	0.0
97	0x00000000	0.0
98	0x00000000	0.0
99	0x00000000	0.0
100	0x00000000	0.0
101	0x00000000	0.0
102	0x00000000	0.0
103	0x00000000	0.0
104	0x00000000	0.0
105	0x00000000	0.0
106	0x00000000	0.0
107	0x00000000	0.0
108	0x00000000	0.0
109	0x00000000	0.0
110	0x00000000	0.0
111	0x00000000	0.0
112	0x00000000	0.0
113	0x00000000	0.0
114	0x00000000	0.0
115	0x00000000	0.0
116	0x00000000	0.0
117	0x00000000	0.0
118	0x00000000	0.0
119	0x00000000	0.0
120	0x00000000	0.0
121	0x00000000	0.0
122	0x00000000	0.0
123	0x00000000	0.0
124	0x00000000	0.0
125	0x00000000	0.0
126	0x00000000	0.0
127	0x00000000	0.0

value_heads.value_heads.extrinsic.weight f4 [1, 128]
0	0x3e47c332	0.19508055
1	0x3da620f0	0.08111751
2	0x3d83dd52	0.06438698
3	0xbe512e85	-0.20427902
4	0x3e49aebb	0.1969556
5	0xbd97b0c6	-0.07406764
6	0xbd8a9e2d	-0.06768451
7	0xbe2ecbb0	-0.17069888
8	0xbafa870d	-0.0019113735
9	0xbe1e42d6	-0.15455183
10	0xbde43ce8	-0.111444294
11	0x3dbd14fd	0.09232519
12	0x3e0cddbd	0.13756461
13	0xbd00cacd	-0.031443406
14	0xbe5afec0	-0.21386242
15	0xbe122d2e	-0.14275047
16	0xbd8de409	-0.0692826
17	0xbcc159ea	-0.023602445
18	0xbe59b4af	-0.21260332
19	0x3c1967f1	0.0093631605
20	0x3e24a595	0.1607879
21	0xbe27e1fc	-0.163948
22	0xbe4d3d29	-0.20042862
23	0xbdc2e38d	-0.09516058
24	0xbe1dc5d3	-0.15407495
25	0x3dce9b32	0.10088195
26	0x3e58f5d7	0.2118753
27	0xbe0cc34c	-0.13746375
28	0x3d58875b	0.05286346
29	0x3d80e062	0.062927976
30	0x3d535644	0.05159594
31	0xbdeb00a2	-0.1147473
32	0x3da5fe18	0.08105105
33	0x3e2b0137	0.16699682
34	0xbdd02f4c	-0.10165271
35	0xbde68788	-0.11256319
36	0xbdebed93	-0.11519923
37	0xbd989015	-0.074493565
38	0xbd5a40c9	-0.05328444
39	0xbd3baf1a	-0.045821287
40	0xbd0874df	-0.033314582
41	0xbe532626	-0.20620021
42	0xbd92e6e7	-0.071729474
43	0x3d457aba	0.048212744
44	0x3d8f9617	0.07011049
45	0xbe2da06b	-0.16955726
46	0x3e13412c	0.1438033
47	0x3e1ad17e	0.15118977
48	0x3e551253	0.20807771
49	0x3d6c1f25	0.05764689
50	0xbdc784d4	-0.09742132
51	0xbe57f2ac	-0.21088666
52	0x3da85941	0.08220149
53	0xbcc574cc	-0.024103545
54	0x3d81fbdc	0.063468665
55	0x3e47978b	0.19491403
56	0x3deb069e	0.114758715
57	0xbd80d4a7	-0.0629056
58	0x3d055188	0.032548457
59	0x3e4af09e	0.1981835
60	0x3dae8699	0.08521766
61	0xbd9c46d2	-0.076306954
62	0xbe47c7cd	-0.19509812
63	0x3e105b00	0.14097214
64	0x3e5c552d	0.21516867
65	0xbd0b078b	-0.03394274
66	0xbd443084	-0.04789783
67	0xbe2e0524	-0.16994148
68	0xbda4fac3	-0.080556415
69	0x3e416218	0.18885076
70	0xbdedf848	-0.116196215
71	0x3da15bc2	0.078788295
72	0xbe29c3ec	-0.16578645
73	0xbe3e25c9	-0.18569101
74	0x3d5342ef	0.051577505
75	0x3e12a143	0.14319329
76	0x3da99e88	0.082821906
77	0x3e58e9ff	0.21183012
78	0xbd563f3d	-0.052306402
79	0xbdee282e	-0.116287574
80	0xbe3879b2	-0.18015173
81	0xbce81b2d	-0.02833327
82	0xbe0a35d7	-0.13497101
83	0xbd90da09	-0.07072837
84	0x3e31e172	0.17371157
85	0xbd1c95cc	-0.038228795
86	0xbe1da00c	-0.15393084
87	0xbe37fb26	-0.179669
88	0xbcc89017	-0.02448277
89	0xbe239ddf	-0.15978192
90	0xbe3c12c7	-0.18366538
91	0x3d5f5131	0.05452079
92	0xbde1ad0c	-0.11019334
93	0xbdefe2a0	-0.11713147
94	0x3d8673e2	0.06565072
95	0xbe312d0f	-0.17302345
96	0x3e31810b	0.17334382
97	0xbcbcfe8b	-0.023070594
98	0x3e202379	0.15638532
99	0xbdbb579e	-0.09147571
100	0x3c6eccaa	0.014575163
101	0xbd8f86b6	-0.07008116
102	0x3d0f83a0	0.035037637
103	0x3e317b6a	0.17332235
104	0x3e55c3fb	0.20875542
105	0x3d6ce374	0.057834104
106	0xbdaaeed3	-0.08346333
107	0x3c25f829	0.010129967
108	0x3c650e47	0.013980455
109	0x3e1548bb	0.14578526
110	0x3d693002	0.05693055
111	0xbddfa446	-0.109200045
112	0xbdc7cbfa	-0.09755702
113	0x3e546341	0.20740987
114	0x3d86cf0f	0.06582462
115	0xbd425ac2	-0.047449835
116	0xbd2dab02	-0.042399414
117	0x3e38beb0	0.18041492
118	0xbe0cba26	-0.13742885
119	0xbe5a1d2a	-0.21300188
120	0x3e2aae9a	0.16668168
121	0x3cb75194	0.022377767
122	0x3ce69c05	0.028150568
123	0x3d213c42	0.039364107
124	0xbccefa4d	-0.025265837
125	0xbe0ea381	-0.1392956
126	0x3e4fc2f9	0.2028922
127	0xbe352c7e	-0.17692754
