results/ppo/MoveToGoal/MoveToGoal-18351.onnx (onnx, 72644 bytes, 7 tensors)

network_body._body_endoder.seq_layers.0.weight f4 [128, 6]
0	0x3f038e07	0.5138859
1	0x3d9842af	0.07434594
2	0xbc5a9b3d	-0.013342676
3	0xbd08a7c0	-0.033363104
4	0xbeb62377	-0.35573933
5	0xbefd507d	-0.4947547
6	0x3f179d5f	0.59224504
7	0xbe0c06d0	-0.13674474
8	0xbec5ee02	-0.38658148
9	0x3da9ddd5	0.08294264
10	0xbf0195ce	-0.5061921
11	0xbea08c47	-0.31357023
12	0xbd8217da	-0.063522056
13	0xbe99df63	-0.30053243
14	0xbe22809f	-0.15869378
15	0x3e6d4d97	0.2317413
16	0x3d39abe1	0.045329932
17	0x3d04caf3	0.03242011
18	0x3df5cee3	0.12002351
19	0x3e3ccc3d	0.18437286
20	0xbd8c7677	-0.06858533
21	0x3e324456	0.1740888
22	0x3e48051c	0.19533199
23	0xbd98deca	-0.07464369
24	0xbdfa3880	-0.12217808
25	0xbecb1c21	-0.39669898
26	0xbe13628a	-0.14393058
27	0x3e8d39f0	0.27583265
28	0x3ea82015	0.32836977
29	0xbd80779a	-0.06272812
30	0x3e7aaf17	0.24480854
31	0xbf171efb	-0.5903165
32	0xbee0a0e5	-0.43872753
33	0xbd6da420	-0.05801785
34	0x3e33cd78	0.17558849
35	0xbe925124	-0.2857753
36	0x3c747317	0.014920018
37	0x3f1c8e73	0.6115486
38	0xbe1187e6	-0.14211997
39	0x3f381ab9	0.71915776
40	0x3e3d7044	0.18499857
41	0x3e31da36	0.17368397
42	0xbe6edacb	-0.2332565
43	0xbd732f4f	-0.05937129
44	0x3db3d402	0.08780672
45	0xbde9b6f8	-0.11411852
46	0xbe5adde5	-0.21373709
47	0x3d9c53ce	0.07633172
48	0xbea7f1aa	-0.32801563
49	0x3ead2eae	0.33824676
50	0xbdf6e502	-0.120553985
51	0x3ce13586	0.027491342
52	0xbf392331	-0.7231932
53	0xbc04f59b	-0.0081151975
54	0xbf02b8fe	-0.51063526
55	0x3d990929	0.0747245
56	0x3dce8bfd	0.100852944
57	0xbf25684e	-0.6461228
58	0x3e347223	0.17621665
59	0xbd4f72f9	-0.050646756
60	0xbbf19d54	-0.0073734913
61	0xbfa85300	-1.315033
62	0xbf65a26b	-0.89700955
63	0xbdd034bc	-0.10166308
64	0xbe9c4a8f	-0.30525634
65	0x3e529e01	0.20568086
66	0xbf89e131	-1.0771848
67	0x3e44731f	0.1918454
68	0x3f41e8cf	0.7574586
69	0x3e0dc421	0.13844348
70	0xbdfda5d3	-0.12385144
71	0xbe417d20	-0.18895388
72	0x3dea4d40	0.114405155
73	0xbd526aee	-0.051371507
74	0xbdfe53e2	-0.12418343
75	0xbef29cf0	-0.4738536
76	0xbe697dec	-0.22801942
77	0xbd8feb75	-0.07027332
78	0xbf560ea2	-0.8361608
79	0xbf035e68	-0.5131593
80	0x3f1533c6	0.58282125
81	0x3d4b2fab	0.049606007
82	0xbf42b27d	-0.760536
83	0xbefa36db	-0.48869976
84	0x3e449486	0.19197282
85	0x3da6496a	0.08119471
86	0x3d7346a2	0.059393533
87	0xbdfb9bbe	-0.12285565
88	0xbe9dbeaf	-0.30809543
89	0x3e8bc2a0	0.27296925
90	0x3d86956f	0.06571471
91	0x3d8fba03	0.07017901
92	0xbe1b5e81	-0.15172769
93	0x3e94f757	0.29094955
94	0x3dcfc086	0.10144143
95	0xbd969009	-0.07351691
96	0xbe6f13d2	-0.23347405
97	0xbd8a84be	-0.067636
98	0x3de040ef	0.10949885
99	0xbe449e90	-0.19201112
100	0xbd9eac58	-0.07747716
101	0xbf533eee	-0.825179
102	0xbe346d84	-0.17619902
103	0xbd2293d7	-0.039691772
104	0xbda79c71	-0.08184136
105	0x3e68951e	0.22713134
106	0xbf13f456	-0.577947
107	0xbe09b82b	-0.13449161
108	0xbf172b77	-0.590507
109	0xbd1d495c	-0.03840004
110	0x3ef0ab51	0.47005704
111	0xbebe2815	-0.37139955
112	0x3f660b90	0.8986139
113	0xbe4c96f1	-0.19979455
114	0x3f064b64	0.52458787
115	0x3f4c6cf9	0.7985378
116	0x3e6a1914	0.22861129
117	0x3e01ead6	0.12687239
118	0x3ead2da9	0.33823898
119	0xbcbb99ea	-0.02290054
120	0xbe32fa4e	-0.17478296
121	0x3de6bb5c	0.11266205
122	0x3e40de3b	0.18834774
123	0xbd4851d2	-0.048906155
124	0xbf2322e4	-0.63725114
125	0x3f120d84	0.57051873
126	0x3e8dbcfe	0.27683252
127	0xbe917325	-0.2840816
128	0xbf129740	-0.5726204
129	0xbe0ce6da	-0.13759938
130	0xbf0e1a1f	-0.5550861
131	0x3f157894	0.5838711
132	0xbd042a7e	-0.032267086
133	0x3ed25cd8	0.4108646
134	0x3f412e44	0.7546122
135	0xbe7de5e2	-0.24794725
136	0xbe877aa3	-0.26460752
137	0x3e61f3b0	0.22065616
138	0x3eafdcd6	0.34348172
139	0xbe4a0605	-0.19728859
140	0x3de8212a	0.113344505
141	0xbe8848df	-0.26618096
142	0x3f4f0936	0.8087343
143	0x3b77f43a	0.003783478
144	0xbdacd388	-0.08438784
145	0xbc811b31	-0.015760036
146	0x3d9be9f1	0.0761298
147	0x3e4c59db	0.19956152
148	0x3da4566c	0.08024296
149	0xbe80a71a	-0.25127488
150	0x3eb900e7	0.361335
151	0x3e69601d	0.2279057
152	0xbea1224e	-0.31471485
153	0x3edf7c8a	0.43649703
154	0x3f122045	0.5708049
155	0xbe0cc8dc	-0.13748497
156	0xbe1e28ad	-0.15445204
157	0x3f131747	0.57457393
158	0x3f872a33	1.0559753
159	0x3c0fd6a1	0.008779199
160	0x3d3ae02f	0.045623954
161	0xbd306b8b	-0.04307131
162	0x3e6556f4	0.22396451
163	0xbe253f2b	-0.16137378
164	0xbee31813	-0.44354305
165	0x3e9bd3e4	0.30435097
166	0xbe37d56d	-0.17952509
167	0x3ed38166	0.4130966
168	0xbf12a4ab	-0.57282513
169	0x3e73b247	0.23798476
170	0xbf10f899	-0.5662933
171	0x3f5b73ae	0.8572339
172	0x3eb9ae9f	0.36266038
173	0x3d5d9f1a	0.05410681
174	0xbe3ccb1d	-0.18436857
175	0x3efbd585	0.4918634
176	0x3ed38039	0.41308764
177	0x3c8c07d4	0.017093576
178	0xbece4956	-0.40290326
179	0xbeb95a86	-0.36201876
180	0xbe159007	-0.14605723
181	0xbf603dae	-0.87594116
182	0xbf30d42d	-0.69073755
183	0x3e25d060	0.1619277
184	0x3d14227a	0.036165692
185	0x3d904498	0.07044333
186	0x3f4a6399	0.79058224
187	0x3f1aa1fc	0.6040342
188	0x3eb7c898	0.35895228
189	0x3f23a89d	0.6392916
190	0xbe0bf57e	-0.13667867
191	0xbd7ac533	-0.06122322
192	0x3daaca41	0.08339358
193	0xbec21ca6	-0.37912482
194	0x3e8eff42	0.2792912
195	0x3eadd5be	0.33952135
196	0x3f10ce35	0.56564647
197	0x3ee431b9	0.44569185
198	0x3c4fa05b	0.012672509
199	0xbdbc1325	-0.09183339
200	0xbf0ec147	-0.5576367
201	0x3f27b571	0.6551123
202	0x3e8900c4	0.26758397
203	0xbf07a6b8	-0.5298877
204	0xbdd2d727	-0.10294943
205	0xbd7af45f	-0.061268207
206	0xbe97324f	-0.2953057
207	0xbec3336a	-0.38125163
208	0x3e6272bf	0.22114085
209	0x3da9acb4	0.08284894
210	0xbcf1b5ad	-0.029505575
211	0xbd0af0b2	-0.03392095
212	0x3d573346	0.052539133
213	0x3ee7a1ae	0.4524054
214	0xbf4154d0	-0.7552004
215	0xbf422217	-0.75833267
216	0x3f03aaa3	0.51432246
217	0xbd396df0	-0.04527086
218	0x3f25ff7d	0.6484297
219	0x3f367c56	0.7128347
220	0xbf26f443	-0.65216464
221	0x3e9c6431	0.3054519
222	0xbe10332b	-0.14082019
223	0xbeb7de89	-0.35911968
224	0xbe5d0b0f	-0.2158625
225	0x3e90e97e	0.2830314
226	0x3ebfc3b1	0.37453988
227	0xbde4e81f	-0.11177086
228	0xbe104491	-0.14088656
229	0x3f4dddc6	0.80416524
230	0x3f028eb5	0.50999004
231	0xbd43b7d1	-0.047782723
232	0x3b12b3bc	0.0022384962
233	0x3e6c80be	0.23095986
234	0x3d3c16cc	0.04592018
235	0xbf2eb194	-0.6823971
236	0xbc82627b	-0.0159161
237	0x3f06e6c6	0.5269588
238	0xbf4e6e96	-0.8063749
239	0x3edd4aed	0.43221226
240	0x3db5d6db	0.08878871
241	0x3e821378	0.25405478
242	0xbe85e9c5	-0.26154914
243	0xbed73cbc	-0.42038524
244	0x3d8a4287	0.0675097
245	0x3e9a9c65	0.30197445
246	0x3eba6b46	0.36409968
247	0x3e614443	0.21998696
248	0xbd9cab4a	-0.07649858
249	0x3ddf4b8b	0.109030806
250	0xbdd5c17a	-0.10437293
251	0xbe3b387e	-0.18283269
252	0x3dbfadd6	0.093593284
253	0x3ec5e824	0.38653672
254	0x3ed804f8	0.4219129
255	0x3ebad7ef	0.3649287

network_body._body_endoder.seq_layers.0.bias f4 [128]
0	0x3bab02ff	0.005218863
1	0xb9ae0816	-0.0003319389
2	0xbb52aaba	-0.0032145218
3	0xbb430fb1	-0.0029763991
4	0x3ab8f716	0.0014111723
5	0xba218645	-0.00061616703
6	0x3ac80003	0.0015258793
7	0x3b3b3572	0.0028565791
8	0x3b36c662	0.0027889241
9	0xbab0082b	-0.0013430169
10	0x3a8f77d8	0.001094575
11	0xbb2a5272	-0.0025989083
12	0xbb4031f6	-0.0029326654
13	0xbb44380c	-0.0029940633
14	0x3b6a3c62	0.0035741557
15	0xbb40c6e7	-0.002941543
16	0xbae1cbfd	-0.0017226931
17	0x3b1b8f44	0.0023736516
18	0xbb1dc361	-0.0024072754
19	0x3a00ea1d	0.0004917698
20	0x3b12ae5d	0.002238176
21	0xbbba6d33	-0.005689287
22	0x3b1af2c2	0.002364323
23	0xbb4c70a3	-0.0031195066
24	0xbb61f0a1	-0.0034475701
25	0xbb8f818a	-0.004379456
26	0x3acedadd	0.0015781779
27	0x3b8ecefd	0.004358171
28	0xbb8553ca	-0.0040688263
29	0xbb0d3193	-0.002154444
30	0xbab89db5	-0.0014085086
31	0xbaad04b4	-0.0013200254
32	0x3b331401	0.0027325156
33	0x3b08c35a	0.0020868392
34	0xbb202136	-0.0024433858
35	0x3b3a26ae	0.0028404403
36	0x3b5d08a4	0.0033727074
37	0xbb75072e	-0.0037388313
38	0xbb34cf21	-0.0027589279
39	0x3b4514d9	0.003007224
40	0xbb6d3049	-0.003619211
41	0x3b87488d	0.004128522
42	0xbac1828b	-0.0014763636
43	0x3b0c20f9	0.0021381958
44	0x3b3d40a7	0.0028877647
45	0x3b833c97	0.0040050256
46	0x3b180f8b	0.0023202624
47	0xbb500c59	-0.003174564
48	0x3a446e7a	0.0007493269
49	0x3896c626	7.1894654e-05
50	0x3b8e0c15	0.0043349364
51	0x3b3382d6	0.0027391217
52	0x3aa22c84	0.0012372886
53	0x3bd6f525	0.006559985
54	0x3b4a82b9	0.003090067
55	0xbbed37db	-0.0072393245
56	0x3ab1fb47	0.0013578915
57	0xbb8848b5	-0.004159058
58	0x3a7cf2b0	0.00096492004
59	0x3ba16db1	0.0049264063
60	0x3ad3cbab	0.001615872
61	0x3b228778	0.0024799984
62	0xba7a53b9	-0.0009549219
63	0x3b5f2666	0.0034049987
64	0x3b6021c0	0.0034199804
65	0xbb25b245	-0.002528326
66	0x3b1339a7	0.0022464783
67	0x3b2c0553	0.002624829
68	0xba2ffdb8	-0.0006713527
69	0x3b5114e4	0.003190332
70	0x3bb57436	0.005537535
71	0xbb3e40ac	-0.0029030247
72	0xbbcd2571	-0.006260567
73	0x3b8e78f6	0.0043479158
74	0xbbef967f	-0.0073116417
75	0x3b1985be	0.0023425664
76	0xbbdbe2ad	-0.0067103715
77	0xbb9b91f6	-0.0047476245
78	0xbb955b3a	-0.004557994
79	0x3aaec946	0.0013335131
80	0x3bace432	0.0052762264
81	0x3bbf6e3b	0.005841998
82	0xbb5b2d64	-0.0033443803
83	0x39d8e71e	0.00041370926
84	0xbb13c3f7	-0.0022547224
85	0xba8aeffe	-0.0010600088
86	0x3aaef38c	0.0013347729
87	0x3b13a374	0.0022527846
88	0xbb256c8f	-0.0025241708
89	0xbb19796a	-0.0023418316
90	0x3ab8e30d	0.0014105752
91	0xbb24ffb3	-0.0025176823
92	0x393d8ac2	0.00018076136
93	0xbb0ae032	-0.002119076
94	0xba9323ab	-0.001122584
95	0xbb6341a7	-0.0034676583
96	0xbb5dd341	-0.003384784
97	0xbb5b9e97	-0.0033511275
98	0x3a9807a2	0.0011598954
99	0x3a63d99e	0.000869179
100	0xbb2efd56	-0.0026701293
101	0x3b3d2e69	0.0028866774
102	0x3b688199	0.0035477637
103	0xbb4d1a5a	-0.0031296224
104	0xbaf15123	-0.0018411021
105	0xbba01f0e	-0.0048865145
106	0x3b2c6002	0.0026302342
107	0xbba119a2	-0.0049163857
108	0x39821073	0.00024807788
109	0xb99fa26d	-0.0003044786
110	0xb7f1410f	-2.8759734e-05
111	0xbb4f6f00	-0.0031651855
112	0xbba376c2	-0.0049885223
113	0x3bbf6545	0.0058409297
114	0x3b9c1640	0.0047633946
115	0x3b048c4c	0.0020225225
116	0xba39468a	-0.0007067701
117	0xbb56b014	-0.003275876
118	0xb7c0be64	-2.2976841e-05
119	0xbaa70c73	-0.0012744799
120	0xbb03937e	-0.0020076926
121	0xbbcdeb43	-0.006284149
122	0xbacc00d6	-0.0015564214
123	0x3b5083d4	0.0031816857
124	0x3b559a42	0.0032593166
125	0xbb94fada	-0.0045465054
126	0x3a7d8fd7	0.0009672618
127	0x3b9e023b	0.0048220432

network_body._body_endoder.seq_layers.2.weight f4 [128, 128]
0	0xbe25d101	-0.1619301
1	0x3d680806	0.056648277
2	0x3de91584	0.11381057
3	0x3dc93cea	0.098260716
4	0x3d2a1e91	0.041533057
5	0x3e0a6189	0.13513769
6	0x3da5c645	0.080944575
7	0xbdf2b4ad	-0.118508674
8	0xbb0d8658	-0.0021594968
9	0xbcd05538	-0.02543126
10	0xbde4b5a7	-0.1116746
11	0xbc8d9782	-0.017284159
12	0xbcd69d44	-0.026198037
13	0x3d1c0dd8	0.03809914
14	0x3dc664cf	0.096871965
15	0x3d513753	0.051078152
16	0x3b0595cf	0.0020383482
17	0xbdc0bf86	-0.0941153
18	0x3e299cc5	0.16563709
19	0x3e0285c9	0.12746347
20	0xbda08003	-0.07836916
21	0x3e110f18	0.14165914
22	0xbd5d0404	-0.053958908
23	0xbe7f1ff9	-0.2491454
24	0x3d90f675	0.07078258
25	0x3e31416a	0.1731011
26	0x3ce48595	0.027895728
27	0x3c0ac188	0.008468993
28	0xbdf7f9ee	-0.12108217
29	0xbe25eda8	-0.1620394
30	0xbaca6ced	-0.0015443839
31	0x3de12528	0.10993415
32	0x3d66fbe4	0.056392565
33	0xbccec847	-0.025241984
34	0x3db58d49	0.08864839
35	0x3d987133	0.07443466
36	0x3d1758b9	0.036949847
37	0xbaac288b	-0.0013134641
38	0xbda23921	-0.07921053
39	0xbc980a28	-0.01855953
40	0xbdf51ffa	-0.1196899
41	0xbe375b5a	-0.17905942
42	0xbd19fd89	-0.037595306
43	0x3c8160f0	0.015793294
44	0xbe7bc246	-0.24585828
45	0x3d8330c4	0.06405786
46	0x3d0bdbb8	0.034145087
47	0x3aae3071	0.0013289583
48	0xbca58869	-0.020206647
49	0x3c97e2fa	0.018540848
50	0xbd1209d6	-0.03565391
51	0xbdd83307	-0.10556608
52	0x3da5ca6b	0.08095249
53	0x3d2214d6	0.039570652
54	0xbe0fe70c	-0.14052981
55	0x3ddf6efc	0.109098405
56	0xbd9dfab5	-0.07713834
57	0x3d81c028	0.06335479
58	0x3dba0db4	0.09084645
59	0x3d188b86	0.037242435
60	0xbd1ec738	-0.03876421
61	0x3d80860b	0.06275567
62	0xbdb2bb83	-0.08727171
63	0x3d8971ad	0.06711135
64	0x3dd27ced	0.10277734
65	0x3d9f3d56	0.07775371
66	0xbc851170	-0.016243666
67	0xbdf1f558	-0.11814374
68	0x3c804a0c	0.015660308
69	0xbe1b3b97	-0.1515945
70	0xbcc84d9c	-0.02445107
71	0x3c9d02cd	0.019166375
72	0x3d0faa87	0.035074737
73	0xbe01c692	-0.12673405
74	0x3cf76eb1	0.030204149
75	0x3cc5ab19	0.024129437
76	0xbe116d34	-0.14201814
77	0x3ded1931	0.115770705
78	0x3a7eff28	0.00097273523
79	0x3cecf264	0.028924175
80	0x3d8ba427	0.06818419
81	0xbd1f8992	-0.038949557
82	0x3ddc5d95	0.10760037
83	0x3da76ccc	0.08175048
84	0xbdaccf1a	-0.08437939
85	0x3dba95a0	0.0911057
86	0x3daf2f6f	0.08553969
87	0x3dee6198	0.11639708
88	0x3db17c8a	0.08666332
89	0xbc97c901	-0.018528463
90	0x3d2b06a9	0.0417544
91	0x3d85bda3	0.06530311
92	0xbc67a8b5	-0.014139344
93	0xbc46af37	-0.012126735
94	0x3dc20d1a	0.09475155
95	0xbd9c2def	-0.07625949
96	0xbd4d4911	-0.05011851
97	0xbc810a73	-0.015752053
98	0xbe787141	-0.24261953
99	0xbd61464c	-0.05499868
100	0xbc909a4c	-0.0176517
101	0xbd1df8a1	-0.03856719
102	0xbe108f15	-0.14117081
103	0xbddecd81	-0.108790405
104	0x3d27105b	0.040787082
105	0xbd23ff70	-0.040038526
106	0x3d0398ff	0.03212833
107	0xbdb4a5a9	-0.0882066
108	0xbd4d98b1	-0.050194446
109	0xbda75a9c	-0.08171579
110	0x3e0d474e	0.13796732
111	0xbd6989f7	-0.05701634
112	0xbd83a689	-0.064282484
113	0xbd9f202a	-0.07769807
114	0xbe00c991	-0.12576891
115	0xbda7895b	-0.08180495
116	0xbd941b74	-0.07231799
117	0xbcc482db	-0.023988178
118	0x3ac05533	0.0014673829
119	0xbc9dda5a	-0.019269157
120	0xbe2252bd	-0.15851875
121	0xbd80674c	-0.06269702
122	0x3bb9fce4	0.005675899
123	0x3d4bce5e	0.049757354
124	0xbce8c827	-0.028415753
125	0x3cc64e16	0.024207156
126	0x3b5d1797	0.0033735984
127	0x3d0562cf	0.032564934
128	0xbd2d2383	-0.042270195
129	0xbe0065c0	-0.12538815
130	0xbca6b543	-0.020350104
131	0x3da306a7	0.07960253
132	0xbd1b9082	-0.03797961
133	0x3d80eed9	0.062955566
134	0xbd4b2107	-0.049592044
135	0x3ccaf568	0.024775222
136	0xbc7de4ed	-0.015496475
137	0xbe599517	-0.2124828
138	0xbd333f0c	-0.043761298
139	0x3c303da7	0.010756887
140	0xbd0e11c5	-0.034684915
141	0xbd2a0610	-0.041509688
142	0x3d07651f	0.03305542
143	0xbdc2ab6b	-0.09505352
144	0xbd815270	-0.06314552
145	0xbd988fac	-0.07449278
146	0x3d5121a0	0.051057458
147	0x3d5527dd	0.05203997
148	0xbdadfa4f	-0.08495008
149	0xbd0e5cee	-0.034756593
150	0x3dd93996	0.10606687
151	0x3c79f7a0	0.015256792
152	0x3d0645fb	0.032781582
153	0x3db29824	0.08720425
154	0x3d45033c	0.048098788
155	0x3e00b73e	0.12569901
156	0xbe0fbde9	-0.14037289
157	0xbd50dbe1	-0.050990943
158	0x3e20847a	0.15675536
159	0xbe21df88	-0.15807927
160	0xbda3adb3	-0.07992115
161	0x3d998edb	0.07497951
162	0xbd3548a6	-0.044258736
163	0xbd3c94a8	-0.046040207
164	0xb9219a92	-0.00015411738
165	0xbd38192f	-0.044945892
166	0xbd1f2c6e	-0.03886073
167	0x3c9bde66	0.019026946
168	0x3da1ac51	0.07894195
169	0x3a3792d6	0.0007002776
170	0x3c93a727	0.01802404
171	0x3e05196e	0.12997982
172	0x3d56f75b	0.05248199
173	0xbd91cad1	-0.07118762
174	0xbdae5c56	-0.085137054
175	0x3e2da6c7	0.16958152
176	0xbc236182	-0.009971978
177	0xbceb0bb4	-0.028692104
178	0xbd2c0889	-0.042000327
179	0x3bdc677c	0.0067262035
180	0xbd5393e6	-0.05165472
181	0x3d47e238	0.048799723
182	0x3c0bc8d9	0.0085317725
183	0xbe07620a	-0.13220993
184	0x3ce69903	0.028149134
185	0xbd688745	-0.056769628
186	0xbccd3f80	-0.025054693
187	0xbdd0ef8c	-0.1020194
188	0xbe3c69b0	-0.18399692
189	0x3b6b17c3	0.0035872317
190	0xbd1ce3b8	-0.038303107
191	0xbd3288d2	-0.043587513
192	0x3c2c76f6	0.010526409
193	0x3ca23fa8	0.019805744
194	0xbdc0c1ae	-0.094119415
195	0x3c80eaf5	0.015737036
196	0xbe0221a3	-0.12708144
197	0xbd7b721d	-0.061388124
198	0x3dcaf7b7	0.09910529
199	0xbd2d321c	-0.042284116
200	0x3d29f3ce	0.041492276
201	0xbd502aca	-0.050822057
202	0xbd37c419	-0.044864748
203	0x3d96d762	0.073653
204	0x3d5f3c67	0.054500964
205	0x3d94131c	0.07230207
206	0xbe0165f8	-0.12636554
207	0xbd286810	-0.041114867
208	0xbc755776	-0.014974466
209	0xbe49462c	-0.19655675
210	0xbdc26dcb	-0.094935976
211	0x3e4f7122	0.20258
212	0x3d8941aa	0.067019776
213	0x3d75ed0c	0.06004052
214	0xbc903f5e	-0.01760834
215	0xbd924c12	-0.071434155
216	0x3e4bbd1a	0.19896355
217	0xbe13e6f3	-0.14443569
218	0xbcd7c6c3	-0.026339894
219	0xbdb8e33e	-0.09027718
220	0x3b967130	0.0045911297
221	0x3d1add50	0.037808716
222	0x3e0bc6b3	0.13650016
223	0x3c32febc	0.010924991
224	0xbda1ae75	-0.07894603
225	0x3deaf879	0.11473174
226	0x3d5150d1	0.051102463
227	0x3bfdcbbd	0.0077452348
228	0x3e662a37	0.22477041
229	0x3de12d12	0.109949246
230	0x3da808cb	0.08204802
231	0x3e1452aa	0.14484659
232	0xbc96e0fd	-0.01841783
233	0xbddb06e4	-0.10694674
234	0xbd669684	-0.056295887
235	0x3c044e38	0.008075289
236	0x3e00a923	0.1256452
237	0x3ca23664	0.019801326
238	0xbe06039f	-0.13087319
239	0xbdce40de	-0.10070966
240	0xbc885123	-0.016640252
241	0x3e115ef0	0.14196372
242	0xbd05fef9	-0.032713864
243	0xbd8d55b1	-0.0690111
244	0xbe45b54c	-0.1930744
245	0xbdbf08d9	-0.093278594
246	0xbd96c02b	-0.07360872
247	0xbbd0a463	-0.0063672527
248	0xbe519ae6	-0.20469245
249	0xbdbcab8e	-0.09212409
250	0xbc6d4767	-0.014482356
251	0xbdc1b643	-0.09458592
252	0xbd6c1536	-0.057637416
253	0xbd820898	-0.063492954
254	0xbe225808	-0.15853894
255	0xbcc1e7cf	-0.023670105

network_body._body_endoder.seq_layers.2.bias f4 [128]
0	0xbb335483	-0.0027363605
1	0xb8b6153c	-8.6823915e-05
2	0xbbb52a38	-0.0055287145
3	0xbb332ec9	-0.0027341119
4	0x3b029812	0.0019927067
5	0x3b7455a4	0.003728249
6	0x3af72afd	0.0018857416
7	0x3b183d1f	0.002322979
8	0x3b0fc7ff	0.0021939275
9	0xbb317a1c	-0.002708084
10	0x3b25c1d3	0.002529253
11	0xbb230a5d	-0.0024878003
12	0xbb8a6a9b	-0.004224134
13	0x3b52f560	0.0032189712
14	0x3baa0243	0.005188258
15	0x3b02a8d4	0.0019937055
16	0xbbb36b0e	-0.0054754084
17	0x3b0d52cc	0.0021564243
18	0x3b4d152f	0.0031293144
19	0x3b19ad0f	0.0023449098
20	0x3b0b4f44	0.0021256963
21	0xbb5e0d34	-0.0033882381
22	0xbb705d6a	-0.0036676773
23	0x3b45884f	0.003014106
24	0x3b34fa6d	0.0027615086
25	0xbaa3ca43	-0.0012496192
26	0x3b28cd78	0.0025757235
27	0xba0373f2	-0.00050145306
28	0xbb845588	-0.0040385164
29	0xbb0dd5a4	-0.0021642232
30	0xbb5ddd4d	-0.003385383
31	0x3b54e78d	0.0032486648
32	0x3b215dd0	0.0024622567
33	0xbb346f5f	-0.0027532203
34	0xbb2810e3	-0.002564483
35	0xbbc9ad9e	-0.00615473
36	0x3b5f609e	0.0034084688
37	0x3b343a04	0.00275004
38	0x3af75570	0.0018870067
39	0xbb406d32	-0.002936196
40	0xbb2f3d42	-0.0026739393
41	0xbb4f6edb	-0.0031651768
42	0xbb5c8dc2	-0.003365383
43	0x3b3480ee	0.0027542668
44	0xbb83eee1	-0.0040262793
45	0xba83c070	-0.0010051858
46	0x3b0ea97d	0.0021768503
47	0xbb3eb4b5	-0.002909941
48	0xbb4629da	-0.0030237348
49	0xb9d84c95	-0.00041255789
50	0xbb7f05b0	-0.0038913302
51	0xba69b6c6	-0.000891548
52	0x3a7e6ab9	0.0009705234
53	0xbb8dbbab	-0.0043253503
54	0xbb426586	-0.0029662563
55	0xbb123767	-0.0022310854
56	0xbb615244	-0.003438131
57	0xbb34ea89	-0.0027605614
58	0x3b308c5f	0.0026939136
59	0xb9f460d1	-0.0004661144
60	0x3b0dd9c9	0.0021644703
61	0xbb88673f	-0.0041626985
62	0xbb81419e	-0.0039445898
63	0xbb2973e2	-0.0025856425
64	0x3a1e2f9b	0.00060343154
65	0xbb24dad6	-0.002515485
66	0x3b302562	0.002687775
67	0xbb7c1203	-0.0038462884
68	0x3b2af660	0.0026086792
69	0xbb9715c6	-0.00461075
70	0x3aed6ac1	0.001811348
71	0xbb4efe71	-0.0031584764
72	0xbb3d687d	-0.0028901391
73	0xbb2f8b47	-0.0026785897
74	0x3b807eb8	0.003921356
75	0x3ad5b0b0	0.0016303267
76	0xbb3fd5ba	-0.0029271678
77	0x3b074fed	0.0020647005
78	0xbb83d8b9	-0.004023638
79	0x3b4da413	0.0031378313
80	0x3b458d94	0.0030144202
81	0x3b1baf06	0.0023755445
82	0xbb4baf28	-0.0031079743
83	0x3b53679e	0.0032257806
84	0xbbf8f12f	-0.0075971107
85	0xbbc26255	-0.0059321322
86	0xbb35679e	-0.002768017
87	0x3b2a91b9	0.00260268
88	0xbb67814c	-0.003532487
89	0x3b82c6d3	0.003990987
90	0xbb02f757	-0.0019983852
91	0x3b99e78c	0.004696792
92	0xbb9a7818	-0.0047140233
93	0x3b6e2c64	0.0036342377
94	0x3b3d575b	0.002889118
95	0xbb3d67ac	-0.0028900905
96	0xbb7b8f42	-0.003838495
97	0x3b026ff6	0.001990316
98	0x3af6d5da	0.0018832043
99	0xbb35a733	-0.0027718067
100	0xbb2cde06	-0.0026377453
101	0xbaaa1ef3	-0.0012979194
102	0xbb09db55	-0.0021035273
103	0x3b1d3c42	0.0023992215
104	0x3ad85cd9	0.0016507163
105	0xbb2ef261	-0.0026694762
106	0xbb505132	-0.0031786677
107	0x3929ef80	0.00016206317
108	0x3b3a2fbc	0.00284098
109	0x3b14e436	0.0022719032
110	0xbb59b252	-0.003321786
111	0x3ab6c3ca	0.0013943848
112	0x38dde683	0.00010581037
113	0x3b630de9	0.0034645742
114	0x3b852da1	0.0040642773
115	0x3b1c4dd7	0.0023850107
116	0x3b123f08	0.0022315402
117	0x3b3db07e	0.002894431
118	0xbb08e45a	-0.0020888061
119	0x3b44a61c	0.0030006235
120	0x3b62b69b	0.0034593705
121	0x3b9e8be3	0.004838453
122	0x3b8cf814	0.004302034
123	0x3b269535	0.0025418524
124	0x3b778c48	0.0037772823
125	0xbb5c7fb9	-0.0033645465
126	0xbb56b147	-0.0032759474
127	0xbb42a00b	-0.0029697444

action_model._continuous_distribution.log_sigma f4 [1, 2]
0	0xbbb26b8c	-0.0054449495
1	0xba7943b9	-0.00095086877

action_model._continuous_distribution.mu.weight f4 [2, 128]
0	0xbc50d3a8	-0.012745775
1	0x3c6c356c	0.014417034
2	0xbcc62207	-0.024186147
3	0xbc885b06	-0.016644966
4	0xbb375917	-0.0027976686
5	0x3ba8f0b4	0.005155647
6	0xbc351724	-0.01105288
7	0x3bc787ff	0.00608921
8	0x3c2d1c54	0.010565836
9	0xbcfee49c	-0.031114869
10	0x3b814ef0	0.0039461777
11	0xbbf0ca6a	-0.0073483484
12	0xbd0caaf0	-0.034342706
13	0x3c026659	0.007958972
14	0xbb041794	-0.0020155655
15	0x3c028020	0.007965118
16	0xbc211e25	-0.009833847
17	0x3bdd1648	0.006747041
18	0x3c1b44ea	0.00947688
19	0x3d061b52	0.0327409
20	0x3c822a26	0.015889239
21	0xbb53d96d	-0.003232564
22	0x3a9b05b8	0.0011827266
23	0x3cc0d07f	0.023536919
24	0x3b45d9ba	0.003018959
25	0x3aa044eb	0.001222757
26	0x3c15622f	0.009117647
27	0x3c5843f3	0.013199794
28	0xbc727da7	-0.014800466
29	0xbb95eb45	-0.0045751655
30	0xbcbe6be0	-0.023244798
31	0x3c037cfa	0.008025402
32	0x3cd1039b	0.025514415
33	0xbc2a684d	-0.010400844
34	0x3af73718	0.0018861024
35	0xbb5be550	-0.003355343
36	0x3c2c1ed3	0.010505396
37	0x3c4875db	0.01223513
38	0x3b027f9f	0.0019912494
39	0xbc639a71	-0.013891802
40	0xbb9f1a0a	-0.004855399
41	0xbca28798	-0.019840047
42	0x3ac2780a	0.00148368
43	0x3c417a04	0.011808876
44	0x3c022e59	0.00794562
45	0x3b768e6f	0.0037621518
46	0x3c8772f3	0.016534304
47	0xbc80f0c8	-0.015739813
48	0xba03ca06	-0.0005027357
49	0xbce53831	-0.027980896
50	0xbaf86564	-0.0018951115
51	0x3b6c1dba	0.003602846
52	0x3baf2165	0.005344557
53	0xbb3f2614	-0.0029166983
54	0xbc54279b	-0.012948896
55	0xbd079b06	-0.033106826
56	0xbbb26535	-0.0054441937
57	0xbbf79ff2	-0.0075569088
58	0x3cacec67	0.02110882
59	0x3b1f7b96	0.0024335138
60	0x3c9f3ba3	0.019437617
61	0xbb7790a6	-0.0037775426
62	0xbc2cca52	-0.010546284
63	0xbc538473	-0.012909996
64	0xbc7e4cc6	-0.015521234
65	0x3bb5f2bc	0.005552618
66	0x3c758530	0.014985368
67	0xbadb08ea	-0.0016711031
68	0x3c9ce590	0.019152433
69	0x3c31f8ee	0.010862572
70	0x3bd0bfde	0.0063705286
71	0x3a1a77c1	0.00058924785
72	0xbc06b74b	-0.008222411
73	0xbcb187d0	-0.021671206
74	0x3b009539	0.0019620194
75	0x3b926a11	0.0044682105
76	0xbb17bffa	-0.0023155198
77	0x3c00acc8	0.007853694
78	0xbaa02a93	-0.0012219719
79	0x3cc2ec1d	0.023794228
80	0x3cc703b7	0.024293764
81	0x3c48e92d	0.012262625
82	0xbba96bdf	-0.00517033
83	0x3c83eee5	0.016105125
84	0xbc6f9670	-0.014623269
85	0xbc54f5a4	-0.012998018
86	0xbd12b635	-0.035818297
87	0x3c1b14d5	0.009465416
88	0x3c43afee	0.0119438
89	0x3bb82c3b	0.005620507
90	0xbcc77b2a	-0.024350721
91	0x3aa12b41	0.0012296216
92	0xbbc089de	-0.00587581
93	0x3b2b2ffd	0.0026121133
94	0x3c2cd829	0.0105495835
95	0xbb9669bf	-0.0045902426
96	0xbb21603d	-0.0024624013
97	0x39ad6b89	0.0003307725
98	0xbbf8adfc	-0.0075891
99	0xbcaaa3eb	-0.020830115
100	0xbc206c3f	-0.009791433
101	0xbc1c519a	-0.00954094
102	0xbc9ae10b	-0.018906137
103	0x3ca5f074	0.020256259
104	0x3b829cc1	0.0039859717
105	0xbc45ded4	-0.012077052
106	0xbd04149a	-0.03224621
107	0x3c3a4410	0.011368766
108	0x3c23c666	0.009996032
109	0xbc223a23	-0.009901556
110	0x3b8b57b4	0.0042523984
111	0x3c11ce17	0.008899233
112	0xbca9707c	-0.02068352
113	0x3cc1cad5	0.023656288
114	0xbbce3075	-0.0062923976
115	0x3b98811e	0.004654064
116	0x3d1a1874	0.037620977
117	0x3d56d99b	0.05245362
118	0xbbd5470a	-0.0065087127
119	0x3cd64c0d	0.02615931
120	0x3b8cf8ea	0.004302134
121	0x3c4559bf	0.012045323
122	0xbc0245c3	-0.007951203
123	0x3c8757ec	0.016521417
124	0xbb973e8a	-0.0046156095
125	0xbcc21332	-0.023690794
126	0xbbfaabb8	-0.007649865
127	0xbd1bc9cd	-0.03803425
128	0x3c243037	0.010021261
129	0x3cbad28b	0.022805473
130	0x3d236bf8	0.03989789
131	0xbc15fccb	-0.009154509
132	0xbc86f3d7	-0.016473694
133	0xbbff62d8	-0.0077937655
134	0xbc97adf5	-0.018515566
135	0xbc111ead	-0.008857411
136	0xbabe4da3	-0.0014518987
137	0xbc8e3dd2	-0.017363463
138	0xbc4dbc3f	-0.012557088
139	0xbc13c9b6	-0.00902026
140	0x3cdd6bc0	0.027028918
141	0xbc4efe98	-0.012633942
142	0xbbc6410f	-0.006050236
143	0xba8b86cd	-0.0010645032
144	0xbb90330d	-0.004400617
145	0x3c934299	0.017976092
146	0xbb970fd3	-0.0046100407
147	0x3c241502	0.010014774
148	0xbc53fe38	-0.012939028
149	0x3c81382e	0.015773859
150	0x3c837d1f	0.016050873
151	0xbcc877e0	-0.024471223
152	0xbc971974	-0.018444754
153	0x3c595592	0.01326503
154	0xbbdf6b8f	-0.006818242
155	0x3ccca7c8	0.024982348
156	0x3cd45fe6	0.025924634
157	0x3b80005b	0.0039062924
158	0xbbfe3d11	-0.0077587445
159	0xbc084434	-0.008317042
160	0xbce24e5d	-0.027625257
161	0xbc1efa64	-0.009703252
162	0x3ca9f1ea	0.020745236
163	0x3c4720fc	0.01215386
164	0xbbe0c4b7	-0.0068593877
165	0xbc9cc843	-0.019138461
166	0xbb067911	-0.0020518939
167	0xbb408d0c	-0.0029380945
168	0x3cd1bc1b	0.025602391
169	0x3bffee02	0.007810355
170	0x3cd5825c	0.026063137
171	0x3c3fb524	0.011700902
172	0x3bb154bd	0.005411713
173	0x3c83f840	0.016109586
174	0xbc6ab75b	-0.014325942
175	0x3cec3e45	0.028838286
176	0x3b09e0cb	0.0021038528
177	0xbd3068b0	-0.043068588
178	0x39aa264c	0.0003245346
179	0xbb72b233	-0.0037032485
180	0x3ac0d30b	0.0014711333
181	0x3d164bd9	0.036693428
182	0x3cd27423	0.025690144
183	0x3be3436e	0.0069355285
184	0xbb9122e7	-0.0044292095
185	0x3d11c049	0.035583768
186	0x3c38c33d	0.011277017
187	0x3bb0d3a5	0.0053963237
188	0x3c078982	0.0082725305
189	0x3ba2d794	0.0049695466
190	0x3d6b7475	0.05748411
191	0x3bf56b40	0.007489592
192	0xbcd59318	-0.026071116
193	0x3cfc2297	0.030778212
194	0xbcad4984	-0.021153219
195	0x3b796068	0.0038051847
196	0xb97c0b43	-0.00024036788
197	0x3d06a9f2	0.032876916
198	0xba982802	-0.0011608603
199	0x3c674dc3	0.014117661
200	0xbc52ef62	-0.012874456
201	0xbcc6ff0c	-0.024291538
202	0xbc0c5ca5	-0.00856701
203	0xbad76ca5	-0.0016435577
204	0x3ae47e09	0.0017432581
205	0x3c0655fd	0.008199212
206	0x396b32f1	0.00022430324
207	0xbc9dfd2d	-0.019285763
208	0x3b8e0b2c	0.004334828
209	0xbc868ebc	-0.016425483
210	0x3bd8e7fd	0.006619452
211	0xbb93f01b	-0.004514707
212	0x3bb78b0f	0.005601294
213	0x3c4574b0	0.012051746
214	0xbc663835	-0.014051487
215	0xbbf7944a	-0.007555519
216	0x3d284fa3	0.041091572
217	0x3a9f58a8	0.0012157159
218	0xbbb3a374	-0.0054821316
219	0xbc3a47c1	-0.0113696465
220	0x3d0f3a7d	0.03496789
221	0x3c0d0f1d	0.00860956
222	0x3c2c27f3	0.0105075715
223	0xba6412e3	-0.0008700324
224	0x3bf489d6	0.0074627204
225	0xbc459e60	-0.012061685
226	0xbc23d0c5	-0.009998505
227	0xbc98c470	-0.018648356
228	0xbc19d561	-0.009389252
229	0xbbc8339d	-0.0061096684
230	0x3c154a66	0.009111976
231	0x3ce6e8ac	0.028187118
232	0xbb180e70	-0.0023201965
233	0x3c396604	0.011315826
234	0x3b952c35	0.004552389
235	0x3cba6c7b	0.022756806
236	0xbc1424fc	-0.009042021
237	0xbc7ef1d3	-0.015560585
238	0x3ce7584f	0.028240351
239	0x3be51db4	0.0069920663
240	0xbd501dab	-0.050809544
241	0xbc6e6e06	-0.014552599
242	0xbc392565	-0.011300419
243	0xbc605f88	-0.013694651
244	0x3c6ca8e0	0.01444456
245	0xbc9144e9	-0.017733054
246	0xbc6be241	-0.014397205
247	0x3a735a11	0.00092831353
248	0x3b7249b1	0.0036970193
249	0xbc8003eb	-0.015626868
250	0xbbb42151	-0.0054971357
251	0xbbe20d96	-0.006898592
252	0xbc93e37c	-0.018052809
253	0x3aecb008	0.0018057832
254	0xbc2ba86f	-0.010477169
255	0xbcc6a4b2	-0.024248455

action_model._continuous_distribution.mu.bias f4 [2]
0	0x3b378440	0.002800241
1	0xbb59e1ea	-0.0033246228
