results/ppo/MoveToGoal/MoveToGoal-246623.pt (torch, 439245 bytes, 36 tensors)

network_body._body_endoder.seq_layers.0.weight f4 [128, 6]
00000000: 131e cdbd 1961 2cbf ef70 353d d6ec ebbc
00000010: e1f3 6ebe 83cb f2bc 9d32 87be 7845 f93e
00000020: 2000 d0be 4bca abbe dc3b 073f 9501 fa3d
00000030: 1a2a 153f dbce 0a3f b35f 4c3e 11ff 4e3e
00000040: 126e edbe fa7c 1fbe b415 d73c ae8b 13be
00000050: e710 9b3e 3953 383e abbb ecbd 2f4b 6fbe
00000060: e27d 58bd 2a04 dc3e 1643 ea3d 8056 113f
00000070: 69aa 8e3e f7fe d73e b05b 71be f821 6d3d
00000080: a012 843e 385a 2bbf ebbc f0be 81fe 22be
00000090: 5f78 92bd 3f0a d13d 55db 343d d8d3 5ebd
000000a0: 130d a5bd b926 79be 8400 85bd ff4a e2be
000000b0: 3c85 f8be a334 f73e b664 d0bd 566e 66be
000000c0: c693 c43e eb5d fdbe 7ff1 a4be 268d f1be
000000d0: 1e9b 5c3c 893f afbc a0c1 ce3c 7c99 533f
000000e0: a33f fabd a0fd eebd a2bd 05be 759e 4bbe
000000f0: 2f41 c7be 549f 42bd 402c 2a3e 15f5 6c3f
00000100: b8ab 073e 9916 bf3e fb96 d0be d917 03be
00000110: ec9f 7d3e 14d7 0a3f 8258 0f3e ec37 443e
00000120: fe5a 88be f486 643d d629 abbe 8ccd 0a3e
00000130: 2f80 a03e 8dbb 9f3e 8170 54be ab85 e83d
00000140: 1420 94be 4214 b8be d70b 523f e32d 603e
00000150: 907c d5bd 3320 fc3e 17eb cdbc 1db6 24bf
00000160: 4b06 c93d 9f91 16be ff04 413e c7ca 59bf
00000170: 24ea 3abd 40e6 aabe 0c5e 0d3f be1a d4bd
00000180: 6380 c43d 81f4 27bf 01fd 2b3e 96d3 01be
00000190: 998c 47be 980a a0bd 3bc8 093e 1da0 2abe
000001a0: c0c3 09bf 1aff 0d3f 777c 6ebd ede4 b6be
000001b0: 0435 de3d 84d9 59be b43a ae3c 1226 a2be
000001c0: d7b6 563e dfce b43d 8eac 93be 79cb 1f3f
000001d0: 9a52 453f 2b33 fa3d f9cb 86be 7829 39be
000001e0: 52c7 fb3d fcdc eebe acfe 653d a887 dfbd
000001f0: 7d5b 8abe 2324 c2be 9a70 0f3f a467 ecbe
00000200: 9668 333e 0c51 7c3e 82c0 29be d0e5 783d
00000210: c95c 97be 644b cf3c c987 2dbf 0ad3 5ebd
00000220: 572b 853e a278 1a3e 4faa 75bd 13fe 04b6
00000230: f059 9c3d e69f 603b de1e 163e 27e5 81be
00000240: 1a02 3dbf 2118 05be f589 743e d1f5 7abe
00000250: 25a7 98be 6cbc 0dbe 0869 503e 04a8 943e
00000260: cb25 9d3e ae55 963e 32ea f7bd 2474 d8be
00000270: fb87 2dbf 2601 5bbe 6738 80be b9a3 2e3f
00000280: ffda 023f 1454 4dbe e934 353e bb33 b3be
00000290: f90d c23d 3b21 24bf 78d7 babe be08 633e
000002a0: 66cd c4bd e854 15be 87b8 25bf 9077 d5bd
000002b0: d753 78bd 8a41 443e 0471 a93e c526 5b3e
000002c0: fd84 0bbe e7f7 303d 13bf c23e 0bf6 013e
000002d0: cedd a9be 5552 fdbe 3070 56be 35c6 903e
000002e0: 1265 2e3f 1876 ae3e 2be1 e53c 08d1 823e
000002f0: 768d 023d c74b 2a3f b1e5 383f 333e 393e
00000300: d52e a9bd 0a67 02be a73f fe3d 6198 a1be
00000310: 57b2 3c3e ab82 553d c649 32be 44f6 ecbe
00000320: 792e 983e 3ae5 45bd 8bad bd3e f078 a13e
00000330: ec6c d13e 3c38 ed3c f97c ea3e 78aa 5fbf
00000340: 9a8a fcbd 2e30 93be 5b85 503f b425 e03e
00000350: 91a6 0dbf df76 40be 7064 37be 1c3d 1ebf
00000360: 73e2 a63c 8c5e 53be 8f77 42bf 4cd9 dcbd
00000370: 72c8 8d3d b3a9 b6be 77c2 fbbe 8ef1 59bf
00000380: c424 423e 4f1e a53e a6eb 6ebe 1a27 57be
00000390: 024c df3e a1f1 3dbf 717f d6be 22a9 87be
000003a0: dc8a 29be 8b21 26bf a62f 0fbf 1c5e 443f
000003b0: 6279 2b3f d102 85be 84f8 40be c7c5 f8bc
000003c0: f65e 4d3f eecd f23d e0fd 18bf ce1d 743e
000003d0: dabc d13e f2f9 9e3e 834f 05bf a622 fcbd
000003e0: 8e66 d7be fb63 61ba 36ff c7bd ecaf f93e
000003f0: c998 b9be 0429 4a3e e805 183f 7ffd cb3e
-0.10015502 -0.6733566 0.044297155 -0.028799456 -0.2333522 -0.029638058 -0.26405802 0.48685813
-0.40625095 -0.33552775 0.52825713 0.12207333 0.58267367 0.54221886 0.19958381 0.20214488
-0.4637304 -0.15575019 0.026255466 -0.14408752 0.30286333 0.18000497 -0.11559232 -0.23368524
-0.052854426 0.42971927 0.11438577 0.56772614 0.27864388 0.4218671 -0.23570132 0.057893723
0.2579546 -0.6693454 -0.47019133 -0.15917398 -0.07151865 0.102070324 0.044154484 -0.05440125
-0.08059134 -0.24331178 -0.06494239 -0.44197842 -0.4853915 0.48282346 -0.10175459 -0.22503027
0.38393992 -0.49485716 -0.32215497 -0.47178 0.013464717 -0.0213926 0.025238812 0.82656074
-0.12219169 -0.11669469 -0.1306062 -0.19884665 -0.3891692 -0.04751523 0.16618443 0.92561466
0.13249099 0.37321928 -0.4074019 -0.12802066 0.24768037 0.54234433 0.13998607 0.19161958
-0.26631922 0.055792764 -0.33430356 0.13554972 0.31347796 0.31197777 -0.20746042 0.1135362
-0.28930724 -0.35952955 0.82049316 0.21892504 -0.10424149 0.49243316 -0.025136514 -0.6434038
0.098156534 -0.14703988 0.18849562 -0.8507504 -0.04563345 -0.33378792 0.5522163 -0.10356663
0.095948 -0.6560746 0.16795732 -0.1267837 -0.19487227 -0.078145206 0.13455288 -0.16662641
-0.53814316 0.5546738 -0.058224168 -0.35721532 0.10849956 -0.21274382 0.021268226 -0.3166967
0.20968185 0.0882852 -0.28842586 0.6241985 0.77079165 0.12216791 -0.26327494 -0.18082225
0.12293877 -0.46652973 0.056151077 -0.10914546 -0.27022925 -0.37918195 0.5603119 -0.46172822
0.17520365 0.24640292 -0.16577342 0.06076604 -0.29562977 0.025304504 -0.67785317 -0.05440048
0.26009628 0.1508508 -0.059976872 -1.9817423e-06 0.07634342 0.0034274994 0.14660212 -0.25370142
-0.7383133 -0.12997486 0.23880751 -0.24507834 -0.2981502 -0.13841408 0.20352566 0.29034436
0.30692896 0.29362243 -0.12105216 -0.42276108 -0.67785615 -0.21387157 -0.25043032 0.6821857
0.5111541 -0.20051605 0.17695965 -0.35000405 0.09475321 -0.64113206 -0.36492515 0.22171304
-0.09609489 -0.1458317 -0.6473469 -0.10423195 -0.06062683 0.19165626 0.33094037 0.21401508
-0.1362495 0.043205168 0.38036403 0.12691514 -0.33177036 -0.49476877 -0.20941234 0.2827622
0.6812297 0.34074473 0.02806147 0.25550103 0.03187319 0.6652188 0.7222548 0.18090133
-0.082608856 -0.12734619 0.124144845 -0.31561568 0.18427406 0.052126568 -0.17410955 -0.46281636
0.29722956 -0.04831431 0.37046465 0.3153758 0.40903413 0.028957479 0.45798472 -0.8736949
-0.12331124 -0.28747696 0.81453484 0.43778765 -0.55332285 -0.18795346 -0.17909408 -0.61811996
0.020371651 -0.20641536 -0.7596368 -0.107836336 0.069229975 -0.35676345 -0.49171802 -0.8513421
0.18959337 0.32249686 -0.2333208 -0.2101101 0.43612677 -0.7419682 -0.41894105 -0.26496226
-0.16556877 -0.6489493 -0.5593208 0.767061 0.6698209 -0.2597871 -0.18844801 -0.030367745
0.80223024 0.11855684 -0.5976238 0.23839495 0.40964395 0.31050068 -0.5207445 -0.12311296
-0.4207043 -0.0008597967 -0.097654745 0.4876703 -0.36249378 0.19742209 0.5938401 0.3984184

network_body._body_endoder.seq_layers.0.bias f4 [128]
00000000: 9f2c f53b a868 1c3d b852 073c d662 20bc
00000010: e16d e13b c73d 94bb ffef 863c ba7f 3c3b
00000020: de09 023c bb46 7ebb 618d e33b 97b3 86ba
00000030: 4340 d637 02d7 74bb 6fde a2bb f398 0b3d
00000040: 413d 92bb 1add d63b 2287 f6ba 812c b3bb
00000050: 3096 3dba d487 0d3a 9747 0a3d fb0a ad3c
00000060: af1e 07bc 9cc0 fd3b 4e32 a83a 6a43 1cbc
00000070: 951f 2abc df5d aa3b 44eb 983b a3ef 963b
00000080: 0f3d 6bbb ccca 693a 5692 ecbb 72c8 46bc
00000090: 9c6b 3cbc afcd 8f3b 7fd0 9bbb 29e1 ab3b
000000a0: 8c4c f3bb 7b8a abbb c9c0 db3b 10f9 bdbb
000000b0: 217e 10bc a32e f63b f5ff e7ba 140a 32bc
000000c0: 9f90 bdbb 0551 0dbc 973c dfbb 4769 483b
000000d0: 25b1 023a c793 203b 4250 903b 1603 ad3c
000000e0: 9399 cc3b 0530 6f3b 73d5 d6b9 640f d53c
000000f0: 2ec3 9c3b 5367 343d 6e7a 0c3d 4af0 f739
00000100: 2c1b 26bc 946e 883d d5ae 0b3c 9494 ef3b
00000110: 227b 3639 b14d 9c3b 4075 aebc 022f 033c
00000120: bb06 2cbc 72a9 68bb ec26 d33c f542 b3b9
00000130: 78d0 f93b 41a7 d7bb 2f4a 2e3d 3b71 ab3a
00000140: 6789 3ebb be2c d03b 40b3 11bc 251d a3bc
00000150: 041e 1a3b 4446 aebb f56b 273c 6aa4 0bbc
00000160: 8103 c03c 2a9a 6cbc efa4 81bb de9b 64bc
00000170: ba60 853b 03c0 b13b e8e8 20bb ea48 923b
00000180: c31f 5d3b 79a2 e7bb b0d7 b73b 7086 e2ba
00000190: d3c7 323b fbc8 e7bc 64dc 3d3c 4a0b 053c
000001a0: 6b1a 113c cc20 fdbb 1f79 46bb e1ff ee3b
000001b0: 58a0 fcbb 26f4 913c 677e febc 45b1 b8bb
000001c0: 34c5 333d c0f5 d43b 2ebd 33bb 7a8a 2dbc
000001d0: 9bb0 2e3c 9071 60bc 21e4 143c 1760 4dbc
000001e0: ab03 553b 4f53 cdbb 5877 b93b 62db a83c
000001f0: b22b 58bc f7e4 d1bb 568a 0e3b 4a94 1cbc
0.007482126 0.038185745 0.008259468 -0.009789189 0.0068795537 -0.004523966 0.01647186 0.0028762654
0.007936923 -0.0038799483 0.006944344 -0.0010276911 2.5540712e-05 -0.00373596 -0.004970364 0.03408141
-0.0044628684 0.006557119 -0.0018808583 -0.0054679518 -0.00072321575 0.0005398963 0.03375968 0.0211234
-0.008247062 0.007743908 0.0012832375 -0.009537557 -0.010383506 0.0051991786 0.0046667177 0.0046062036
-0.0035894548 0.0008918464 -0.007219593 -0.012132751 -0.011500265 0.004388533 -0.0047550793 0.005245347
-0.0074248966 -0.005235014 0.0067063314 -0.005797513 -0.008819134 0.0075128837 -0.0017700183 -0.010866661
-0.0057850624 -0.008625274 -0.006812643 0.0030580328 0.0004985503 0.0024502145 0.0044040987 0.021119636
0.0062438934 0.0036497128 -0.00040976293 0.026008315 0.0047840094 0.04404385 0.034296446 0.0004729054
-0.010138314 0.06661716 0.00852557 0.007311413 0.00017402743 0.0047700037 -0.021296144 0.008006813
-0.010499652 -0.0035501388 0.025775395 -0.00034191427 0.0076237284 -0.0065812175 0.042551216 0.001308001
-0.0029073597 0.00635299 -0.008892834 -0.019911358 0.0023516426 -0.005318435 0.01021861 -0.008523086
0.02343917 -0.014441052 -0.003956429 -0.013953177 0.0040703686 0.005424501 -0.0024552885 0.0044642584
0.0033740855 -0.007068929 0.0056104288 -0.0017282497 0.002727975 -0.028294077 0.01158819 0.008120367
0.008856396 -0.007724857 -0.0030284596 0.0072936867 -0.007709544 0.017816614 -0.031066133 -0.0056363665
0.04388924 0.0064990222 -0.0027425992 -0.010592097 0.010662223 -0.01369895 0.009087593 -0.012535117
0.0032503407 -0.0062660347 0.005659979 0.020612422 -0.0131940115 -0.0064054686 0.0021749935 -0.009556839

network_body._body_endoder.seq_layers.2.weight f4 [128, 128]
00000000: 087d f83d bae2 a63c 4993 95bd 7529 bcba
00000010: e391 74bd dff8 973d 5a68 0b3e 9da8 9c3d
00000020: f74c 9b3c b3b8 03be 6ccc 29bb 5dc1 47bd
00000030: 597b a8bd e642 273e 7440 6cbd 89e9 1a3d
00000040: af60 a53d 5002 123d e03d d93d ce6e b7bc
00000050: a3d5 c73c 9a5a 263d ab1b 0d3c 183e 80bd
00000060: 8a10 4c3d a3cc 3cbd 4577 f6bd e899 f0bc
00000070: a42e 93bd 1c33 7d3c 4fff dbbd d946 9c3d
00000080: 0fe3 7e3d 7c60 ddbd 7102 423c d4cc 27bd
00000090: 1b63 0e3e acc3 193d 7199 16bc 6318 48bd
000000a0: 4261 f5bd 261e bd3c ffd7 dbbc d6c5 5c3d
000000b0: 1f80 c6bd 93fd 14be 2315 043c 8932 f73c
000000c0: 43a7 bcbd 1582 173e 1e1c 833d 2acc 653d
000000d0: d832 c43b 141e af3d 796e d63c d720 ad3c
000000e0: 0f9e 1fbd 74ce 823d ec81 6cbd ce7c 9ebc
000000f0: 1420 913d f10f 98bc a082 53bd c203 263d
00000100: e9b8 1abe a4d3 0f3b 9ad3 aabd 1e9e cdbd
00000110: 5f5b 44bd 16a0 0c3d a4c5 8c3d 70df 9b3c
00000120: 37f2 04bc 8b1c edbb a6ef 89bc 50a1 9c3e
00000130: fbb1 16bd 2220 fb3b 5118 c13d d7d6 f53c
00000140: 56c8 b93d c0a8 713d 5f5d e1bc ab02 923d
00000150: 4c8c 2abd e025 6e3d 7817 b73d d30a 893c
00000160: fa43 11bd 0001 713d a6dc ddbd 5758 6a3e
00000170: d48e 81bd ae30 e13c b9a2 9e3d 5694 d53d
00000180: a026 79bd 38ca f8bb 5fe0 8f3b cdf7 7cbb
00000190: ea02 00be 0bc4 f3bd 40be 543d ca9b 84bc
000001a0: c55e d43d 31ec 76bb f8b1 263c ff10 f2bd
000001b0: 1cfa 8f3d 41fe 8abc e8e3 a03a 31dd 053e
000001c0: d863 f43d eab6 b43d 4a5c 56be d67c 203e
000001d0: 6b4f 2cbc e122 343c a798 00be d915 9c3d
000001e0: 5c2b 1f3c 79e3 963d b181 50be 72bb c33d
000001f0: 0f21 2d3e 87e0 11bd ff5e 183d 5f6f e5bd
00000200: bd57 31be 8eb4 453a 8a06 9bbd 3553 bd3c
00000210: 5eb8 17be 1df2 c13d e733 a23d 409c 07bc
00000220: 6d44 eb3d 096c c63d f9d3 ae3d fdf1 cbbb
00000230: f4a6 e5bd c49e a0bd 52e7 bbbd 666d 983c
00000240: 40a8 c33d 61ae 253e b16b 083d 5998 913e
00000250: e92e f4bc aa33 783c 4ea6 293c 4e06 0fbd
00000260: ed54 09bd 10d8 1ebd ade2 583e a8d5 553d
00000270: 3c46 40bc 5a62 cebd 5e2d c13d d359 5abc
00000280: 25c7 763d d5ff 14bd ccda 0bbb 7395 61bd
00000290: 6dc5 c6bd 7931 a1bd 37e6 95bd e421 8e3d
000002a0: c72d 85bd a67e bebc 2554 39bd b195 0cbd
000002b0: 1c47 2dbc f320 bebd 9d8f 11be adcc 39be
000002c0: a101 c9bd 51d1 a4bd dd81 103e d82a 843c
000002d0: 4bea c93d 42ee e8bd 3008 0e3e 4479 ef3c
000002e0: 2e4e 07be 53e3 043e 0d08 61bd 0f78 9e3d
000002f0: d471 1a3e 448b af3c 1dbf ab3d 0349 c23d
00000300: 3800 ad3d f8a6 743e 9398 303c 7bee eabc
00000310: de6e 773c 59cd 4abe 04c1 3ebe a806 3c3d
00000320: 01b1 11be 7d28 123e 442d 00be 3d08 b83d
00000330: a66e 18be 8b44 4fbe 76f1 a03d ebab 993c
00000340: cc89 4a3d 2c43 1a3e e5c2 ff3c 20c1 103d
00000350: 2c82 43bd c5ed dc3d 308f 2cbc fba9 1bbd
00000360: 11ef 80bd b2ce 1a3e 53c8 2d3d 59f0 82ba
00000370: b114 8abd 5952 073e 8326 353d 3310 a83d
00000380: fe1e 93bc fe95 ea3c 3c2f cabd 2880 a73d
00000390: 048d a63c 8815 7dbc 77d9 be3c cc26 06bd
000003a0: 81c6 cc3d 62e5 953d acb9 b63b 2952 b8bd
000003b0: f879 92bd 1ab1 8bbd a6d5 13be 7303 03bd
000003c0: d82e ae3a 7c62 25be eb27 debd 1ac2 fbbd
000003d0: d9bc a43d 31d7 aabc cbce b5bb f843 023d
000003e0: e07d 80bd 08a8 18bc 0c03 32be 908c c0bd
000003f0: 4232 a9bd ccab 90bd 6bd3 083d c876 babc
0.12133223 0.020371784 -0.07303483 -0.0014355617 -0.05970944 0.07420515 0.13614026 0.07649348
0.018957598 -0.12863426 -0.0025909198 -0.04876839 -0.08226652 0.16334113 -0.057678655 0.037820373
0.080750816 0.035646737 0.10607505 -0.022391703 0.024393862 0.040613748 0.008612554 -0.062618434
0.04982046 -0.046093594 -0.120344676 -0.029370263 -0.0718663 0.01545408 -0.107420556 0.076307006
0.06222826 -0.108094186 0.011841402 -0.040966824 0.13904993 0.037540123 -0.009191857 -0.048851382
-0.11981441 0.023085665 -0.026836393 0.05389961 -0.09692406 -0.14549856 0.00806168 0.030175464
-0.0921159 0.14795716 0.06401847 0.05610291 0.0059875064 0.08550659 0.026175724 0.021133823
-0.038969096 0.06387034 -0.05774109 -0.01934662 0.070861965 -0.018562289 -0.051638246 0.040530927
-0.151096 0.0021946216 -0.08341141 -0.10039924 -0.0479387 0.034332357 0.068736345 0.019027442
-0.008114389 -0.0072360686 -0.016837906 0.30591822 -0.03679083 0.0076637426 0.09428466 0.03000967
0.09071414 0.058998823 -0.027510343 0.07129415 -0.041637704 0.05814159 0.08940023 0.016728794
-0.035465218 0.058838844 -0.10833101 0.22885261 -0.063260704 0.027489033 0.07745881 0.104286835
-0.06082785 -0.0075924657 0.004390761 -0.003859985 -0.12501112 -0.119026266 0.05193925 -0.016187567
0.10369638 -0.0037677402 0.010174267 -0.11819648 0.070301265 -0.01696694 0.0012274953 0.13072659
0.11933106 0.088239506 -0.20933643 0.15672621 -0.010516982 0.010994644 -0.12558232 0.076213546
0.0097149275 0.07367606 -0.20361973 0.09557237 0.16907142 -0.035614517 0.03719997 -0.11202883
-0.17318626 0.00075418584 -0.075696066 0.023110965 -0.14816424 0.094700076 0.07920056 -0.008276999
0.114876606 0.09688575 0.08536524 -0.0062239156 -0.112134844 -0.07842782 -0.0917498 0.018606853
0.095535755 0.16179802 0.033305828 0.28436545 -0.029807525 0.015149036 0.0103545915 -0.034918122
-0.033528257 -0.038780272 0.2118022 0.05220571 -0.011735495 -0.10077353 0.09432481 -0.01332708
0.060248513 -0.036376793 -0.002134013 -0.055074167 -0.09705625 -0.07870764 -0.073193006 0.06940058
-0.06502872 -0.02325375 -0.045246262 -0.034322444 -0.010576036 -0.09283628 -0.1421494 -0.18144484
-0.09814764 -0.080477364 0.14112039 0.01613371 0.09859141 -0.11373569 0.13870311 0.029232629
-0.13213417 0.12977342 -0.05493932 0.07737743 0.15082484 0.021428712 0.08386061 0.09486582
0.08447307 0.23891819 0.010778564 -0.02867817 0.015102116 -0.19804896 -0.18628317 0.045904785
-0.14227678 0.14273258 -0.12517267 0.08985946 -0.14885959 -0.20240991 0.07858555 0.018758735
0.04944782 0.15064687 0.031220863 0.03534043 -0.047731563 0.107875384 -0.010532185 -0.038003903
-0.06295598 0.1511791 0.042427372 -0.0009989842 -0.06742228 0.13215007 0.04422618 0.08206215
-0.017959114 0.028635975 -0.098722905 0.08178741 0.020330913 -0.015447028 0.023297055 -0.032751843
0.09998799 0.07319142 0.005576333 -0.09000046 -0.0715217 -0.06820889 -0.14436969 -0.03198571
0.0013289107 -0.1615085 -0.108474575 -0.12292881 0.08043832 -0.020854564 -0.0055483333 0.0318031
-0.06274009 -0.0093174055 -0.17383975 -0.0940181 -0.08261539 -0.07064018 0.03340475 -0.022761717

network_body._body_endoder.seq_layers.2.bias f4 [128]
00000000: ee39 c0bb fe92 373d 5604 643b 9cce bf3b
00000010: 1f39 ad3b 1238 de3b 07d8 833b 5f26 ea3b
00000020: 9fe0 133b 4a56 f03a 05cb d93b 1aab 643d
00000030: 63f3 bdbb 8492 8c3a df8b 183b 5bb8 693b
00000040: 0f73 223c 590a adbb 6a4d 083b 9403 c73c
00000050: 6edc 84bb 294d 0ebc ee96 4abc 2745 38bc
00000060: 3103 1fbc e25b 9b3b 68d2 163c bcb5 47bc
00000070: 7ad4 253b a8e6 aa3c 8f8d 06bc c800 2a3c
00000080: 55b5 0d3c 6f8e 173c 7e68 64bc 4c06 b03b
00000090: a203 c83a 5bce ff3b fd84 c23b 705d 123c
000000a0: dde1 9dbb 44aa 11bc 058c 20bc d6e6 a33b
000000b0: 93b2 1c3c cef1 b03d a80f 043c 2a68 323b
000000c0: be2b 623c f4b4 a23a b6f2 2d3c 9655 12bc
000000d0: 5b1a e13b 7401 13bc 2489 57bb eb92 363c
000000e0: a372 76bc 727f 8e3c b03d 2c3b 439d d5bb
000000f0: d9e4 4fbb 180e c0ba ac61 1ebc 5d61 cf3b
00000100: 4f56 f03a f745 a33c c689 cd3a c1cb ac3b
00000110: b16f 393c 23c1 c83b ba5d 13bc e12a 0cbb
00000120: 8e63 8bbc f276 343b 8bc2 a3bb 1fce 1339
00000130: fa3a 29bb 1d96 c9bb 35f3 f83b 912d fd3b
00000140: a32f dabb 163d 103b c034 29bb add1 4e3a
00000150: b97a 59bc 505c f2ba 5826 07bc e75f c5bb
00000160: 3c36 123c 4bab d9bb 3c96 0c3d ee87 083c
00000170: 9a6f 39bc 6dd1 343c 1d58 833c 0b3e 263c
00000180: 68fb d3ba 04c1 0fbb 116d 0bbc 22aa 85bb
00000190: 60a1 7bbb d39d 05bc bee4 ad3b dbc1 723b
000001a0: b4d5 de3b 6d49 82bb 4cb8 39bc c86f 06bc
000001b0: 65ed 27bc 06cf b3bc b8fa a53b 53e8 3a3c
000001c0: 0ee6 3f3c a6f1 11bc cf38 a23b 8961 a13b
000001d0: 0560 573a 070d 0dbc 519c 0abc c164 23bb
000001e0: b824 70b9 89f7 b4bc d297 143c 18e9 c6bb
000001f0: 40f1 6f39 3763 ca3b cfc5 aabb d433 6fbc
-0.0058662808 0.044817917 0.0034792623 0.005853487 0.0052863504 0.0067815864 0.004023555 0.0071456875
0.0022564305 0.0018336263 0.0066465163 0.055827238 -0.005796836 0.0010724817 0.002327673 0.0035662863
0.009915127 -0.0052807746 0.0020798096 0.024293698 -0.0040545976 -0.008685389 -0.012365086 -0.011246956
-0.009705351 0.004741178 0.009205438 -0.012189325 0.0025303648 0.020861939 -0.008212461 0.010376163
0.00864919 0.009250267 -0.0139409285 0.0053718444 0.0015259872 0.007806582 0.0059362636 0.00893341
-0.0048181848 -0.008890692 -0.009799008 0.005001883 0.00956406 0.086398706 0.008060373 0.002722273
0.013804374 0.0012413547 0.010616949 -0.008931538 0.006869597 -0.008972514 -0.0032888139 0.011143426
-0.01504198 0.017394755 0.0026281886 -0.006518991 -0.0031722097 -0.0014652638 -0.0096668415 0.0063287453
0.0018336269 0.019930823 0.0015681318 0.005273313 0.011318133 0.0061265393 -0.008994514 -0.0021387863
-0.017015245 0.0027536717 -0.0049975566 0.00014095799 -0.0025822506 -0.006151928 0.007597352 0.007726379
-0.006658511 0.0022009066 -0.0025818795 0.00078895205 -0.013273888 -0.0018490646 -0.008248888 -0.0060233953
0.008924063 -0.006642734 0.034322962 0.008333189 -0.011318112 0.011036259 0.016033227 0.010146628
-0.0016172947 -0.0021935115 -0.00850989 -0.0040791193 -0.0038395748 -0.008155304 0.005306809 0.0037041816
0.0068003777 -0.003976038 -0.011335444 -0.008205362 -0.01024947 -0.021949302 0.0050652884 0.0114079295
0.011712564 -0.008907711 0.00495062 0.004924957 0.0008215907 -0.008609063 -0.00846012 -0.002493188
-0.00022901862 -0.02209069 0.0090694 -0.0060702674 0.00022882689 0.006176378 -0.005211569 -0.014599759

action_model._continuous_distribution.log_sigma f4 [1, 2]
00000000: 42dd 25bb 7014 0dbc
-0.0025308882 -0.00861083

action_model._continuous_distribution.mu.weight f4 [2, 128]
00000000: 3afe 4dbc ac6e 84ba 9ca6 2fbd 11f4 993c
00000010: 7191 3d3d 55d1 52bd dbe9 c53b 32b0 12bd
00000020: 2dc9 36bc 73fd 49bd 47b0 a93b 48c8 a7bc
00000030: 8b65 e6bc 1768 143d 7706 18bb 4415 08bd
00000040: 6ae4 a13c 2149 f33b 68ec 1ebd 3c7a 9ebc
00000050: 601e bcbc ad45 9cbc a1d3 3bbc d529 8fbc
00000060: 18de a5bc 48bc 063d 153b 0b3d cb02 dabb
00000070: 3f55 483b acf3 8ebd ce73 2fbc f471 aa3c
00000080: 3127 293d 6fa5 4aba 13dd 5cbb 2ac3 8cbc
00000090: c683 5bbd d4c0 4ebd a312 a43b df6d 66bc
000000a0: 2c96 14bc 655a 3fbc d14c 813b 1761 a73c
000000b0: b77b 773c e7c4 153d 7d10 143d 5c4a 0ebc
000000c0: f5cf 84bc 4e6b 98bb 48f5 df3b bd56 ffbc
000000d0: 6eea fdbc 98e9 c0bc 20c6 653b 232f d93c
000000e0: a008 cdbc 2920 a4bb 2856 963c 719f 02bd
000000f0: 6486 d3bc b0f7 b1bb fd7c 7bbc b7bd 383b
00000100: 69dd a4bd 9183 5f3d f5be 0d3c e65d f839
00000110: 282d 003d b7de 1e3c 5e6e d4bc dab8 0dba
00000120: eac9 21bd f199 32bc 8283 373b ede2 96bb
00000130: f1e0 2abd 2b49 5cbb a659 843c 961c 8b3b
00000140: ab2c 6bbd de6e 413c 6c6e 05bd 004c cabc
00000150: 384a 2cbc d0ae 2ebd da2d 02bd 0862 b9bc
00000160: c3a2 c13b 369f 34bb be0e 82bc 835f e03b
00000170: 0a42 2fbc bf52 803c fce3 91bd f505 073c
00000180: edf8 dfbb dc3d 04bd adc7 2bbc 24cb f7bc
00000190: 4bc8 f2bc ebd8 dcbb 8453 e13c 17f0 30bc
000001a0: c664 103b 9a33 e93b d04d d0bb 775f a7bb
000001b0: dfab dfbc f518 90bd 8f6f 183d 1ac9 1ebd
000001c0: 4e08 6cbd ed52 0bbc 539a d83a e7ad 0bbd
000001d0: 2c6d 653c dc93 43bc ed47 3dbc 28ae 5fbd
000001e0: 3954 15bc c329 98bc ca28 10bd 02cf 9ebc
000001f0: 1dfc 12bc 3c28 8e3b f7cc 0ebb ff7d 06bc
00000200: bf9f 953b e47d 133d b43c 5cbd 5aab 2abc
00000210: 119f 0ebc 8cf9 7cbd fcc9 98bb 89dd 4cbd
00000220: de9d 7dbc 1f9d 0ebd dcf5 303c e095 803d
00000230: c416 a13c e5ae eebc 8959 8f3c 45d8 f2bc
00000240: 6779 b93c 8080 303d ea04 dfbb 30fb 1e3c
00000250: 590a 0fbd 08df d83a 63e0 9abb 013a b93a
00000260: 67b8 283b e877 7dbc 68d5 223b b862 1cba
00000270: cc08 91b9 f3c3 37bc a95d d7bc 66c8 7e3c
00000280: 7197 4fbc b8e3 5d3c ff46 60bb 2334 98bd
00000290: 9eeb e2bc b3c1 79bd daff f83c e4b4 1fbd
000002a0: 7a35 443c beab 32bc 9d9f 18bd 6eb1 5ebc
000002b0: ce07 8bba 0d47 ba3d 82ed 26bc 7f71 773c
000002c0: 038e 493c 3962 823c 937f 963c 8c15 3ebc
000002d0: a8d5 8bbc 7b9a 893b 40fa 53bc 359f 523c
000002e0: cbd9 73bc ab24 7b3b 030e 8cbc 8695 763a
000002f0: 4dc2 a0bb 236c 123c 2aaa b43b 8b8a c43b
00000300: 5a50 21bc 2296 07bd 22c7 44bc cca0 633c
00000310: cac0 283c 2d43 6cbb bc4a 11bb 3f3f eabb
00000320: 5d5f c9bd dc89 643d 5a2e 8dbc 8d20 7f3c
00000330: f3a7 84bd 1c3d 9dbc 728f d1bb 888a e23b
00000340: f401 af3c b91f 4cbc a761 3dbc f609 fe3b
00000350: 29a1 98bb 1352 b1bc 3239 483c 7b84 8b3c
00000360: 8ec6 7e3c b9d9 943b 0ac2 3a3d b9e2 283c
00000370: d9e6 b0bb 41d2 b53b ea3e e6bc 8520 9a3b
00000380: cc07 8bbc 9e8c b3bc 2c5a bcbc 16d4 c7bc
00000390: 15a9 0ebd f17f 02bd ee83 9ebc 11d2 a13c
000003a0: 9b6c 553a 896b 1abc 249c f1bb 8d59 ef3a
000003b0: 3acf c83b e248 acbd fa73 adbc bae0 65bc
000003c0: d7b0 42bd d582 3ebc 1479 32bd fdc6 e23a
000003d0: a1d3 b8bc 94e3 d93b 905e a53c 4152 07bd
000003e0: 6859 9d3c 84ca a2bc d71a 34bc 02c2 4dbc
000003f0: a17b ad3c ae3e 253c cd3e 273c 784f acbc
-0.012572819 -0.0010103784 -0.0428835 0.018793138 0.04628128 -0.051469166 0.0060398406 -0.035812564
-0.0111563625 -0.049313974 0.0051784846 -0.020481244 -0.028124591 0.03623208 -0.0023197213 -0.033223405
0.019762237 0.007424489 -0.038799673 -0.019345395 -0.022963703 -0.019076193 -0.0114640305 -0.017476002
-0.020247504 0.032894403 0.033991892 -0.006653165 0.0030568389 -0.069800705 -0.010708762 0.02080629
0.04129714 -0.000773034 -0.0033701106 -0.017182905 -0.053592466 -0.050476864 0.0050071045 -0.014064281
-0.009069007 -0.011679267 0.003945925 0.020432038 0.0151051795 0.036564734 0.036148537 -0.008684721
-0.016212443 -0.0046514636 0.0068346597 -0.03116929 -0.030995574 -0.023548886 0.0035060719 0.026511734
-0.025028527 -0.0050087166 0.01835163 -0.031890336 -0.025820918 -0.005431138 -0.015349624 0.002818925
-0.08050043 0.05456883 0.008651485 0.00047372206 0.031293064 0.009696654 -0.025931533 -0.0005406268
-0.0394992 -0.01090096 0.0028001969 -0.0046046884 -0.041718427 -0.0033612947 0.016156029 0.004245351
-0.057415646 0.011806218 -0.03257601 -0.024694443 -0.010515742 -0.042647183 -0.03178201 -0.022629753
0.0059092953 -0.0027560717 -0.01587617 0.0068473234 -0.010696897 0.015664456 -0.07123563 0.008241166
-0.006835094 -0.032285556 -0.010484618 -0.030248232 -0.029636523 -0.006739726 0.027505644 -0.010799429
0.0022032722 0.007116747 -0.006356932 -0.005107816 -0.027303634 -0.0703601 0.037215766 -0.038766004
-0.057625107 -0.008503658 0.0016525484 -0.034101393 0.014003079 -0.011937108 -0.011552793 -0.054609448
-0.0091143185 -0.018574601 -0.03519515 -0.019385818 -0.008971241 0.0043382924 -0.002178965 -0.008208751
0.0045661624 0.03600873 -0.05376883 -0.01041683 -0.008704917 -0.061761424 -0.0046627503 -0.05001596
-0.015479533 -0.03481781 0.010800805 0.062785864 0.019664176 -0.02913613 0.017498748 -0.029644141
0.022640897 0.043091297 -0.0068060057 0.009703442 -0.034921978 0.0016545961 -0.004726456 0.0014131666
0.0025744678 -0.015470482 0.0024846438 -0.0005965638 -0.0002766311 -0.0112161515 -0.026289778 0.015550708
-0.012670384 0.013543062 -0.0034222004 -0.07431819 -0.027700242 -0.06097574 0.030395437 -0.03899087
0.01197564 -0.010905204 -0.037261594 -0.013592107 -0.0010607184 0.09095583 -0.010188462 0.015102743
0.012301925 0.015915977 0.018371379 -0.011601817 -0.017069653 0.0041993237 -0.012938082 0.012855341
-0.014883469 0.0038321416 -0.017096525 0.0009406436 -0.004905975 0.008936915 0.005513449 0.005997961
-0.009845817 -0.033102162 -0.012010368 0.013893317 0.010299871 -0.0036050782 -0.002216979 -0.007148653
-0.09832642 0.055795535 -0.017234016 0.015571726 -0.06477346 -0.019194178 -0.006395274 0.006913487
0.021363236 -0.012458735 -0.011558927 0.0077526523 -0.0046578837 -0.021645581 0.012220668 0.017030945
0.015550269 0.004542556 0.045595206 0.010307961 -0.005398613 0.005548746 -0.028106172 0.0047035837
-0.016971491 -0.021917637 -0.022992216 -0.024393123 -0.034829218 -0.031860296 -0.019350018 0.019753488
0.00081414887 -0.009425052 -0.0073733497 0.0018260941 0.006128219 -0.08412339 -0.021173466 -0.01403063
-0.04753193 -0.0116278725 -0.0435725 0.0017301735 -0.02256185 0.006649444 0.020186692 -0.033037428
0.019207671 -0.019871958 -0.010992727 -0.012558462 0.021177115 0.010085745 0.010207844 -0.021033987

action_model._continuous_distribution.mu.bias f4 [2]
00000000: ee67 323c 50eb 9c3b
0.010889037 0.0047887936

exp_avg f4 [128, 6]
00000000: 00b9 4f38 28d6 33b6 38e7 76ba f12c c3b8
00000010: c5b4 77b7 9e3c 72ba 5ec2 20b7 0c59 f3b2
00000020: d567 87b7 fbe3 1ab7 c0eb c5b2 5245 9eb7
00000030: 7967 1e3a d17c dd36 c123 f83a 4614 273a
00000040: e2c9 1a36 84cc f33a b970 deb9 d12b fbb6
00000050: a2e3 ffba 2bb2 10ba 5a9e 92b7 72c1 fcba
00000060: c07c 04ba 6ea8 7db7 c584 b5b9 d242 0aba
00000070: 84c6 55b7 f17e b5b9 63c7 0b38 68bc d435
00000080: 77e8 d9b9 3235 e0b6 bb52 f3b5 c381 e7b9
00000090: e4d4 9637 c531 ad35 cb72 e7b7 0ed4 5937
000000a0: 250d d035 ec2b 11b8 fa90 6eb9 8f56 bfb7
000000b0: c554 8c37 0d99 afb9 763f afb7 0487 3238
000000c0: 8d0f 17b8 a7c1 bfb5 188a 0fb7 ab8d 22b8
000000d0: 5ce1 acb5 7c03 25b7 2b83 99b6 fedd 7536
000000e0: ef59 0a37 f1bd 5437 ad3c 6a36 fe3a 3db6
000000f0: 1f09 56b9 31e6 62b7 f95a 5d3a 7b6d 85b9
00000100: a42e 7fb7 69c2 4c3a 893f fa38 e817 cb37
00000110: 2f09 b139 57aa 5039 4d45 9d37 e210 9539
00000120: c226 a438 4de7 5836 4f98 a839 9b9f 0b39
00000130: 1b02 1037 6470 a639 4ed0 8bb7 7221 a036
00000140: f602 a938 c8d9 6537 26df a836 f0b7 8838
00000150: 3f2c 8936 aa74 c8b5 5a6c 91b6 4480 6db6
00000160: 7b0d cab5 1c4d df35 6e9a fbb8 16ac 1db7
00000170: 4238 feb7 6589 22b9 48d2 1cb7 cc67 b5b7
00000180: af4f 6eb9 4ca6 0bb6 d0ab a9ba 4aa9 a1b9
00000190: d974 fbb6 8428 a2ba d82e d4b9 2d8a 08b8
000001a0: fdec 43b7 5522 0fba 9c0c fbb7 3148 4637
000001b0: c795 33b9 5d89 24b7 7843 80ba ebbe 72b9
000001c0: d0e0 5cb7 4bfa 73ba 92a4 8f39 84b9 ba37
000001d0: 0dc0 89b9 066c a439 384c 8537 4995 9fb9
000001e0: 2328 7939 1700 1337 f62d acb7 f696 8e39
000001f0: d167 1637 3de8 9eb7 8460 99b9 c4e3 beb7
00000200: 44e6 36ba a835 d4b9 d6bd b2b7 7bac 29ba
00000210: 1714 0ab7 fd5f 65b5 a0f8 eeb6 1966 4cb7
00000220: 7276 66b5 a0b1 d3b6 96ce 8f38 22a0 4737
00000230: 633e 3537 5a92 ef38 ab5f 4637 c468 a2b7
00000240: 820d 6c38 d053 bc36 7a99 34ba f78e a2b6
00000250: e67a edb5 6cb3 31ba 8a28 6638 c69d be34
00000260: aadf b339 b25d 3238 8289 2b34 1d88 ab39
00000270: 831c 6b39 47f3 a137 eea6 3838 7ccd ae39
00000280: 179c a237 2b77 1236 1445 02b9 629a 0eb5
00000290: 87e4 46ba 1fce 1fb9 511e afb6 151a 4dba
000002a0: 9884 e737 801b de35 96e2 74b6 a40e 0838
000002b0: d502 d435 bc53 8db6 5007 13b9 9cf9 61b7
000002c0: c31b ca39 a553 61b9 6e7a 5eb7 a48d cf39
000002d0: 5c85 a8b9 d982 90b7 7b5e 1a3a b63e b0b9
000002e0: ed4c 40b7 d894 0f3a 2086 28ba 334e 3fb8
000002f0: 6682 6b3a e108 35ba faba f2b7 18f1 6a3a
00000300: 1dac c5b8 59d4 34b6 2e5a 9eba 4158 49b9
00000310: 6fe9 48b7 a88a 98ba f05f a039 6231 5837
00000320: 71af acb8 3053 9f39 6ee9 9f36 3dcd 0bb9
00000330: e669 a938 4779 6d36 0829 82ba 5174 e8b7
00000340: 1f62 07b7 7d08 81ba 3276 da39 4f1f 0438
00000350: d177 2438 ad72 123a 9a3d f937 5d6a 6c37
00000360: dcb3 8cb8 4112 9e35 bbca 9436 d303 7fb8
00000370: 8981 c135 edd8 b1b3 eb51 43b8 d673 0db7
00000380: 41b3 22b8 887d c0b8 f333 1cb7 eacb 5f37
00000390: 4a27 4d39 ac55 3937 2a71 4537 1003 8039
000003a0: a5b3 3137 753c f634 f5ab 90b8 2286 cd35
000003b0: 481c e039 cbc4 0db7 6238 da36 ec38 ce39
000003c0: c15e e839 81f7 d237 8dba aa39 3bfb 0e3a
000003d0: ca54 bf37 909c a039 72d2 e137 f45e 8936
000003e0: b248 08ba e31c 19b7 3d60 9bb5 6057 11ba
000003f0: 3b4e 4f38 465a 5136 8a15 8b39 f7d3 df38
4.952494e-05 -2.6797734e-06 -0.00094186096 -9.3066956e-05 -1.4764436e-05 -0.00092406 -9.581998e-06 -2.8329417e-08
-1.6141605e-05 -9.232196e-06 -2.3041025e-08 -1.8867348e-05 0.00060426403 6.600844e-06 0.0018931554 0.00063735654
2.30653e-06 0.0018600379 -0.00042427125 -7.485484e-06 -0.0019522796 -0.0005519713 -1.7478294e-05 -0.0019283725
-0.00050539896 -1.5119191e-05 -0.0003462193 -0.0005274239 -1.274201e-05 -0.0003461759 3.3325876e-05 1.5850064e-06
-0.00041562665 -6.681913e-06 -1.8128989e-06 -0.00044156433 1.7980528e-05 1.2903989e-06 -2.75908e-05 1.2983581e-05
1.5501033e-06 -3.46116e-05 -0.00022751457 -2.2809281e-05 1.6728774e-05 -0.00033492633 -2.0891177e-05 4.256425e-05
-3.601569e-05 -1.4286969e-06 -8.555617e-06 -3.875575e-05 -1.2880587e-06 -9.835578e-06 -4.5750253e-06 3.6637061e-06
8.24638e-06 1.2680409e-05 3.4904035e-06 -2.8197533e-06 -0.00020412028 -1.3524245e-05 0.0008444037 -0.00025449306
-1.5210044e-05 0.0007810952 0.00011932763 2.4210618e-05 0.00033766913 0.00019899882 1.874813e-05 0.00028432073
7.8273486e-05 3.2321143e-06 0.00032156936 0.0001331553 8.583559e-06 0.00031745725 -1.666709e-05 4.772265e-06
8.0590995e-05 1.370017e-05 5.032768e-06 6.5192464e-05 4.088069e-06 -1.4935115e-06 -4.3339505e-06 -3.5390412e-06
-1.5054096e-06 1.6637237e-06 -0.000119973774 -9.397996e-06 -3.0305357e-05 -0.00015500707 -9.3472845e-06 -2.1625216e-05
-0.00022727133 -2.0809412e-06 -0.0012944881 -0.00030834443 -7.493986e-06 -0.0012371694 -0.00040470692 -3.2553613e-05
-1.1678084e-05 -0.0005460133 -2.9927403e-05 1.1818528e-05 -0.00017126567 -9.807144e-06 -0.0009785732 -0.00023150041
-1.3165365e-05 -0.0009307011 0.000273977 2.2259315e-05 -0.00026273765 0.00031361 1.5890328e-05 -0.0003043807
0.00023761443 8.761904e-06 -2.05254e-05 0.00027196825 8.964868e-06 -1.8943212e-05 -0.00029254344 -2.2755827e-05
-0.0006977061 -0.00040475768 -2.1307653e-05 -0.000647254 -8.2301185e-06 -8.544883e-07 -7.1218965e-06 -1.2183119e-05
-8.585404e-07 -6.3089683e-06 6.857251e-05 1.1898608e-05 1.0802966e-05 0.00011423668 1.1823994e-05 -1.936069e-05
5.6279365e-05 5.6125937e-06 -0.0006889325 -4.8446195e-06 -1.7693644e-06 -0.000677875 5.4874028e-05 3.5505053e-07
0.00034308183 4.2525768e-05 1.5975641e-07 0.00032717074 0.00022421968 1.930598e-05 4.4024484e-05 0.00033340964
1.938459e-05 2.182506e-06 -0.000124235 -5.312378e-07 -0.0007587154 -0.00015240208 -5.2189357e-06 -0.0007824016
2.759909e-05 1.6548292e-06 -3.6490724e-06 3.2438562e-05 1.5796055e-06 -4.2118754e-06 -0.00014021737 -1.3469162e-05
0.00038549126 -0.00021488832 -1.32607365e-05 0.00039587647 -0.00032142818 -1.7227068e-05 0.00058887125 -0.0003361606
-1.14620025e-05 0.00054771965 -0.00064286776 -4.5610777e-05 0.00089839695 -0.0006905925 -2.8935716e-05 0.00089623174
-9.4257506e-05 -2.6945693e-06 -0.0012081319 -0.00019201731 -1.1975279e-05 -0.0011638002 0.00030589057 1.2886101e-05
-8.2342776e-05 0.00030388823 4.765744e-06 -0.0001333253 8.078273e-05 3.5386345e-06 -0.0009930441 -2.771072e-05
-8.069473e-06 -0.0009844449 0.00041668263 3.150041e-05 3.9212235e-05 0.0005586546 2.9711799e-05 1.4091461e-05
-6.7092216e-05 1.177723e-06 4.4343446e-06 -6.08003e-05 1.441732e-06 -8.281663e-08 -4.6567915e-05 -8.431225e-06
-3.8790753e-05 -9.1786555e-05 -9.31042e-06 1.3339313e-05 0.0001956496 1.1046806e-05 1.1768463e-05 0.00024416344
1.0591849e-05 4.586506e-07 -6.8984846e-05 1.5312728e-06 0.0004274568 -8.450074e-06 6.50347e-06 0.00039333792
0.00044321085 2.5149204e-05 0.00032563918 0.00054543064 2.2808457e-05 0.00030634226 2.6920086e-05 4.093972e-06
-0.0005198821 -9.126236e-06 -1.1576409e-06 -0.0005544331 4.9425504e-05 3.1195973e-06 0.00026528194 0.0001067295

exp_avg_sq f4 [128, 6]
00000000: 3571 5934 0133 5e30 7bed 6536 e436 3b34
00000010: e28d 6130 471d 4e36 7165 cf2f a495 302e
00000020: cfcc 3630 cf05 7a2f 886a ca2d aacd 0130
00000030: 8409 a238 b370 3033 c61f c538 7bea b638
00000040: c45d 3233 0d21 c438 61ae c336 ba39 0932
00000050: 9a4b 0d38 aaa2 e636 7fc8 1132 b13b 0338
00000060: a96c a436 9577 ba31 f758 b237 948a b836
00000070: 8330 be31 25e6 a237 e777 8e33 baf0 f730
00000080: f99b 0d37 55d2 7d32 e075 f330 0c4f ff36
00000090: 7dcb e733 d71a a02f 0a6c 6232 5e3e fc33
000000a0: 6a43 b52f a131 8831 b0e0 7137 3055 c331
000000b0: 8dd7 be35 5c0e 8437 c5cc b831 2bb7 e935
000000c0: 98e9 2931 82c1 ae2c ce93 8e2f 70c2 3b31
000000d0: f80d da2c 3fce e22e f309 6032 f3e2 5a2e
000000e0: 38ef b230 dc89 7332 4744 3f2e b999 2d30
000000f0: 1772 d437 31eb 4f32 ee27 a337 c46b ec37
00000100: 1ef0 5732 5f2e a437 515e 9d37 b746 3a32
00000110: a13b 9937 b1cb af37 0132 3232 a4c1 9637
00000120: 0eda c234 39d5 b330 ce5e 8036 8e8f ab34
00000130: e7e5 9030 5d5b 7136 af3f d530 2e5e 0b2f
00000140: 87d2 8333 84b1 7b30 5d54 e32e 1c48 6833
00000150: 37a4 c12f c140 1e2e d787 ff31 bbfa a62f
00000160: e1c0 1d2e 215f bb31 450e 8633 ed00 ae2e
00000170: 55b8 a231 5da9 9933 e435 e82e c75f 3e31
00000180: 0b8c 1e37 c6f1 d131 d160 cf37 a96f 3337
00000190: 7664 da31 f3ec c937 9fc2 9937 f414 f331
000001a0: 4f85 e335 5e88 a837 1a70 e931 29fd 0736
000001b0: b1a5 f834 13f2 3a31 a97e 7a37 f93c 2a35
000001c0: bcfe 4631 00f7 6237 eecc 8c37 307e 8632
000001d0: f444 6f38 79d3 a337 24bd 8a32 8e74 6038
000001e0: a52b 8635 3186 f32f 3574 3132 db76 9035
000001f0: 1928 eb2f bfad fa31 120e 2337 140b da31
00000200: 88c1 8b37 a702 3a37 d466 d631 8f00 8637
00000210: 7836 5331 b024 be2d 0eb1 fa2e 1b9e 7931
00000220: 65b8 822d 3b89 232e 4ad5 2633 61c2 1730
00000230: 952b fe32 94a2 3f33 0253 4c30 a834 9531
00000240: c61a 9633 26cf 0e31 1e0e 0c37 efbc a132
00000250: 5ee8 1831 7e5c f836 f590 8436 2159 0431
00000260: 0a13 7336 a110 9236 065d 0731 d870 7536
00000270: 96e3 b135 df4c d930 f258 5233 be7e c635
00000280: 2f83 0531 a148 2e31 a739 1c35 127b 8731
00000290: 80e5 a937 2d27 5935 ebce 8931 b5e6 9937
000002a0: 344b 7e32 ce3d 1f2e 3ab1 2e30 10b7 9432
000002b0: eb9c 162e 5ff1 1f2f 043a 1537 3bce c031
000002c0: 6e44 8437 97f9 2837 b01d c031 72ea 7c37
000002d0: 61b7 cc37 a130 6b32 6186 0538 3a45 e637
000002e0: d341 6132 6649 0538 9dc3 9238 10bc 3833
000002f0: ad1d b638 d9ba a638 6cf5 3133 fee4 b138
00000300: e60f 7f35 f7db f931 6e2e 2238 1756 ae35
00000310: 407e 0532 5c0e 1138 a23c 6d37 cf65 5832
00000320: fac4 5138 2c16 8537 4d36 6332 a0a2 4338
00000330: d151 a135 8909 0b32 7960 4738 8a93 d235
00000340: 6b65 1432 72cc 3138 f1b3 7037 a3a6 cc31
00000350: d917 8335 1d47 8337 c6ae c331 0596 a935
00000360: 8b5c 3034 026d e32e 8af1 5731 faee 3e34
00000370: 594a 032f 03b4 3029 9783 3134 9ff0 1031
00000380: 634b 3037 66fe 9e33 f27a 2131 ab02 1b37
00000390: 7c25 8835 40bb 1230 eff8 5631 a22b 9935
000003a0: 2c9e 1030 f3de ca2e 6a7d 5334 75c2 f430
000003b0: aa9d 0837 84ce 8834 c111 0331 c62d f636
000003c0: 4e62 8237 9894 e531 8269 d936 b627 9037
000003d0: 5b64 d431 a5f4 e836 c087 c533 52bf 1c31
000003e0: 6e56 2837 9356 b132 d438 1e31 e7a3 1637
000003f0: 7e33 d536 c5af 7331 cdb1 6f36 8a8c e836
2.0250884e-07 8.083561e-10 3.426189e-06 1.7435701e-07 8.205615e-10 3.0713434e-06 3.772516e-10 4.0150674e-11
6.6502265e-10 2.2739431e-10 2.301205e-11 4.7222193e-10 7.7265344e-05 4.1080693e-08 9.39961e-05 8.722112e-05
4.1529134e-08 9.3521645e-05 5.8317532e-06 7.987575e-09 3.368743e-05 6.8734707e-06 8.485698e-09 3.1288426e-05
4.9002306e-06 5.4269074e-09 2.1260681e-05 5.49976e-06 5.535243e-09 1.9419074e-05 6.6342004e-08 1.8040034e-09
8.44057e-06 1.4774362e-08 1.7714079e-09 7.6087945e-06 1.079379e-07 2.91229e-10 1.3179497e-08 1.1746009e-07
3.297161e-10 3.963763e-09 1.44170335e-05 5.6849316e-09 1.4218837e-06 1.5742313e-05 5.3783844e-09 1.7413162e-06
2.472552e-09 4.966861e-12 2.593467e-10 2.7322606e-09 6.1974835e-12 1.0313927e-10 1.3040778e-08 4.9769033e-11
1.3019195e-09 1.4175807e-08 4.3489014e-11 6.3155486e-10 2.5325497e-05 1.2102462e-08 1.9449708e-05 2.8183575e-05
1.2569243e-08 1.9571917e-05 1.8759778e-05 1.0842704e-08 1.8266788e-05 2.0956477e-05 1.0372333e-08 1.7971564e-05
3.6293972e-07 1.3084566e-09 3.825734e-06 3.1955682e-07 1.0542721e-09 3.596498e-06 1.551589e-09 1.2675436e-10
6.1384576e-08 9.1565533e-10 1.0337751e-10 5.4082292e-08 3.5223177e-10 3.5982554e-11 7.43692e-09 3.037338e-10
3.5868978e-11 5.453231e-09 6.242457e-08 7.9127684e-11 4.7357767e-09 7.155425e-08 1.05597114e-10 2.7703082e-09
9.45014e-06 6.110187e-09 2.4721407e-05 1.0695229e-05 6.356056e-09 2.4071405e-05 1.8329649e-05 7.074613e-09
1.6951616e-06 2.0090662e-05 6.793937e-09 2.0263926e-06 4.6314156e-07 2.7204166e-09 1.4930652e-05 6.341866e-07
2.8957592e-09 1.3528159e-05 1.6784728e-05 1.5657037e-08 5.7046258e-05 1.9529589e-05 1.6151326e-08 5.351431e-05
9.99648e-07 4.429679e-10 1.0329178e-08 1.0763428e-06 4.2774742e-10 7.2957103e-09 9.718833e-06 6.3458945e-09
1.6660211e-05 1.10870815e-05 6.23991e-09 1.5974305e-05 3.0735503e-09 2.1616792e-11 1.1400135e-10 3.6324141e-09
1.4861177e-11 3.7183794e-11 3.8843872e-08 5.520971e-10 2.958931e-08 4.4618517e-08 7.433273e-10 4.342457e-09
6.9897894e-08 2.078147e-09 8.347937e-06 1.8828784e-08 2.2250997e-09 7.4017435e-06 3.950782e-06 1.9259192e-09
3.6220904e-06 4.353075e-06 1.9697963e-09 3.6573529e-06 1.3253764e-06 1.5810676e-09 4.897533e-08 1.4789036e-06
1.9428616e-09 2.5361617e-09 5.8198424e-07 3.9430086e-09 2.025324e-05 8.089581e-07 4.0107486e-09 1.8346453e-05
1.4801845e-08 3.6207308e-11 6.3552685e-10 1.7312715e-08 3.4245422e-11 1.4546718e-10 8.8946e-06 5.611381e-09
1.5767491e-05 1.00716925e-05 5.5913105e-09 1.50749565e-05 2.4404088e-05 1.3689857e-08 3.183482e-05 2.7450373e-05
1.311169e-08 3.177803e-05 6.998258e-05 4.301188e-08 8.683964e-05 7.9503e-05 4.1434234e-08 8.482671e-05
9.501804e-07 7.271861e-09 3.866705e-05 1.2989066e-06 7.770325e-09 3.4584067e-05 1.4140418e-05 1.2596003e-08
5.001293e-05 1.586516e-05 1.3225486e-08 4.664308e-05 1.2019246e-06 8.093033e-09 4.7535144e-05 1.5689159e-06
8.637794e-09 4.2390493e-05 1.4347011e-05 5.956126e-09 9.767201e-07 1.5649532e-05 5.6951164e-09 1.2635143e-06
1.6424944e-07 1.03421285e-10 3.1423917e-09 1.7782068e-07 1.1940794e-10 3.9235986e-14 1.6532282e-07 2.1091535e-09
1.050797e-05 7.403723e-08 2.349847e-09 9.239341e-06 1.0143699e-06 5.338059e-10 3.12826e-09 1.1412087e-06
5.261167e-10 9.2255e-11 1.9696532e-07 1.7808605e-09 8.142941e-06 2.5482234e-07 1.90731e-09 7.3367e-06
1.5542984e-05 6.6816703e-09 6.4793867e-06 1.718463e-05 6.181421e-09 6.942619e-06 9.19822e-08 2.280974e-09
1.0033704e-05 2.0644881e-08 2.302433e-09 8.978858e-06 6.353889e-06 3.5461067e-09 3.571727e-06 6.9304997e-06

exp_avg f4 [128]
00000000: c5b4 f7b7 d3eb 45b3 98c9 9a36 599e 12b8
00000010: 85c6 d5b7 ce52 73b6 2c0d 5036 733f 2fb8
00000020: 5ae1 2cb6 af3c ea36 9d2e ffb7 5045 1d38
00000030: 1b02 9037 26df 2837 7b0d 4ab6 48d2 9cb7
00000040: d574 7bb7 9e0c 7bb8 d0e0 dcb7 374c 0538
00000050: d167 9637 d5bd 32b8 6a76 e6b5 a85f c637
00000060: ed7a 6db6 3789 ab34 169c 2238 521e 2fb7
00000070: d202 5436 787a deb7 f14c c0b7 fbba 72b8
00000080: 6de9 c8b7 6be9 1f37 2362 87b7 9a3d 7938
00000090: 8881 4136 f433 9cb7 a6b3 b137 6438 5a37
000000a0: c754 3f38 2d60 1bb6 38de 2637 284b aab7
000000b0: 46bc 0a38 db08 21b8 fb07 c236 c90f 8b37
000000c0: e31b 60b7 c7fe 1e36 f01d a637 8317 3fb7
000000d0: e6d9 9d37 3cc0 86b8 7f28 cf37 242a d736
000000e0: 8f7c 58b8 8018 dc36 27c2 4335 0c50 6e36
000000f0: 3575 ad37 42fa d2b6 3116 8f37 64ed 8238
00000100: 1e79 9e38 34bd bf37 82e1 7937 22ba 4eb8
00000110: d3be 4537 e8bb 27b6 a979 4c36 a60b 46b8
00000120: 6786 e7b6 8cbf b036 0909 6036 01f9 fbb6
00000130: 4811 b6b7 7b3d ad38 a458 1437 ab64 1f35
00000140: cb3c 3037 228c 2f37 1788 6136 f487 c3b6
00000150: 2fa9 df37 f8e1 fa36 36ac fcb4 8243 d7b6
00000160: 5ae6 1eb6 aefc 1e38 d099 72b6 fcfb b737
00000170: 961c e5b7 e5fb 1936 ba01 98b6 00ab 6937
00000180: f501 88b7 4c7c ad38 5889 c1b7 236f ef35
00000190: 5ff7 16b8 e032 d335 5757 05b5 1c8c dc37
000001a0: e8a2 13b7 d805 22b8 b6e0 0838 7ac2 93b7
000001b0: 4883 7c36 0e5f 4cb7 aefe dfb6 defc c4b7
000001c0: b08b 2037 3d27 5637 460d 49b8 c128 88b4
000001d0: e3d9 b4b7 7a04 3037 bd47 66b8 7bd4 9f38
000001e0: f45d 9035 29e6 21b7 e3ad 0d36 955b 99b6
000001f0: ede9 3bb6 f1d7 b138 4b27 a137 f3a1 e5b6
-2.9528872e-05 -4.6082118e-08 4.6130262e-06 -3.4956585e-05 -2.5484022e-05 -3.625802e-06 3.1002082e-06 -4.1782343e-05
-2.576117e-06 6.980808e-06 -3.0420075e-05 3.749627e-05 1.7167118e-05 1.0065536e-05 -3.0108192e-06 -1.8694569e-05
-1.4987968e-05 -5.9854814e-05 -2.633073e-05 3.178065e-05 1.7929737e-05 -4.2615302e-05 -1.7170798e-06 2.3647983e-05
-3.5387304e-06 3.195107e-07 3.8769176e-05 -1.0437872e-05 3.1592103e-06 -2.6521491e-05 -2.2924012e-05 -5.7871435e-05
-2.3950555e-05 9.531485e-06 -1.6138953e-05 5.9423597e-05 2.8834638e-06 -1.8620842e-05 2.11837e-05 1.3006942e-05
4.5616904e-05 -2.3152782e-06 9.94611e-06 -2.0300577e-05 3.3077107e-05 -3.839364e-05 5.7825796e-06 1.6577442e-05
-1.3357933e-05 2.3692135e-06 1.9802683e-05 -1.1389961e-05 1.8817325e-05 -6.425424e-05 2.469518e-05 6.412405e-06
-5.1614417e-05 6.559363e-06 7.292569e-07 3.5511357e-06 2.0677786e-05 -6.2876215e-06 1.7057262e-05 6.2431005e-05
7.556587e-05 2.2857079e-05 1.4894062e-05 -4.9287577e-05 1.1786545e-05 -2.4994315e-06 3.0469184e-06 -4.7217727e-05
-6.899983e-06 5.2675077e-06 3.338386e-06 -7.509371e-06 -2.1704138e-05 8.2607345e-05 8.842126e-06 5.9378607e-07
1.0504572e-05 1.046344e-05 3.3606827e-06 -5.82728e-06 2.6662454e-05 7.476887e-06 -4.7063958e-07 -6.4153583e-06
-2.3677917e-06 3.790546e-05 -3.615034e-06 2.193264e-05 -2.7312239e-05 2.2945399e-06 -4.530154e-06 1.3927696e-05
-1.6213375e-05 8.272435e-05 -2.3071349e-05 1.7839233e-06 -3.599317e-05 1.5735532e-06 -4.967346e-07 2.6291287e-05
-8.799812e-06 -3.8629252e-05 3.2634205e-05 -1.7614326e-05 3.7627342e-06 -1.2181479e-05 -6.6755665e-06 -2.3482771e-05
9.569267e-06 1.276453e-05 -4.7934496e-05 -2.5361626e-07 -2.1559134e-05 1.049146e-05 -5.4903085e-05 7.6212884e-05
1.075618e-06 -9.649936e-06 2.1111853e-06 -4.570417e-06 -2.8001334e-06 8.48024e-05 1.9210993e-05 -6.843585e-06

exp_avg_sq f4 [128]
00000000: e08d 6131 896a ca2e c55d 3234 7fc8 1133
00000010: 8530 be32 de75 f331 6b43 b530 c7cc b832
00000020: f70d da2d 4744 3f2f 1cf0 5733 fe31 3233
00000030: eae5 9031 5c54 e32f e0c0 1d2f e335 e82f
00000040: 7564 da32 1b70 e932 bcfe 4632 24bd 8a33
00000050: 1728 eb30 d266 d632 66b8 822e 0553 4c31
00000060: 60e8 1832 075d 0732 2e83 0532 e9ce 8932
00000070: eb9c 162f b01d c032 d341 6133 6af5 3134
00000080: 417e 0533 4c36 6333 6a65 1433 c6ae c332
00000090: 594a 0330 f27a 2132 2c9e 1031 c211 0332
000000a0: 5b64 d432 d438 1e32 60a1 7b32 5a29 2c33
000000b0: 11dd 3f32 6afc b732 891c 0a32 52a6 db32
000000c0: c322 0434 8528 2e34 b7d3 9031 c5d9 dc33
000000d0: b3a3 1132 ca31 5433 0c24 4733 2096 8031
000000e0: d0ae ce33 169d cd32 1f5b 012f e82d f42f
000000f0: 1c45 8333 191c 462f 53a4 ab31 6e6e 7033
00000100: 2a75 6b33 3e77 e931 630f 1a32 bcf4 b733
00000110: ea04 7432 a8d0 612e a367 232f ac75 0d33
00000120: 1867 b731 ff74 7030 1f25 e430 6b26 ce30
00000130: 1932 8e33 7ec5 ab33 1e21 1731 bd1f e932
00000140: 8e8a 6d32 e062 4533 5f72 6533 326d da31
00000150: 5218 d132 1d55 1831 818f 0b33 d185 c62e
00000160: f2b1 e02e 824f 4931 76a1 1233 77b9 e632
00000170: f32f 1034 9549 c831 33b3 db30 2dbe be32
00000180: 0962 f331 d435 9533 bc30 b633 127e 1032
00000190: 4589 0432 fa88 d12e 08e9 862f 8887 3a33
000001a0: 62f7 9930 116d f833 e7ca c833 a43f 8533
000001b0: 5569 9a32 094e f82e 2801 662f c7c3 f132
000001c0: a1d3 2631 4688 d232 d26e 5533 e5d1 2233
000001d0: 7894 1234 10cc ec32 98ca 6f33 d371 ae33
000001e0: 5243 0932 591a b731 e071 1c33 c514 712e
000001f0: a928 df32 9116 6134 4792 e132 5ea4 3c33
3.2822456e-09 9.204821e-11 1.6611655e-07 3.3942793e-08 2.2140975e-08 7.0856307e-09 1.3188645e-09 2.1513541e-08
2.4789932e-11 1.7395606e-10 5.0276967e-08 4.1489322e-08 4.21709e-09 4.1351e-10 1.434759e-10 4.2238843e-10
2.5424223e-08 2.717575e-08 1.1583037e-08 6.46053e-08 1.7109895e-09 2.4959636e-08 5.944471e-11 2.9733098e-09
8.9004e-09 7.879186e-09 7.771446e-09 1.6042991e-08 1.3698169e-10 2.2365242e-08 5.244676e-08 1.657369e-07
3.1081303e-08 5.290194e-08 3.455117e-08 2.2780466e-08 4.7763177e-10 9.399388e-09 2.1044668e-09 7.629241e-09
2.4725685e-08 9.209732e-09 1.4646815e-08 4.008448e-08 1.1167928e-08 2.1418789e-08 8.039145e-09 2.557059e-08
1.2306104e-07 1.6219754e-07 4.2150208e-09 1.02841604e-07 8.477332e-09 4.940538e-08 4.6366083e-08 3.7423575e-09
9.624421e-08 2.3936575e-08 1.1764854e-10 4.441596e-10 6.112734e-08 1.8017977e-10 4.9954365e-09 5.597979e-08
5.482176e-08 6.7947488e-09 8.967478e-09 8.5661185e-08 1.4203787e-08 5.13444e-11 1.4861583e-10 3.2936143e-08
5.3377214e-09 8.7477753e-10 1.6599734e-09 1.4999392e-09 6.621503e-08 7.9987316e-08 2.1992217e-09 2.7139203e-08
1.3826719e-08 4.5957563e-08 5.3422237e-08 6.357049e-09 2.4341862e-08 2.2167292e-09 3.2493976e-08 9.027768e-11
1.021795e-10 2.9294545e-09 3.4140122e-08 2.6859864e-08 1.3428489e-07 5.8291314e-09 1.5985279e-09 2.2205393e-08
7.083376e-09 6.9481445e-08 8.4839e-08 8.410568e-09 7.714623e-09 9.5285516e-11 2.4540037e-10 4.3429765e-08
1.1202526e-09 1.1568239e-07 9.3501335e-08 6.204871e-08 1.7975859e-08 1.1291596e-10 2.0918789e-10 2.8145122e-08
2.4276476e-09 2.4509188e-08 4.9693718e-08 3.7909462e-08 1.3651322e-07 2.7566813e-08 5.583078e-08 8.123211e-08
7.989756e-09 5.3289964e-09 3.642515e-08 5.4815503e-11 2.5979107e-08 2.0962968e-07 2.6259967e-08 4.3921652e-08
