results/ppo/MoveToGoal/MoveToGoal-18351.pt (torch, 439245 bytes, 36 tensors)

network_body._body_endoder.seq_layers.0.weight f4 [128, 6]
00000000: 078e 033f af42 983d 3d9b 5abc c0a7 08bd
00000010: 7723 b6be 7d50 fdbe 5f9d 173f d006 0cbe
00000020: 02ee c5be d5dd a93d ce95 01bf 478c a0be
00000030: da17 82bd 63df 99be 9f80 22be 974d 6d3e
00000040: e1ab 393d f3ca 043d e3ce f53d 3dcc 3c3e
00000050: 7776 8cbd 5644 323e 1c05 483e cade 98bd
00000060: 8038 fabd 211c cbbe 8a62 13be f039 8d3e
00000070: 1520 a83e 9a77 80bd 17af 7a3e fb1e 17bf
00000080: e5a0 e0be 20a4 6dbd 78cd 333e 2451 92be
00000090: 1773 743c 738e 1c3f e687 11be b91a 383f
000000a0: 4470 3d3e 36da 313e cbda 6ebe 4f2f 73bd
000000b0: 02d4 b33d f8b6 e9bd e5dd 5abe ce53 9c3d
000000c0: aaf1 a7be ae2e ad3e 02e5 f6bd 8635 e13c
000000d0: 3123 39bf 9bf5 04bc feb8 02bf 2909 993d
000000e0: fd8b ce3d 4e68 25bf 2372 343e f972 4fbd
000000f0: 549d f1bb 0053 a8bf 6ba2 65bf bc34 d0bd
00000100: 8f4a 9cbe 019e 523e 31e1 89bf 1f73 443e
00000110: cfe8 413f 21c4 0d3e d3a5 fdbd 207d 41be
00000120: 404d ea3d ee6a 52bd e253 febd f09c f2be
00000130: ec7d 69be 75eb 8fbd a20e 56bf 685e 03bf
00000140: c633 153f ab2f 4b3d 7db2 42bf db36 fabe
00000150: 8694 443e 6a49 a63d a246 733d be9b fbbd
00000160: afbe 9dbe a0c2 8b3e 6f95 863d 03ba 8f3d
00000170: 815e 1bbe 57f7 943e 86c0 cf3d 0990 96bd
00000180: d213 6fbe be84 8abd ef40 e03d 909e 44be
00000190: 58ac 9ebd ee3e 53bf 846d 34be d793 22bd
000001a0: 719c a7bd 1e95 683e 56f4 13bf 2bb8 09be
000001b0: 772b 17bf 5c49 1dbd 51ab f03e 1528 bebe
000001c0: 900b 663f f196 4cbe 644b 063f f96c 4c3f
000001d0: 1419 6a3e d6ea 013e a92d ad3e ea99 bbbc
000001e0: 4efa 32be 5cbb e63d 3bde 403e d251 48bd
000001f0: e422 23bf 840d 123f febc 8d3e 2573 91be
00000200: 4097 12bf dae6 0cbe 1f1a 0ebf 9478 153f
00000210: 7e2a 04bd d85c d23e 442e 413f e2e5 7dbe
00000220: a37a 87be b0f3 613e d6dc af3e 0506 4abe
00000230: 2a21 e83d df48 88be 3609 4f3f 3af4 773b
00000240: 88d3 acbd 311b 81bc f1e9 9b3d db59 4c3e
00000250: 6c56 a43d 1aa7 80be e700 b93e 1d60 693e
00000260: 4e22 a1be 8a7c df3e 4520 123f dcc8 0cbe
00000270: ad28 1ebe 4717 133f 332a 873f a1d6 0f3c
00000280: 2fe0 3a3d 8b6b 30bd f456 653e 2b3f 25be
00000290: 1318 e3be e4d3 9b3e 6dd5 37be 6681 d33e
000002a0: aba4 12bf 47b2 733e 99f8 10bf ae73 5b3f
000002b0: 9fae b93e 1a9f 5d3d 1dcb 3cbe 85d5 fb3e
000002c0: 3980 d33e d407 8c3c 5649 cebe 865a b9be
000002d0: 0790 15be ae3d 60bf 2dd4 30bf 60d0 253e
000002e0: 7a22 143d 9844 903d 9963 4a3f fca1 1a3f
000002f0: 98c8 b73e 9da8 233f 7ef5 0bbe 33c5 7abd
00000300: 41ca aa3d a61c c2be 42ff 8e3e bed5 ad3e
00000310: 35ce 103f b931 e43e 5ba0 4f3c 2513 bcbd
00000320: 47c1 0ebf 71b5 273f c400 893e b8a6 07bf
00000330: 27d7 d2bd 5ff4 7abd 4f32 97be 6a33 c3be
00000340: bf72 623e b4ac a93d adb5 f1bc b2f0 0abd
00000350: 4633 573d aea1 e73e d054 41bf 1722 42bf
00000360: a3aa 033f f06d 39bd 7dff 253f 567c 363f
00000370: 43f4 26bf 3164 9c3e 2b33 10be 89de b7be
00000380: 0f0b 5dbe 7ee9 903e b1c3 bf3e 1fe8 e4bd
00000390: 9144 10be c6dd 4d3f b58e 023f d1b7 43bd
000003a0: bcb3 123b be80 6c3e cc16 3c3d 94b1 2ebf
000003b0: 7b62 82bc c6e6 063f 966e 4ebf ed4a dd3e
000003c0: dbd6 b53d 7813 823e c5e9 85be bc3c d7be
000003d0: 8742 8a3d 659c 9a3e 466b ba3e 4344 613e
000003e0: 4aab 9cbd 8b4b df3d 7ac1 d5bd 7e38 3bbe
000003f0: d6ad bf3d 24e8 c53e f804 d83e efd7 ba3e
0.5138859 0.07434594 -0.013342676 -0.033363104 -0.35573933 -0.4947547 0.59224504 -0.13674474
-0.38658148 0.08294264 -0.5061921 -0.31357023 -0.063522056 -0.30053243 -0.15869378 0.2317413
0.045329932 0.03242011 0.12002351 0.18437286 -0.06858533 0.1740888 0.19533199 -0.07464369
-0.12217808 -0.39669898 -0.14393058 0.27583265 0.32836977 -0.06272812 0.24480854 -0.5903165
-0.43872753 -0.05801785 0.17558849 -0.2857753 0.014920018 0.6115486 -0.14211997 0.71915776
0.18499857 0.17368397 -0.2332565 -0.05937129 0.08780672 -0.11411852 -0.21373709 0.07633172
-0.32801563 0.33824676 -0.120553985 0.027491342 -0.7231932 -0.0081151975 -0.51063526 0.0747245
0.100852944 -0.6461228 0.17621665 -0.050646756 -0.0073734913 -1.315033 -0.89700955 -0.10166308
-0.30525634 0.20568086 -1.0771848 0.1918454 0.7574586 0.13844348 -0.12385144 -0.18895388
0.114405155 -0.051371507 -0.12418343 -0.4738536 -0.22801942 -0.07027332 -0.8361608 -0.5131593
0.58282125 0.049606007 -0.760536 -0.48869976 0.19197282 0.08119471 0.059393533 -0.12285565
-0.30809543 0.27296925 0.06571471 0.07017901 -0.15172769 0.29094955 0.10144143 -0.07351691
-0.23347405 -0.067636 0.10949885 -0.19201112 -0.07747716 -0.825179 -0.17619902 -0.039691772
-0.08184136 0.22713134 -0.577947 -0.13449161 -0.590507 -0.03840004 0.47005704 -0.37139955
0.8986139 -0.19979455 0.52458787 0.7985378 0.22861129 0.12687239 0.33823898 -0.02290054
-0.17478296 0.11266205 0.18834774 -0.048906155 -0.63725114 0.57051873 0.27683252 -0.2840816
-0.5726204 -0.13759938 -0.5550861 0.5838711 -0.032267086 0.4108646 0.7546122 -0.24794725
-0.26460752 0.22065616 0.34348172 -0.19728859 0.113344505 -0.26618096 0.8087343 0.003783478
-0.08438784 -0.015760036 0.0761298 0.19956152 0.08024296 -0.25127488 0.361335 0.2279057
-0.31471485 0.43649703 0.5708049 -0.13748497 -0.15445204 0.57457393 1.0559753 0.008779199
0.045623954 -0.04307131 0.22396451 -0.16137378 -0.44354305 0.30435097 -0.17952509 0.4130966
-0.57282513 0.23798476 -0.5662933 0.8572339 0.36266038 0.05410681 -0.18436857 0.4918634
0.41308764 0.017093576 -0.40290326 -0.36201876 -0.14605723 -0.87594116 -0.69073755 0.1619277
0.036165692 0.07044333 0.79058224 0.6040342 0.35895228 0.6392916 -0.13667867 -0.06122322
0.08339358 -0.37912482 0.2792912 0.33952135 0.56564647 0.44569185 0.012672509 -0.09183339
-0.5576367 0.6551123 0.26758397 -0.5298877 -0.10294943 -0.061268207 -0.2953057 -0.38125163
0.22114085 0.08284894 -0.029505575 -0.03392095 0.052539133 0.4524054 -0.7552004 -0.75833267
0.51432246 -0.04527086 0.6484297 0.7128347 -0.65216464 0.3054519 -0.14082019 -0.35911968
-0.2158625 0.2830314 0.37453988 -0.11177086 -0.14088656 0.80416524 0.50999004 -0.047782723
0.0022384962 0.23095986 0.04592018 -0.6823971 -0.0159161 0.5269588 -0.8063749 0.43221226
0.08878871 0.25405478 -0.26154914 -0.42038524 0.0675097 0.30197445 0.36409968 0.21998696
-0.07649858 0.109030806 -0.10437293 -0.18283269 0.093593284 0.38653672 0.4219129 0.3649287

network_body._body_endoder.seq_layers.0.bias f4 [128]
00000000: ff02 ab3b 1608 aeb9 baaa 52bb b10f 43bb
00000010: 16f7 b83a 4586 21ba 0300 c83a 7235 3b3b
00000020: 62c6 363b 2b08 b0ba d877 8f3a 7252 2abb
00000030: f631 40bb 0c38 44bb 623c 6a3b e7c6 40bb
00000040: fdcb e1ba 448f 1b3b 61c3 1dbb 1dea 003a
00000050: 5dae 123b 336d babb c2f2 1a3b a370 4cbb
00000060: a1f0 61bb 8a81 8fbb ddda ce3a fdce 8e3b
00000070: ca53 85bb 9331 0dbb b59d b8ba b404 adba
00000080: 0114 333b 5ac3 083b 3621 20bb ae26 3a3b
00000090: a408 5d3b 2e07 75bb 21cf 34bb d914 453b
000000a0: 4930 6dbb 8d48 873b 8b82 c1ba f920 0c3b
000000b0: a740 3d3b 973c 833b 8b0f 183b 590c 50bb
000000c0: 7a6e 443a 26c6 9638 150c 8e3b d682 333b
000000d0: 842c a23a 25f5 d63b b982 4a3b db37 edbb
000000e0: 47fb b13a b548 88bb b0f2 7c3a b16d a13b
000000f0: abcb d33a 7887 223b b953 7aba 6626 5f3b
00000100: c021 603b 45b2 25bb a739 133b 5305 2c3b
00000110: b8fd 2fba e414 513b 3674 b53b ac40 3ebb
00000120: 7125 cdbb f678 8e3b 7f96 efbb be85 193b
00000130: ade2 dbbb f691 9bbb 3a5b 95bb 46c9 ae3a
00000140: 32e4 ac3b 3b6e bf3b 642d 5bbb 1ee7 d839
00000150: f7c3 13bb feef 8aba 8cf3 ae3a 74a3 133b
00000160: 8f6c 25bb 6a79 19bb 0de3 b83a b3ff 24bb
00000170: c28a 3d39 32e0 0abb ab23 93ba a741 63bb
00000180: 41d3 5dbb 979e 5bbb a207 983a 9ed9 633a
00000190: 56fd 2ebb 692e 3d3b 9981 683b 5a1a 4dbb
000001a0: 2351 f1ba 0e1f a0bb 0260 2c3b a219 a1bb
000001b0: 7310 8239 6da2 9fb9 0f41 f1b7 006f 4fbb
000001c0: c276 a3bb 4565 bf3b 4016 9c3b 4c8c 043b
000001d0: 8a46 39ba 14b0 56bb 64be c0b7 730c a7ba
000001e0: 7e93 03bb 43eb cdbb d600 ccba d483 503b
000001f0: 429a 553b dafa 94bb d78f 7d3a 3b02 9e3b
0.005218863 -0.0003319389 -0.0032145218 -0.0029763991 0.0014111723 -0.00061616703 0.0015258793 0.0028565791
0.0027889241 -0.0013430169 0.001094575 -0.0025989083 -0.0029326654 -0.0029940633 0.0035741557 -0.002941543
-0.0017226931 0.0023736516 -0.0024072754 0.0004917698 0.002238176 -0.005689287 0.002364323 -0.0031195066
-0.0034475701 -0.004379456 0.0015781779 0.004358171 -0.0040688263 -0.002154444 -0.0014085086 -0.0013200254
0.0027325156 0.0020868392 -0.0024433858 0.0028404403 0.0033727074 -0.0037388313 -0.0027589279 0.003007224
-0.003619211 0.004128522 -0.0014763636 0.0021381958 0.0028877647 0.0040050256 0.0023202624 -0.003174564
0.0007493269 7.1894654e-05 0.0043349364 0.0027391217 0.0012372886 0.006559985 0.003090067 -0.0072393245
0.0013578915 -0.004159058 0.00096492004 0.0049264063 0.001615872 0.0024799984 -0.0009549219 0.0034049987
0.0034199804 -0.002528326 0.0022464783 0.002624829 -0.0006713527 0.003190332 0.005537535 -0.0029030247
-0.006260567 0.0043479158 -0.0073116417 0.0023425664 -0.0067103715 -0.0047476245 -0.004557994 0.0013335131
0.0052762264 0.005841998 -0.0033443803 0.00041370926 -0.0022547224 -0.0010600088 0.0013347729 0.0022527846
-0.0025241708 -0.0023418316 0.0014105752 -0.0025176823 0.00018076136 -0.002119076 -0.001122584 -0.0034676583
-0.003384784 -0.0033511275 0.0011598954 0.000869179 -0.0026701293 0.0028866774 0.0035477637 -0.0031296224
-0.0018411021 -0.0048865145 0.0026302342 -0.0049163857 0.00024807788 -0.0003044786 -2.8759734e-05 -0.0031651855
-0.0049885223 0.0058409297 0.0047633946 0.0020225225 -0.0007067701 -0.003275876 -2.2976841e-05 -0.0012744799
-0.0020076926 -0.006284149 -0.0015564214 0.0031816857 0.0032593166 -0.0045465054 0.0009672618 0.0048220432

network_body._body_endoder.seq_layers.2.weight f4 [128, 128]
00000000: 01d1 25be 0608 683d 8415 e93d ea3c c93d
00000010: 911e 2a3d 8961 0a3e 45c6 a53d adb4 f2bd
00000020: 5886 0dbb 3855 d0bc a7b5 e4bd 8297 8dbc
00000030: 449d d6bc d80d 1c3d cf64 c63d 5337 513d
00000040: cf95 053b 86bf c0bd c59c 293e c985 023e
00000050: 0380 a0bd 180f 113e 0404 5dbd f91f 7fbe
00000060: 75f6 903d 6a41 313e 9585 e43c 88c1 0a3c
00000070: eef9 f7bd a8ed 25be ed6c caba 2825 e13d
00000080: e4fb 663d 47c8 cebc 498d b53d 3371 983d
00000090: b958 173d 8b28 acba 2139 a2bd 280a 98bc
000000a0: fa1f f5bd 5a5b 37be 89fd 19bd f060 813c
000000b0: 46c2 7bbe c430 833d b8db 0b3d 7130 ae3a
000000c0: 6988 a5bc fae2 973c d609 12bd 0733 d8bd
000000d0: 6bca a53d d614 223d 0ce7 0fbe fc6e df3d
000000e0: b5fa 9dbd 28c0 813d b40d ba3d 868b 183d
000000f0: 38c7 1ebd 0b86 803d 83bb b2bd ad71 893d
00000100: ed7c d23d 563d 9f3d 7011 85bc 58f5 f1bd
00000110: 0c4a 803c 973b 1bbe 9c4d c8bc cd02 9d3c
00000120: 87aa 0f3d 92c6 01be b16e f73c 19ab c53c
00000130: 346d 11be 3119 ed3d 28ff 7e3a 64f2 ec3c
00000140: 27a4 8b3d 9289 1fbd 955d dc3d cc6c a73d
00000150: 1acf acbd a095 ba3d 6f2f af3d 9861 ee3d
00000160: 8a7c b13d 01c9 97bc a906 2b3d a3bd 853d
00000170: b5a8 67bc 37af 46bc 1a0d c23d ef2d 9cbd
00000180: 1149 4dbd 730a 81bc 4171 78be 4c46 61bd
00000190: 4c9a 90bc a1f8 1dbd 158f 10be 81cd debd
000001a0: 5b10 273d 70ff 23bd ff98 033d a9a5 b4bd
000001b0: b198 4dbd 9c5a a7bd 4e47 0d3e f789 69bd
000001c0: 89a6 83bd 2a20 9fbd 91c9 00be 5b89 a7bd
000001d0: 741b 94bd db82 c4bc 3355 c03a 5ada 9dbc
000001e0: bd52 22be 4c67 80bd e4fc b93b 5ece 4b3d
000001f0: 27c8 e8bc 164e c63c 9717 5d3b cf62 053d
00000200: 8323 2dbd c065 00be 43b5 a6bc a706 a33d
00000210: 8290 1bbd d9ee 803d 0721 4bbd 68f5 ca3c
00000220: ede4 7dbc 1795 59be 0c3f 33bd a73d 303c
00000230: c511 0ebd 1006 2abd 1f65 073d 6bab c2bd
00000240: 7052 81bd ac8f 98bd a021 513d dd27 553d
00000250: 4ffa adbd ee5c 0ebd 9639 d93d a0f7 793c
00000260: fb45 063d 2498 b23d 3c03 453d 3eb7 003e
00000270: e9bd 0fbe e1db 50bd 7a84 203e 88df 21be
00000280: b3ad a3bd db8e 993d a648 35bd a894 3cbd
00000290: 929a 21b9 2f19 38bd 6e2c 1fbd 66de 9b3c
000002a0: 51ac a13d d692 373a 27a7 933c 6e19 053e
000002b0: 5bf7 563d d1ca 91bd 565c aebd c7a6 2d3e
000002c0: 8261 23bc b40b ebbc 8908 2cbd 7c67 dc3b
000002d0: e693 53bd 38e2 473d d9c8 0b3c 0a62 07be
000002e0: 0399 e63c 4587 68bd 803f cdbc 8cef d0bd
000002f0: b069 3cbe c317 6b3b b8e3 1cbd d288 32bd
00000300: f676 2c3c a83f a23c aec1 c0bd f5ea 803c
00000310: a321 02be 1d72 7bbd b7f7 ca3d 1c32 2dbd
00000320: cef3 293d ca2a 50bd 19c4 37bd 62d7 963d
00000330: 673c 5f3d 1c13 943d f865 01be 1068 28bd
00000340: 7657 75bc 2c46 49be cb6d c2bd 2271 4f3e
00000350: aa41 893d 0ced 753d 5e3f 90bc 124c 92bd
00000360: 1abd 4b3e f3e6 13be c3c6 d7bc 3ee3 b8bd
00000370: 3071 963b 50dd 1a3d b3c6 0b3e bcfe 323c
00000380: 75ae a1bd 79f8 ea3d d150 513d bdcb fd3b
00000390: 372a 663e 122d e13d cb08 a83d aa52 143e
000003a0: fde0 96bc e406 dbbd 8496 66bd 384e 043c
000003b0: 23a9 003e 6436 a23c 9f03 06be de40 cebd
000003c0: 2351 88bc f05e 113e f9fe 05bd b155 8dbd
000003d0: 4cb5 45be d908 bfbd 2bc0 96bd 63a4 d0bb
000003e0: e69a 51be 8eab bcbd 6747 6dbc 43b6 c1bd
000003f0: 3615 6cbd 9808 82bd 0858 22be cfe7 c1bc
-0.1619301 0.056648277 0.11381057 0.098260716 0.041533057 0.13513769 0.080944575 -0.118508674
-0.0021594968 -0.02543126 -0.1116746 -0.017284159 -0.026198037 0.03809914 0.096871965 0.051078152
0.0020383482 -0.0941153 0.16563709 0.12746347 -0.07836916 0.14165914 -0.053958908 -0.2491454
0.07078258 0.1731011 0.027895728 0.008468993 -0.12108217 -0.1620394 -0.0015443839 0.10993415
0.056392565 -0.025241984 0.08864839 0.07443466 0.036949847 -0.0013134641 -0.07921053 -0.01855953
-0.1196899 -0.17905942 -0.037595306 0.015793294 -0.24585828 0.06405786 0.034145087 0.0013289583
-0.020206647 0.018540848 -0.03565391 -0.10556608 0.08095249 0.039570652 -0.14052981 0.109098405
-0.07713834 0.06335479 0.09084645 0.037242435 -0.03876421 0.06275567 -0.08727171 0.06711135
0.10277734 0.07775371 -0.016243666 -0.11814374 0.015660308 -0.1515945 -0.02445107 0.019166375
0.035074737 -0.12673405 0.030204149 0.024129437 -0.14201814 0.115770705 0.00097273523 0.028924175
0.06818419 -0.038949557 0.10760037 0.08175048 -0.08437939 0.0911057 0.08553969 0.11639708
0.08666332 -0.018528463 0.0417544 0.06530311 -0.014139344 -0.012126735 0.09475155 -0.07625949
-0.05011851 -0.015752053 -0.24261953 -0.05499868 -0.0176517 -0.03856719 -0.14117081 -0.108790405
0.040787082 -0.040038526 0.03212833 -0.0882066 -0.050194446 -0.08171579 0.13796732 -0.05701634
-0.064282484 -0.07769807 -0.12576891 -0.08180495 -0.07231799 -0.023988178 0.0014673829 -0.019269157
-0.15851875 -0.06269702 0.005675899 0.049757354 -0.028415753 0.024207156 0.0033735984 0.032564934
-0.042270195 -0.12538815 -0.020350104 0.07960253 -0.03797961 0.062955566 -0.049592044 0.024775222
-0.015496475 -0.2124828 -0.043761298 0.010756887 -0.034684915 -0.041509688 0.03305542 -0.09505352
-0.06314552 -0.07449278 0.051057458 0.05203997 -0.08495008 -0.034756593 0.10606687 0.015256792
0.032781582 0.08720425 0.048098788 0.12569901 -0.14037289 -0.050990943 0.15675536 -0.15807927
-0.07992115 0.07497951 -0.044258736 -0.046040207 -0.00015411738 -0.044945892 -0.03886073 0.019026946
0.07894195 0.0007002776 0.01802404 0.12997982 0.05248199 -0.07118762 -0.085137054 0.16958152
-0.009971978 -0.028692104 -0.042000327 0.0067262035 -0.05165472 0.048799723 0.0085317725 -0.13220993
0.028149134 -0.056769628 -0.025054693 -0.1020194 -0.18399692 0.0035872317 -0.038303107 -0.043587513
0.010526409 0.019805744 -0.094119415 0.015737036 -0.12708144 -0.061388124 0.09910529 -0.042284116
0.041492276 -0.050822057 -0.044864748 0.073653 0.054500964 0.07230207 -0.12636554 -0.041114867
-0.014974466 -0.19655675 -0.094935976 0.20258 0.067019776 0.06004052 -0.01760834 -0.071434155
0.19896355 -0.14443569 -0.026339894 -0.09027718 0.0045911297 0.037808716 0.13650016 0.010924991
-0.07894603 0.11473174 0.051102463 0.0077452348 0.22477041 0.109949246 0.08204802 0.14484659
-0.01841783 -0.10694674 -0.056295887 0.008075289 0.1256452 0.019801326 -0.13087319 -0.10070966
-0.016640252 0.14196372 -0.032713864 -0.0690111 -0.1930744 -0.093278594 -0.07360872 -0.0063672527
-0.20469245 -0.09212409 -0.014482356 -0.09458592 -0.057637416 -0.063492954 -0.15853894 -0.023670105

network_body._body_endoder.seq_layers.2.bias f4 [128]
00000000: 8354 33bb 3c15 b6b8 382a b5bb c92e 33bb
00000010: 1298 023b a455 743b fd2a f73a 1f3d 183b
00000020: ffc7 0f3b 1c7a 31bb d3c1 253b 5d0a 23bb
00000030: 9b6a 8abb 60f5 523b 4302 aa3b d4a8 023b
00000040: 0e6b b3bb cc52 0d3b 2f15 4d3b 0fad 193b
00000050: 444f 0b3b 340d 5ebb 6a5d 70bb 4f88 453b
00000060: 6dfa 343b 43ca a3ba 78cd 283b f273 03ba
00000070: 8855 84bb a4d5 0dbb 4ddd 5dbb 8de7 543b
00000080: d05d 213b 5f6f 34bb e310 28bb 9ead c9bb
00000090: 9e60 5f3b 043a 343b 7055 f73a 326d 40bb
000000a0: 423d 2fbb db6e 4fbb c28d 5cbb ee80 343b
000000b0: e1ee 83bb 70c0 83ba 7da9 0e3b b5b4 3ebb
000000c0: da29 46bb 954c d8b9 b005 7fbb c6b6 69ba
000000d0: b96a 7e3a abbb 8dbb 8665 42bb 6737 12bb
000000e0: 4452 61bb 89ea 34bb 5f8c 303b d160 f4b9
000000f0: c9d9 0d3b 3f67 88bb 9e41 81bb e273 29bb
00000100: 9b2f 1e3a d6da 24bb 6225 303b 0312 7cbb
00000110: 60f6 2a3b c615 97bb c16a ed3a 71fe 4ebb
00000120: 7d68 3dbb 478b 2fbb b87e 803b b0b0 d53a
00000130: bad5 3fbb ed4f 073b b9d8 83bb 13a4 4d3b
00000140: 948d 453b 06af 1b3b 28af 4bbb 9e67 533b
00000150: 2ff1 f8bb 5562 c2bb 9e67 35bb b991 2a3b
00000160: 4c81 67bb d3c6 823b 57f7 02bb 8ce7 993b
00000170: 1878 9abb 642c 6e3b 5b57 3d3b ac67 3dbb
00000180: 428f 7bbb f66f 023b dad5 f63a 33a7 35bb
00000190: 06de 2cbb f31e aaba 55db 09bb 423c 1d3b
000001a0: d95c d83a 61f2 2ebb 3251 50bb 80ef 2939
000001b0: bc2f 3a3b 36e4 143b 52b2 59bb cac3 b63a
000001c0: 83e6 dd38 e90d 633b a12d 853b d74d 1c3b
000001d0: 083f 123b 7eb0 3d3b 5ae4 08bb 1ca6 443b
000001e0: 9bb6 623b e38b 9e3b 14f8 8c3b 3595 263b
000001f0: 488c 773b b97f 5cbb 47b1 56bb 0ba0 42bb
-0.0027363605 -8.6823915e-05 -0.0055287145 -0.0027341119 0.0019927067 0.003728249 0.0018857416 0.002322979
0.0021939275 -0.002708084 0.002529253 -0.0024878003 -0.004224134 0.0032189712 0.005188258 0.0019937055
-0.0054754084 0.0021564243 0.0031293144 0.0023449098 0.0021256963 -0.0033882381 -0.0036676773 0.003014106
0.0027615086 -0.0012496192 0.0025757235 -0.00050145306 -0.0040385164 -0.0021642232 -0.003385383 0.0032486648
0.0024622567 -0.0027532203 -0.002564483 -0.00615473 0.0034084688 0.00275004 0.0018870067 -0.002936196
-0.0026739393 -0.0031651768 -0.003365383 0.0027542668 -0.0040262793 -0.0010051858 0.0021768503 -0.002909941
-0.0030237348 -0.00041255789 -0.0038913302 -0.000891548 0.0009705234 -0.0043253503 -0.0029662563 -0.0022310854
-0.003438131 -0.0027605614 0.0026939136 -0.0004661144 0.0021644703 -0.0041626985 -0.0039445898 -0.0025856425
0.00060343154 -0.002515485 0.002687775 -0.0038462884 0.0026086792 -0.00461075 0.001811348 -0.0031584764
-0.0028901391 -0.0026785897 0.003921356 0.0016303267 -0.0029271678 0.0020647005 -0.004023638 0.0031378313
0.0030144202 0.0023755445 -0.0031079743 0.0032257806 -0.0075971107 -0.0059321322 -0.002768017 0.00260268
-0.003532487 0.003990987 -0.0019983852 0.004696792 -0.0047140233 0.0036342377 0.002889118 -0.0028900905
-0.003838495 0.001990316 0.0018832043 -0.0027718067 -0.0026377453 -0.0012979194 -0.0021035273 0.0023992215
0.0016507163 -0.0026694762 -0.0031786677 0.00016206317 0.00284098 0.0022719032 -0.003321786 0.0013943848
0.00010581037 0.0034645742 0.0040642773 0.0023850107 0.0022315402 0.002894431 -0.0020888061 0.0030006235
0.0034593705 0.004838453 0.004302034 0.0025418524 0.0037772823 -0.0033645465 -0.0032759474 -0.0029697444

action_model._continuous_distribution.log_sigma f4 [1, 2]
00000000: 8c6b b2bb b943 79ba
-0.0054449495 -0.00095086877

action_model._continuous_distribution.mu.weight f4 [2, 128]
00000000: a8d3 50bc 6c35 6c3c 0722 c6bc 065b 88bc
00000010: 1759 37bb b4f0 a83b 2417 35bc ff87 c73b
00000020: 541c 2d3c 9ce4 febc f04e 813b 6aca f0bb
00000030: f0aa 0cbd 5966 023c 9417 04bb 2080 023c
00000040: 251e 21bc 4816 dd3b ea44 1b3c 521b 063d
00000050: 262a 823c 6dd9 53bb b805 9b3a 7fd0 c03c
00000060: bad9 453b eb44 a03a 2f62 153c f343 583c
00000070: a77d 72bc 45eb 95bb e06b bebc fa7c 033c
00000080: 9b03 d13c 4d68 2abc 1837 f73a 50e5 5bbb
00000090: d31e 2c3c db75 483c 9f7f 023b 719a 63bc
000000a0: 0a1a 9fbb 9887 a2bc 0a78 c23a 047a 413c
000000b0: 592e 023c 6f8e 763b f372 873c c8f0 80bc
000000c0: 06ca 03ba 3138 e5bc 6465 f8ba ba1d 6c3b
000000d0: 6521 af3b 1426 3fbb 9b27 54bc 069b 07bd
000000e0: 3565 b2bb f29f f7bb 67ec ac3c 967b 1f3b
000000f0: a33b 9f3c a690 77bb 52ca 2cbc 7384 53bc
00000100: c64c 7ebc bcf2 b53b 3085 753c ea08 dbba
00000110: 90e5 9c3c eef8 313c debf d03b c177 1a3a
00000120: 4bb7 06bc d087 b1bc 3995 003b 116a 923b
00000130: fabf 17bb c8ac 003c 932a a0ba 1dec c23c
00000140: b703 c73c 2de9 483c df6b a9bb e5ee 833c
00000150: 7096 6fbc a4f5 54bc 35b6 12bd d514 1b3c
00000160: eeaf 433c 3b2c b83b 2a7b c7bc 412b a13a
00000170: de89 c0bb fd2f 2b3b 29d8 2c3c bf69 96bb
00000180: 3d60 21bb 896b ad39 fcad f8bb eba3 aabc
00000190: 3f6c 20bc 9a51 1cbc 0be1 9abc 74f0 a53c
000001a0: c19c 823b d4de 45bc 9a14 04bd 1044 3a3c
000001b0: 66c6 233c 233a 22bc b457 8b3b 17ce 113c
000001c0: 7c70 a9bc d5ca c13c 7530 cebb 1e81 983b
000001d0: 7418 1a3d 9bd9 563d 0a47 d5bb 0d4c d63c
000001e0: eaf8 8c3b bf59 453c c345 02bc ec57 873c
000001f0: 8a3e 97bb 3213 c2bc b8ab fabb cdc9 1bbd
00000200: 3730 243c 8bd2 ba3c f86b 233d cbfc 15bc
00000210: d7f3 86bc d862 ffbb f5ad 97bc ad1e 11bc
00000220: a34d beba d23d 8ebc 3fbc 4dbc b6c9 13bc
00000230: c06b dd3c 98fe 4ebc 0f41 c6bb cd86 8bba
00000240: 0d33 90bb 9942 933c d30f 97bb 0215 243c
00000250: 38fe 53bc 2e38 813c 1f7d 833c e077 c8bc
00000260: 7419 97bc 9255 593c 8f6b dfbb c8a7 cc3c
00000270: e65f d43c 5b00 803b 113d febb 3444 08bc
00000280: 5d4e e2bc 64fa 1ebc eaf1 a93c fc20 473c
00000290: b7c4 e0bb 43c8 9cbc 1179 06bb 0c8d 40bb
000002a0: 1bbc d13c 02ee ff3b 5c82 d53c 24b5 3f3c
000002b0: bd54 b13b 40f8 833c 5bb7 6abc 453e ec3c
000002c0: cbe0 093b b068 30bd 4c26 aa39 33b2 72bb
000002d0: 0bd3 c03a d94b 163d 2374 d23c 6e43 e33b
000002e0: e722 91bb 49c0 113d 3dc3 383c a5d3 b03b
000002f0: 8289 073c 94d7 a23b 7574 6b3d 406b f53b
00000300: 1893 d5bc 9722 fc3c 8449 adbc 6860 793b
00000310: 430b 7cb9 f2a9 063d 0228 98ba c34d 673c
00000320: 62ef 52bc 0cff c6bc a55c 0cbc a56c d7ba
00000330: 097e e43a fd55 063c f132 6b39 2dfd 9dbc
00000340: 2c0b 8e3b bc8e 86bc fde7 d83b 1bf0 93bb
00000350: 0f8b b73b b074 453c 3538 66bc 4a94 f7bb
00000360: a34f 283d a858 9f3a 74a3 b3bb c147 3abc
00000370: 7d3a 0f3d 1d0f 0d3c f327 2c3c e312 64ba
00000380: d689 f43b 609e 45bc c5d0 23bc 70c4 98bc
00000390: 61d5 19bc 9d33 c8bb 664a 153c ace8 e63c
000003a0: 700e 18bb 0466 393c 352c 953b 7b6c ba3c
000003b0: fc24 14bc d3f1 7ebc 4f58 e73c b41d e53b
000003c0: ab1d 50bd 066e 6ebc 6525 39bc 885f 60bc
000003d0: e0a8 6c3c e944 91bc 41e2 6bbc 115a 733a
000003e0: b149 723b eb03 80bc 5121 b4bb 960d e2bb
000003f0: 7ce3 93bc 08b0 ec3a 6fa8 2bbc b2a4 c6bc
-0.012745775 0.014417034 -0.024186147 -0.016644966 -0.0027976686 0.005155647 -0.01105288 0.00608921
0.010565836 -0.031114869 0.0039461777 -0.0073483484 -0.034342706 0.007958972 -0.0020155655 0.007965118
-0.009833847 0.006747041 0.00947688 0.0327409 0.015889239 -0.003232564 0.0011827266 0.023536919
0.003018959 0.001222757 0.009117647 0.013199794 -0.014800466 -0.0045751655 -0.023244798 0.008025402
0.025514415 -0.010400844 0.0018861024 -0.003355343 0.010505396 0.01223513 0.0019912494 -0.013891802
-0.004855399 -0.019840047 0.00148368 0.011808876 0.00794562 0.0037621518 0.016534304 -0.015739813
-0.0005027357 -0.027980896 -0.0018951115 0.003602846 0.005344557 -0.0029166983 -0.012948896 -0.033106826
-0.0054441937 -0.0075569088 0.02110882 0.0024335138 0.019437617 -0.0037775426 -0.010546284 -0.012909996
-0.015521234 0.005552618 0.014985368 -0.0016711031 0.019152433 0.010862572 0.0063705286 0.00058924785
-0.008222411 -0.021671206 0.0019620194 0.0044682105 -0.0023155198 0.007853694 -0.0012219719 0.023794228
0.024293764 0.012262625 -0.00517033 0.016105125 -0.014623269 -0.012998018 -0.035818297 0.009465416
0.0119438 0.005620507 -0.024350721 0.0012296216 -0.00587581 0.0026121133 0.0105495835 -0.0045902426
-0.0024624013 0.0003307725 -0.0075891 -0.020830115 -0.009791433 -0.00954094 -0.018906137 0.020256259
0.0039859717 -0.012077052 -0.03224621 0.011368766 0.009996032 -0.009901556 0.0042523984 0.008899233
-0.02068352 0.023656288 -0.0062923976 0.004654064 0.037620977 0.05245362 -0.0065087127 0.02615931
0.004302134 0.012045323 -0.007951203 0.016521417 -0.0046156095 -0.023690794 -0.007649865 -0.03803425
0.010021261 0.022805473 0.03989789 -0.009154509 -0.016473694 -0.0077937655 -0.018515566 -0.008857411
-0.0014518987 -0.017363463 -0.012557088 -0.00902026 0.027028918 -0.012633942 -0.006050236 -0.0010645032
-0.004400617 0.017976092 -0.0046100407 0.010014774 -0.012939028 0.015773859 0.016050873 -0.024471223
-0.018444754 0.01326503 -0.006818242 0.024982348 0.025924634 0.0039062924 -0.0077587445 -0.008317042
-0.027625257 -0.009703252 0.020745236 0.01215386 -0.0068593877 -0.019138461 -0.0020518939 -0.0029380945
0.025602391 0.007810355 0.026063137 0.011700902 0.005411713 0.016109586 -0.014325942 0.028838286
0.0021038528 -0.043068588 0.0003245346 -0.0037032485 0.0014711333 0.036693428 0.025690144 0.0069355285
-0.0044292095 0.035583768 0.011277017 0.0053963237 0.0082725305 0.0049695466 0.05748411 0.007489592
-0.026071116 0.030778212 -0.021153219 0.0038051847 -0.00024036788 0.032876916 -0.0011608603 0.014117661
-0.012874456 -0.024291538 -0.00856701 -0.0016435577 0.0017432581 0.008199212 0.00022430324 -0.019285763
0.004334828 -0.016425483 0.006619452 -0.004514707 0.005601294 0.012051746 -0.014051487 -0.007555519
0.041091572 0.0012157159 -0.0054821316 -0.0113696465 0.03496789 0.00860956 0.0105075715 -0.0008700324
0.0074627204 -0.012061685 -0.009998505 -0.018648356 -0.009389252 -0.0061096684 0.009111976 0.028187118
-0.0023201965 0.011315826 0.004552389 0.022756806 -0.009042021 -0.015560585 0.028240351 0.0069920663
-0.050809544 -0.014552599 -0.011300419 -0.013694651 0.01444456 -0.017733054 -0.014397205 0.00092831353
0.0036970193 -0.015626868 -0.0054971357 -0.006898592 -0.018052809 0.0018057832 -0.010477169 -0.024248455

action_model._continuous_distribution.mu.bias f4 [2]
00000000: 4084 373b eae1 59bb
0.002800241 -0.0033246228

exp_avg f4 [128, 6]
00000000: aaa0 3237 df43 22b7 c655 4136 36e8 ecb7
00000010: df43 22b7 0000 0000 c9c6 18b7 2eeb fc36
00000020: 530d 4fb6 72a1 b837 2eeb fc36 0000 0000
00000030: 59f4 7438 2a7b 7d34 2dc7 99b7 830a 3935
00000040: 2a7b 7d34 0000 0000 c4f7 e038 3f91 41b6
00000050: d8c7 c4b7 f34d 0db7 3f91 41b6 0000 0000
00000060: d703 73b7 29eb 78b7 aa78 2837 eab5 35b8
00000070: 29eb 78b7 0000 0000 12b0 b5b5 b5ff 1537
00000080: 6f04 c9b6 93ff da37 b5ff 1537 0000 0000
00000090: 5953 6cb9 15ef a835 9d89 5a38 94a5 7636
000000a0: 15ef a835 0000 0000 7078 95b8 fe98 b037
000000b0: 2051 cf36 92ea 8038 fe98 b037 0000 0000
000000c0: b180 90b8 3ef1 b736 6a5b 6837 2747 8637
000000d0: 3ef1 b736 0000 0000 03ca 4139 78fc 16b8
000000e0: 1706 b9b7 9870 dcb8 78fc 16b8 0000 0000
000000f0: 23cd 81b7 13a1 d736 8cf0 18b6 c968 9d37
00000100: 13a1 d736 0000 0000 00ab e438 23e7 5cb7
00000110: 1186 acb7 5142 21b8 23e7 5cb7 0000 0000
00000120: 39a0 0f36 ad1b 3434 95b0 dfb4 9b7a 0335
00000130: ad1b 3434 0000 0000 4a2a 9836 d3db 3536
00000140: d9a8 5bb6 c0c1 0437 d3db 3536 0000 0000
00000150: b874 a3b7 1159 64b6 8c1d d736 a9b1 26b7
00000160: 1159 64b6 0000 0000 b894 8eb5 aaed 4f37
00000170: 5ca3 cab6 a8c9 1738 aaed 4f37 0000 0000
00000180: 5a81 2339 e485 10b8 dbdb 91b7 ed00 d3b8
00000190: e485 10b8 0000 0000 9968 79b9 40fd 0238
000001a0: 6743 1d38 8f3e bf38 40fd 0238 0000 0000
000001b0: e272 bfb8 9efd cf37 7512 a336 4dd5 9738
000001c0: 9efd cf37 0000 0000 d96c 98b8 19b2 2738
000001d0: 1ba5 1fb6 f5d5 f438 19b2 2738 0000 0000
000001e0: 02d4 a9b8 479e 0637 ab12 7637 ee8a c437
000001f0: 479e 0637 0000 0000 99c8 4ab7 47ed 3d37
00000200: 40e0 deb6 8aa5 0a38 47ed 3d37 0000 0000
00000210: 9f9f 6fb8 23c2 2b37 e162 a336 67c4 fa37
00000220: 23c2 2b37 0000 0000 f1f2 a637 8dc7 83b5
00000230: f5cc 7ab6 dc65 40b6 8dc7 83b5 0000 0000
00000240: c756 9a38 4124 d5b7 3f0b a3b6 ec97 9bb8
00000250: 4124 d5b7 0000 0000 abbb 9eb6 0d68 7937
00000260: 3d62 4fb7 1311 3638 0d68 7937 0000 0000
00000270: fac7 42b9 644a 5138 575e 4037 3bc8 1839
00000280: 644a 5138 0000 0000 10db 6db6 c355 0ab8
00000290: cb9a eb37 1cf8 c9b8 c355 0ab8 0000 0000
000002a0: 2d60 aab8 6b54 9338 3422 eab7 fb19 5739
000002b0: 6b54 9338 0000 0000 f709 7738 890c 11b7
000002c0: 1502 c5b6 84c5 d3b7 890c 11b7 0000 0000
000002d0: b338 6db8 7859 9536 3949 3c37 df0c 5a37
000002e0: 7859 9536 0000 0000 1977 10b8 b224 a4b7
000002f0: 9a30 b537 38a6 6fb8 b224 a4b7 0000 0000
00000300: 7456 1db9 f965 47b7 caeb 2438 968f 11b8
00000310: f965 47b7 0000 0000 bfac 2eb9 109b ec37
00000320: 343e c037 e2b8 ac38 109b ec37 0000 0000
00000330: 7fd0 ea38 c99f bdb6 c802 deb7 f46c 8ab7
00000340: c99f bdb6 0000 0000 ef7d 35b8 f620 05b8
00000350: 51c3 f437 355e c2b8 f620 05b8 0000 0000
00000360: 0541 90b8 8602 83b7 9b0e bd37 4046 3fb8
00000370: 8602 83b7 0000 0000 b697 71b7 64c6 0038
00000380: 54a7 9fb7 f002 bc38 64c6 0038 0000 0000
00000390: b057 d038 4994 1ab8 2701 6cb6 8baf e1b8
000003a0: 4994 1ab8 0000 0000 2d4f 15b8 f312 62b6
000003b0: afbb 2637 b608 25b7 f312 62b6 0000 0000
000003c0: 68a9 a937 0d8b 1936 bba2 ebb6 4d2c e036
000003d0: 0d8b 1936 0000 0000 19e1 dab7 d7f8 c5b7
000003e0: 8d5c c737 0585 90b8 d7f8 c5b7 0000 0000
000003f0: 64d8 c938 7a67 15b8 62f7 c432 5121 dab8
1.0647034e-05 -9.671755e-06 2.8809168e-06 -2.8241524e-05 -9.671755e-06 0.0 -9.106189e-06 7.5375638e-06
-3.085316e-06 2.2009688e-05 7.5375638e-06 0.0 5.84017e-05 2.3607268e-07 -1.833177e-05 6.8933167e-07
2.3607268e-07 0.0 0.00010727302 -2.8843785e-06 -2.345808e-05 -8.422404e-06 -2.8843785e-06 0.0
-1.4484823e-05 -1.4836704e-05 1.0041675e-05 -4.3323183e-05 -1.4836704e-05 0.0 -1.3536794e-06 8.9406285e-06
-5.990783e-06 2.6106636e-05 8.9406285e-06 0.0 -0.00022537763 1.2586557e-06 5.2103413e-05 3.6753236e-06
1.2586557e-06 0.0 -7.127307e-05 2.1052077e-05 6.178525e-06 6.147208e-05 2.1052077e-05 0.0
-6.890426e-05 5.4819093e-06 1.3849562e-05 1.6007178e-05 5.4819093e-06 0.0 0.0001848117 -3.5997917e-05
-2.2056554e-05 -0.0001051139 -3.5997917e-05 0.0 -1.5473523e-05 6.426251e-06 -2.2789782e-06 1.8764653e-05
6.426251e-06 0.0 0.000109037384 -1.3166838e-05 -2.0566427e-05 -3.8447153e-05 -1.3166838e-05 0.0
2.1401922e-06 1.6773875e-07 -4.1665467e-07 4.897972e-07 1.6773875e-07 0.0 4.534876e-06 2.7099056e-06
-3.2731825e-06 7.912924e-06 2.7099056e-06 0.0 -1.9485466e-05 -3.402649e-06 6.410939e-06 -9.935736e-06
-3.402649e-06 0.0 -1.0623107e-06 1.2393497e-05 -6.0390867e-06 3.6189012e-05 1.2393497e-05 0.0
0.00015593079 -3.445697e-05 -1.7387725e-05 -0.000100614365 -3.445697e-05 0.0 -0.00023785456 3.1230273e-05
3.749449e-05 9.119242e-05 3.1230273e-05 0.0 -9.128988e-05 2.4794423e-05 4.8599272e-06 7.2399715e-05
2.4794423e-05 0.0 -7.268199e-05 3.998177e-05 -2.378895e-06 0.00011674679 3.998177e-05 0.0
-8.0980375e-05 8.023874e-06 1.4667089e-05 2.3429715e-05 8.023874e-06 0.0 -1.20868435e-05 1.1320523e-05
-6.6422217e-06 3.3055934e-05 1.1320523e-05 0.0 -5.71307e-05 1.0237595e-05 4.8692896e-06 2.989378e-05
1.0237595e-05 0.0 1.990187e-05 -9.818338e-07 -3.7372204e-06 -2.866952e-06 -9.818338e-07 0.0
7.359456e-05 -2.540846e-05 -4.8590878e-06 -7.4192736e-05 -2.540846e-05 0.0 -4.7306144e-06 1.4865783e-05
-1.2361034e-05 4.3408083e-05 1.4865783e-05 0.0 -0.00018575779 4.9898765e-05 1.1466057e-05 0.00014570441
4.9898765e-05 0.0 -3.5443263e-06 -3.2981636e-05 2.8086264e-05 -9.630641e-05 -3.2981636e-05 0.0
-8.124146e-05 7.02523e-05 -2.79109e-05 0.00020513676 7.02523e-05 0.0 5.889867e-05 -8.645592e-06
-5.8713e-06 -2.5245135e-05 -8.645592e-06 0.0 -5.655801e-05 4.4509616e-06 1.1222722e-05 1.2996809e-05
4.4509616e-06 0.0 -3.4443194e-05 -1.9567411e-05 2.1599513e-05 -5.7136844e-05 -1.9567411e-05 0.0
-0.00015004893 -1.1885067e-05 3.9320243e-05 -3.470442e-05 -1.1885067e-05 0.0 -0.00016658286 2.8205599e-05
2.291715e-05 8.236036e-05 2.8205599e-05 0.0 0.00011196825 -5.6512404e-06 -2.6465757e-05 -1.6501617e-05
-5.6512404e-06 0.0 -4.3271048e-05 -3.174037e-05 2.9178018e-05 -9.268188e-05 -3.174037e-05 0.0
-6.878566e-05 -1.5617592e-05 2.2537357e-05 -4.5603374e-05 -1.5617592e-05 0.0 -1.4400042e-05 3.0702344e-05
-1.9032195e-05 8.965086e-05 3.0702344e-05 0.0 9.934546e-05 -3.6854562e-05 -3.5167411e-06 -0.000107615335
-3.6854562e-05 0.0 -3.5598106e-05 -3.3687654e-06 9.9380695e-06 -9.836795e-06 -3.3687654e-06 0.0
2.0225256e-05 2.2879715e-06 -7.02249e-06 6.6808775e-06 2.2879715e-06 0.0 -2.6092444e-05 -2.3600105e-05
2.3765746e-05 -6.891232e-05 -2.3600105e-05 0.0 9.624733e-05 -3.562074e-05 2.29299e-08 -0.00010401256

exp_avg_sq f4 [128, 6]
00000000: 8897 6d2e 04a9 b32d 0cbe 972b 5c7b 3f2f
00000010: 04a9 b32d 0000 0000 e75b 542d 7a66 e02c
00000020: a6ca e12b 732a 6f2e 7a66 e02c 0000 0000
00000030: cfbe 0d31 46e8 b62f 5153 062e 4ef1 4231
00000040: 46e8 b62f 0000 0000 aaaa 9531 9163 3030
00000050: 05ff 372e ccfe bb31 9163 3030 0000 0000
00000060: d2f6 9830 7d96 212f 075b 8d2d 6738 ac30
00000070: 7d96 212f 0000 0000 770f 8f2e 8a4c 3e2d
00000080: 6bf9 f62b 1bd2 ca2e 8a4c 3e2d 0000 0000
00000090: ac4e 4332 854c 9730 a447 e52e 1e41 2132
000000a0: 854c 9730 0000 0000 c0ed 0031 1140 992f
000000b0: 1ae8 872d 8855 2331 1140 992f 0000 0000
000000c0: 23aa c230 7536 5d2f cec1 882d bcc4 eb30
000000d0: 7536 5d2f 0000 0000 2af9 9031 2b79 f02f
000000e0: da75 c82d f125 8031 2b79 f02f 0000 0000
000000f0: e03b 552e b986 0d2d e98c 2b2c bad6 962e
00000100: b986 0d2d 0000 0000 a32f 8331 c591 1530
00000110: 8973 ef2d 3c69 9f31 c591 1530 0000 0000
00000120: b0ec c02b 35d1 512a 8c43 a428 919f df2b
00000130: 35d1 512a 0000 0000 f2be 052f 23e8 872d
00000140: 3871 b92b 79d9 102f 23e8 872d 0000 0000
00000150: 56ef a12f 8b15 642e a2fa 5b2c 9517 f32f
00000160: 8b15 642e 0000 0000 9567 a130 8460 332f
00000170: 2a03 912d 162e bf30 8460 332f 0000 0000
00000180: d5f9 4131 ed53 c02f 416d b62d abfb 4c31
00000190: ed53 c02f 0000 0000 d764 3e32 fd8d c230
000001a0: ba02 c42e 365b 4f32 fd8d c230 0000 0000
000001b0: 41e8 4730 0b19 9c2e b108 912c 7b5e 2630
000001c0: 0b19 9c2e 0000 0000 7905 2531 f541 e32f
000001d0: 873b 502e 1536 7231 f541 e32f 0000 0000
000001e0: 5f03 1731 2b47 932f 3cfb 8d2d 0df8 1c31
000001f0: 2b47 932f 0000 0000 1f45 f82d e654 302d
00000200: 8a83 562c 2bef bb2e e654 302d 0000 0000
00000210: a915 4630 adde d32e 36ce 0c2c 96cf 6130
00000220: adde d32e 0000 0000 618c ed2e 792e 972d
00000230: f6de 722b 1921 212f 792e 972d 0000 0000
00000240: 925d 9031 5648 3230 b44e 372e 7903 be31
00000250: 5648 3230 0000 0000 67be 0f30 99ff de2e
00000260: 07bd a72d f7ab 6d30 99ff de2e 0000 0000
00000270: 9127 8b31 dcc8 0630 19c1 ab2d 4aa7 8f31
00000280: dcc8 0630 0000 0000 1b72 5030 80fe 262f
00000290: e621 0b2e 7bfb b130 80fe 262f 0000 0000
000002a0: bec6 0b32 d951 d230 171f 0e2f a428 6032
000002b0: d951 d230 0000 0000 09f0 5230 3aed ca2e
000002c0: 0db5 5d2c 7947 5830 3aed ca2e 0000 0000
000002d0: e9fe 3d30 103e 822e 207c ba2c f9cf 0a30
000002e0: 103e 822e 0000 0000 383e 7730 42a7 f42e
000002f0: 0164 9f2d 3360 8230 42a7 f42e 0000 0000
00000300: 2a0e 2632 839f aa30 86ad be2e a2d9 3532
00000310: 839f aa30 0000 0000 a6af 6631 785e ec2f
00000320: 7f7e 1e2e 11ec 7b31 785e ec2f 0000 0000
00000330: 466e 5e31 a530 e12f ea73 1d2e f001 7031
00000340: a530 e12f 0000 0000 cdb5 9531 4729 1d30
00000350: e109 742e a180 a731 4729 1d30 0000 0000
00000360: 1307 0931 fece b62f 5f77 ba2d 64d6 4231
00000370: fece b62f 0000 0000 01e8 1531 a482 c42f
00000380: 141e 272e d470 5131 a482 c42f 0000 0000
00000390: d519 6831 cd50 0a30 03ec b12d b16a 9331
000003a0: cd50 0a30 0000 0000 22c1 0130 dd44 902e
000003b0: b6f1 a92c 0ec3 1930 dd44 902e 0000 0000
000003c0: 0480 682f 9983 172e cc0c 902c d17b a12f
000003d0: 9983 172e 0000 0000 14a2 0531 e744 e62f
000003e0: 9f03 192e bb6b 7531 e744 e62f 0000 0000
000003f0: 0694 af30 7eda 452f 2ccd fc2c 4ddf d230
5.4022148e-11 2.0425002e-11 1.0781944e-12 1.7415175e-10 2.0425002e-11 0.0 1.2071211e-11 6.37784e-12
1.6043458e-12 5.438001e-11 6.37784e-12 0.0 2.0626663e-09 3.3270647e-10 3.0542072e-11 2.8367881e-09
3.3270647e-10 0.0 4.355873e-09 6.416992e-10 4.1835885e-11 5.4713833e-09 6.416992e-10 0.0
1.1129606e-09 1.4696329e-10 1.6070268e-11 1.2530678e-09 1.4696329e-10 0.0 6.505634e-11 1.0817245e-11
1.7548579e-12 9.223219e-11 1.0817245e-11 0.0 1.1368382e-08 1.1008444e-09 1.042644e-10 9.386239e-09
1.1008444e-09 0.0 1.8761597e-09 2.787606e-10 1.5450797e-11 2.376824e-09 2.787606e-10 0.0
1.4163714e-09 2.011918e-10 1.5547477e-11 1.7154416e-09 2.011918e-10 0.0 4.2192783e-09 4.374184e-10
2.2789704e-11 3.7296037e-09 4.374184e-10 0.0 4.8483773e-11 8.0448365e-12 2.4378782e-12 6.8593534e-11
8.0448365e-12 0.0 3.8180175e-09 5.4413035e-10 2.7222462e-11 4.639473e-09 5.4413035e-10 0.0
1.3708115e-12 1.8635512e-13 1.8236951e-14 1.5889392e-12 1.8635512e-13 0.0 1.2164117e-10 1.5450813e-11
1.3176465e-12 1.3173986e-10 1.5450813e-11 0.0 2.9455788e-10 5.1860332e-11 3.12609e-12 4.4218199e-10
5.1860332e-11 0.0 1.1743732e-09 1.6314244e-10 1.6485997e-11 1.3910177e-09 1.6314244e-10 0.0
2.822721e-09 3.498423e-10 2.0739523e-11 2.9828964e-09 3.498423e-10 0.0 1.1082384e-08 1.4155713e-09
8.9135324e-11 1.2069725e-08 1.4155713e-09 0.0 7.272583e-10 7.098507e-11 4.122113e-12 6.0524713e-10
7.098507e-11 0.0 2.401377e-09 4.1337925e-10 4.7346595e-11 3.5246377e-09 4.1337925e-10 0.0
2.1975308e-09 2.6789712e-10 1.6141415e-11 2.2841988e-09 2.6789712e-10 0.0 2.8225032e-11 1.0023293e-11
3.0484248e-12 8.54626e-11 1.0023293e-11 0.0 7.206276e-10 9.634724e-11 2.0009667e-12 8.214952e-10
9.634724e-11 0.0 1.08024485e-10 1.718735e-11 8.628509e-13 1.4654623e-10 1.718735e-11 0.0
4.2015893e-09 6.485882e-10 4.1679285e-11 5.5301226e-09 6.485882e-10 0.0 5.2293675e-10 1.01407945e-10
1.9069647e-11 8.6464474e-10 1.01407945e-10 0.0 4.0499306e-09 4.9034354e-10 1.9526202e-11 4.1808663e-09
4.9034354e-10 0.0 7.5832113e-10 1.5188029e-10 3.163505e-11 1.294992e-09 1.5188029e-10 0.0
8.136054e-09 1.5302773e-09 1.292587e-10 1.3047757e-08 1.5302773e-09 0.0 7.6738665e-10 9.2280364e-11
3.1506492e-12 7.868191e-10 9.2280364e-11 0.0 6.912005e-10 5.92274e-11 5.3002186e-12 5.0499654e-10
5.92274e-11 0.0 8.9946495e-10 1.1125546e-10 1.8120618e-11 9.486086e-10 1.1125546e-10 0.0
9.665692e-09 1.2414464e-09 8.6710236e-11 1.0585071e-08 1.2414464e-09 0.0 3.356925e-09 4.2995274e-10
3.6037392e-11 3.6659495e-09 4.2995274e-10 0.0 3.2367935e-09 4.0961826e-10 3.580062e-11 3.4925698e-09
4.0961826e-10 0.0 4.357139e-09 5.7174926e-10 5.548795e-11 4.874963e-09 5.7174926e-10 0.0
1.9940145e-09 3.3252684e-10 2.1198763e-11 2.8352583e-09 3.3252684e-10 0.0 2.1814233e-09 3.5745018e-10
3.799812e-11 3.0477638e-09 3.5745018e-10 0.0 3.3775127e-09 5.031893e-10 2.022738e-11 4.2903925e-09
5.031893e-10 0.0 4.7204385e-10 6.5605944e-11 4.830104e-12 5.5938265e-10 6.5605944e-11 0.0
2.1145757e-10 3.4450307e-11 4.094147e-12 2.9373706e-10 3.4450307e-11 0.0 1.9446178e-09 4.1885714e-10
3.479139e-11 3.571343e-09 4.1885714e-10 0.0 1.2774997e-09 1.799467e-10 7.1850494e-12 1.5342977e-09

exp_avg f4 [128]
00000000: df43 a2b7 2deb 7c37 2a7b fd34 4391 c1b6
00000010: 2beb f8b7 b5ff 9537 81ef 2836 ff98 3038
00000020: 40f1 3737 77fc 96b8 13a1 5737 22e7 dcb7
00000030: af1b b434 d1db b536 0f59 e4b6 aeed cf37
00000040: e585 90b8 40fd 8238 9ffd 4f38 1bb2 a738
00000050: 499e 8637 48ed bd37 24c2 ab37 8dc7 03b6
00000060: 4224 55b8 0d68 f937 644a d138 c555 8ab8
00000070: 6c54 1339 8a0c 91b7 7759 1537 b324 24b8
00000080: f665 c7b7 0f9b 6c38 ca9f 3db7 f720 85b8
00000090: 8702 03b8 65c6 8038 4994 9ab8 f412 e2b6
000000a0: 0e8b 9936 d7f8 45b8 7967 95b8 9367 ee38
000000b0: 66dd 6737 cbae 7636 064e 3737 7ed2 e236
000000c0: 614a d038 c493 1f37 5ec4 97b5 4b63 5d38
000000d0: 0284 c237 55e5 71b7 7f8b 92b8 03bd 0438
000000e0: 583f f737 33b3 91b6 3bee a1b7 5066 55b7
000000f0: 5e7a 9037 24cb 7d38 69f0 1fb7 6f76 f835
00000100: c6e8 dd37 6718 24b8 6280 4c37 da19 9437
00000110: d9d8 d1b8 4310 18b8 fb47 ccb7 b086 83b8
00000120: fe0f d137 6771 9bb7 4167 2c37 08b0 c638
00000130: fb8e 8437 f11f d236 0226 0838 9978 38b7
00000140: 9182 85b8 3c20 2db8 1dcf 8f34 d16b 9238
00000150: 5f26 2bb8 4890 6ab7 cfdf 7938 389a 9238
00000160: c118 1537 bfb3 a8b7 4b6f 1438 147c 10b8
00000170: 13e4 a937 d277 29b8 2c99 0038 bdc1 7bb8
00000180: 8fc1 37b7 5acd 0739 1586 8d38 9579 0438
00000190: 8b7d b6b6 0801 ecb7 69ed 4eb6 e1b4 07b7
000001a0: bb28 48b7 dcbd 6738 1cf4 6a37 6c4b f437
000001b0: cafe 1bb8 352f fdb6 3d28 8837 455b c5b5
000001c0: 3680 9138 973e 79b7 c063 c4b7 dbeb d038
000001d0: ed14 1337 21b6 1c37 6b96 aab6 d240 0fb7
000001e0: d4e3 1eb7 d3c7 a838 ea23 9c38 2790 6f37
000001f0: f3b3 50b6 90fb fe37 64b0 84b7 d043 64b8
-1.934351e-05 1.5075127e-05 4.7214536e-07 -5.768759e-06 -2.9673412e-05 1.7881257e-05 2.517336e-06 4.210416e-05
1.096382e-05 -7.1995826e-05 1.2852502e-05 -2.6333673e-05 3.3547755e-07 5.4198103e-06 -6.8052973e-06 2.4787001e-05
-6.891395e-05 6.2460545e-05 4.958885e-05 7.996355e-05 1.6047752e-05 2.2641048e-05 2.0475192e-05 -1.9636675e-06
-5.0816925e-05 2.9731566e-05 9.979753e-05 -6.5963286e-05 0.00014050462 -1.7291186e-05 8.901922e-06 -3.9134826e-05
-2.3770128e-05 5.6411194e-05 -1.1302482e-05 -6.3480744e-05 -3.1235188e-05 6.1404695e-05 -7.3709125e-05 -6.7375313e-06
4.5759434e-06 -4.720021e-05 -7.124147e-05 0.000113680166 1.3820221e-05 3.67586e-06 1.0925816e-05 6.7598294e-06
9.932067e-05 9.511543e-06 -1.1307527e-06 5.278298e-05 2.3188073e-05 -1.4418115e-05 -6.987806e-05 3.1647283e-05
2.9474191e-05 -4.3421983e-06 -1.930363e-05 -1.2719611e-05 1.722312e-05 6.050909e-05 -9.533113e-06 1.8511909e-06
2.6453647e-05 -3.9123373e-05 1.2189239e-05 1.7655013e-05 -0.000100062876 -3.625477e-05 -2.4352214e-05 -6.271654e-05
2.4922188e-05 -1.8530247e-05 1.027604e-05 9.474164e-05 1.5802207e-05 6.262206e-06 3.2460324e-05 -1.09953335e-05
-6.366254e-05 -4.1276435e-05 2.678652e-07 6.981905e-05 -4.0805313e-05 -1.398108e-05 5.9574664e-05 6.990548e-05
8.8868555e-06 -2.0110861e-05 3.53896e-05 -3.4447832e-05 2.0252575e-05 -4.040433e-05 3.066023e-05 -6.0023496e-05
-1.0952716e-05 0.00012951103 6.748379e-05 3.1584485e-05 -5.438638e-06 -2.8133873e-05 -3.0834583e-06 -8.088741e-06
-1.1930412e-05 5.5251512e-05 1.4004323e-05 2.9122188e-05 -3.719217e-05 -7.545483e-06 1.62312e-05 -1.4704207e-06
6.93802e-05 -1.4856129e-05 -2.341147e-05 9.9621444e-05 8.766755e-06 9.34073e-06 -5.0839058e-06 -8.538556e-06
-9.470579e-06 8.0480844e-05 7.445349e-05 1.4279073e-05 -3.109916e-06 3.0396302e-05 -1.5817765e-05 -5.442259e-05

exp_avg_sq f4 [128]
00000000: 04a9 b32e 7a66 e02d 45e8 b630 9163 3031
00000010: 7d96 2130 8b4c 3e2e 864c 9731 1240 9930
00000020: 7636 5d30 2a79 f030 bb86 0d2e c691 1531
00000030: 36d1 512b 22e8 872e 8a15 642f 8560 3330
00000040: ec53 c030 fb8d c231 0919 9c2f f541 e330
00000050: 2b47 9330 e754 302e acde d32f 7a2e 972e
00000060: 5648 3231 99ff de2f dcc8 0631 80fe 2630
00000070: d951 d231 38ed ca2f 103e 822f 43a7 f42f
00000080: 829f aa31 785e ec30 a530 e130 4829 1d31
00000090: ffce b630 a482 c430 ce50 0a31 de44 902f
000000a0: 9883 172f e844 e630 7eda 4530 bf73 3f32
000000b0: be93 b030 6e2e ea2e b76a 7c2e bc2e 0531
000000c0: e288 a430 4b81 2c2d e648 652c 20cc 5d31
000000d0: e0cb 3b2f a21a c42d 01ef 4232 111c 8e2e
000000e0: 0ac8 d830 1e83 c02f c6e1 0030 5582 122e
000000f0: 5918 ec30 9255 5832 d446 f02e 0409 112e
00000100: d07d 1830 9eae 6931 e952 0a2f e77d bb31
00000110: 2707 0531 cc3e bc30 8e79 822e bd73 dc30
00000120: bbbe 872e 6e99 2f2f 3d83 da2c 4217 9332
00000130: c368 902d 8b31 3e30 f63b 4430 a636 d72d
00000140: 540c 5930 4b6e 5d2f 8636 932f 8940 8030
00000150: 127c 0531 e162 252f ee62 a930 11a8 cb31
00000160: a5e1 7d30 5dcc a12f 625e 0130 0bf8 dc30
00000170: f214 c130 3765 1131 6202 de30 12e5 0c32
00000180: 0c77 f12f a7a7 9f31 0df4 2030 b12b 812f
00000190: cc5a 8b2d cbf2 dd30 8512 bc2d e159 6d31
000001a0: 7b1d 912e 9cf3 2630 c350 872e df6d cc2f
000001b0: d1c8 6a2f 1966 ea2c 06a8 ec2d 17ed 6f31
000001c0: d1eb dd2f f9bc 832d 6792 f72e 7566 1c31
000001d0: 5b5b e52c 551f ab30 e2ce c22c 18be 0d2f
000001e0: 2061 042f 1dbc 3e30 a295 6430 724d 652f
000001f0: e77f 502f c053 c52f 1881 0230 d2d0 5230
8.170001e-11 2.551136e-11 1.3308258e-09 2.5667968e-09 5.8785316e-10 4.3268982e-11 4.403378e-09 1.1150425e-09
8.0476725e-10 1.7496735e-09 3.2179353e-11 2.1765216e-09 7.4542054e-13 6.180324e-11 2.0744131e-10 6.5256983e-10
1.3993691e-09 5.6622844e-09 2.8394023e-10 1.653517e-09 1.0715885e-09 4.0093175e-11 3.8538894e-10 6.874941e-11
2.5943527e-09 4.0563178e-10 1.9613742e-09 6.0752114e-10 6.1211094e-09 3.691214e-10 2.369096e-10 4.4502188e-10
4.965785e-09 1.719811e-09 1.638473e-09 2.2869973e-09 1.3301075e-09 1.4298007e-09 2.0127575e-09 2.624238e-10
1.3780121e-10 1.6754287e-09 7.197868e-10 1.1143981e-08 1.2847676e-09 1.06493356e-10 5.7392948e-11 1.9380613e-09
1.1971475e-09 9.805777e-12 3.2583324e-12 3.2275764e-09 1.7079982e-10 2.2294448e-11 1.1346629e-08 6.462398e-11
1.5772923e-09 3.501776e-10 4.688697e-10 3.3312315e-11 1.717818e-09 1.2592311e-08 1.0926518e-10 3.297719e-11
5.547607e-10 3.400522e-09 1.2580482e-10 5.4567297e-09 1.9358113e-09 1.3696648e-09 5.933308e-11 1.6040002e-09
6.17297e-11 1.5970666e-10 6.210503e-12 1.7123629e-08 1.6417428e-11 6.9192e-10 7.1389594e-10 2.4466939e-11
7.896166e-10 2.0139017e-10 2.6777885e-10 9.331568e-10 1.9424573e-09 1.5041791e-10 1.2324486e-09 5.9271845e-09
9.2361524e-10 2.9430938e-10 4.706405e-10 1.6077605e-09 1.4048551e-09 2.115781e-09 1.6153303e-09 8.201157e-09
4.3922233e-10 4.646569e-09 5.855448e-10 2.3496008e-10 1.5842792e-11 1.6148872e-09 2.138135e-11 3.453913e-09
6.5990734e-11 6.073664e-10 6.1534354e-11 3.7185452e-10 2.135352e-10 6.662015e-12 2.6904711e-11 3.4913847e-09
4.0367223e-10 1.4976896e-11 1.1258266e-10 2.2759228e-09 6.518714e-12 1.2450793e-09 5.5367802e-12 1.289141e-10
1.2039836e-10 6.938892e-10 8.315856e-10 2.0854943e-10 1.896293e-10 3.58936e-10 4.747718e-10 7.6694306e-10
