results/ppo/MoveToGoal/MoveToGoal-2752.onnx (onnx, 71787 bytes, 6 tensors)

network_body._body_endoder.seq_layers.0.weight f4 [128, 1]
000000 0c 21 b3 3e 7d 46 1b 40 c8 bf 35 3f 1c 80 e4 ba
       0.3498615 2.4261773 0.7099576 -0.0017433199
000010 15 4b 74 bf 80 2c 89 3e b2 6c 2a 3f 0a dd 1f 3f
       -0.95427066 0.26791763 0.66572106 0.62446654
000020 e0 ed 00 3f 69 19 3b 3d 05 e3 ff be e6 11 22 bf
       0.5036297 0.04567853 -0.4997789 -0.6330856
000030 a9 51 99 bf c1 0f 07 c0 bf 41 6a 3f a3 85 0a 3f
       -1.1978046 -2.1103365 0.9150657 0.54110163
000040 3e 7f a6 3e ef d5 a9 3e 08 54 79 3f 96 d1 1a 3e
       0.32518953 0.3317103 0.97393847 0.15119013
000050 5f 55 63 3f 95 cd c8 be 63 21 9d 3c 76 8f be 3e
       0.8880214 -0.39219347 0.01918096 0.37218827
000060 10 24 e1 3e d8 57 cc be b8 15 9b 3f ee a6 7a bd
       0.43972826 -0.3991077 1.2116003 -0.061194353
000070 37 3e 54 3f 5d 1e 98 3f 0c f1 63 bf 7d 42 f4 3e
       0.8290743 1.1884266 -0.89039683 0.47706977
000080 8f 32 c2 bf e9 68 da 3f c0 3f 6c bf 51 f2 81 3f
       -1.5171679 1.7063266 -0.92284775 1.0152074
000090 14 ea 14 3d 82 54 44 3f e1 01 60 be b9 4a 3b 3e
       0.036356047 0.7669145 -0.21875717 0.18290223
0000a0 d4 2a a9 bf ee a1 8d bf 7f 92 60 3e a2 df 02 bf
       -1.3216195 -1.1065042 0.21930884 -0.51122487
0000b0 b8 90 90 bf 36 67 3e bf 18 aa d6 3f ca 3d bb 3f
       -1.1294165 -0.7437624 1.6770658 1.4628232
0000c0 ab be 76 be 9e 3c d6 bf e1 54 ba be 03 33 96 3f
       -0.24096172 -1.6737249 -0.36392882 1.1734318
0000d0 2c 42 97 3d dd 46 16 be 6e 33 ef 3f 44 3b 97 3e
       0.07385668 -0.1467547 1.868757 0.29537404
0000e0 8a e4 56 be c3 ac fa bd d6 34 73 3e f7 58 85 3f
       -0.20985618 -0.12239983 0.23750624 1.0417775
0000f0 9b 8f 4b bf 39 a3 39 3f 08 08 59 3e b3 c3 c0 3f
       -0.79516 0.72514683 0.2119447 1.5059723
000100 e0 9d 3f bf 75 df 7b 3f fe de 98 3e 55 df 8f 3e
       -0.74850273 0.98387843 0.2985763 0.28100076
000110 79 ef 07 40 0d 56 16 bf 3c 25 0f 3e b5 08 94 3f
       2.1239913 -0.58725053 0.13979048 1.1565157
000120 39 32 89 bf 6d 10 95 3f 52 f6 93 3d 3b 21 62 bf
       -1.0718452 1.1645638 0.07224716 -0.88331956
000130 2b 56 57 3f 53 2e b4 3f 99 02 c7 3e b8 e9 8b 3f
       0.84115857 1.4076637 0.3886917 1.09307
000140 76 a8 fb 3f 7b eb a4 3f 33 c3 6a bf 8f e0 29 c0
       1.9660785 1.2884363 -0.917041 -2.654331
000150 17 82 1d be 42 24 ec be 0b 5f 92 3f 24 93 88 bf
       -0.15381657 -0.46121413 1.1435255 -1.0669904
000160 15 a2 09 3f d7 aa 65 3f be 84 4b 3f 05 c2 23 be
       0.5376294 0.89713806 0.79499424 -0.15991981
000170 4a f7 c3 3e 95 01 72 bf ba 5c cd 3f de 24 b4 be
       0.38274604 -0.94533664 1.6043923 -0.35184377
000180 fe 95 5f 3f 6c 41 d3 be e1 7e 51 bf 0a f3 a5 3e
       0.87338245 -0.4126085 -0.81834227 0.32411987
000190 83 9c 65 3f ff d0 44 3f c4 4b 10 3f 59 ae 05 be
       0.8969194 0.768814 0.5636561 -0.1305479
0001a0 d7 e3 4b 3f f3 19 6a 3e 14 9a 6a bf b4 1f 50 3f
       0.7964453 0.22861461 -0.91641355 0.81298375
0001b0 08 39 3e 3f b0 35 62 3c 67 f8 a2 bf cf d5 26 c0
       0.7430577 0.013806745 -1.2732056 -2.6067998
0001c0 00 3a ba be 03 7d 58 3f fa 4a d5 bf 39 91 d4 bf
       -0.36372375 0.8456575 -1.6663506 -1.6606818
0001d0 b3 8c 43 40 1c 2b ca bf 0a aa 6a bf 91 0d 8c bf
       3.0554626 -1.5794406 -0.9166571 -1.094164
0001e0 6b c5 d9 bf db 74 76 3d 7b 7c 83 3f c2 a4 be bf
       -1.7013372 0.060170036 1.0272363 -1.489403
0001f0 7c 1d d6 bf 3d 8a 80 3c c6 f8 11 bf b8 84 99 3e
       -1.6727748 0.015690917 -0.57020223 0.2998407

network_body._body_endoder.seq_layers.0.bias f4 [128]
000000 00 00 00 00 00 00 00 00 00 00 00 00 00 00 00 00
       0.0 0.0 0.0 0.0
000010 00 00 00 00 00 00 00 00 00 00 00 00 00 00 00 00
       0.0 0.0 0.0 0.0
000020 00 00 00 00 00 00 00 00 00 00 00 00 00 00 00 00
       0.0 0.0 0.0 0.0
000030 00 00 00 00 00 00 00 00 00 00 00 00 00 00 00 00
       0.0 0.0 0.0 0.0
000040 00 00 00 00 00 00 00 00 00 00 00 00 00 00 00 00
       0.0 0.0 0.0 0.0
000050 00 00 00 00 00 00 00 00 00 00 00 00 00 00 00 00
       0.0 0.0 0.0 0.0
000060 00 00 00 00 00 00 00 00 00 00 00 00 00 00 00 00
       0.0 0.0 0.0 0.0
000070 00 00 00 00 00 00 00 00 00 00 00 00 00 00 00 00
       0.0 0.0 0.0 0.0
000080 00 00 00 00 00 00 00 00 00 00 00 00 00 00 00 00
       0.0 0.0 0.0 0.0
000090 00 00 00 00 00 00 00 00 00 00 00 00 00 00 00 00
       0.0 0.0 0.0 0.0
0000a0 00 00 00 00 00 00 00 00 00 00 00 00 00 00 00 00
       0.0 0.0 0.0 0.0
0000b0 00 00 00 00 00 00 00 00 00 00 00 00 00 00 00 00
       0.0 0.0 0.0 0.0
0000c0 00 00 00 00 00 00 00 00 00 00 00 00 00 00 00 00
       0.0 0.0 0.0 0.0
0000d0 00 00 00 00 00 00 00 00 00 00 00 00 00 00 00 00
       0.0 0.0 0.0 0.0
0000e0 00 00 00 00 00 00 00 00 00 00 00 00 00 00 00 00
       0.0 0.0 0.0 0.0
0000f0 00 00 00 00 00 00 00 00 00 00 00 00 00 00 00 00
       0.0 0.0 0.0 0.0
000100 00 00 00 00 00 00 00 00 00 00 00 00 00 00 00 00
       0.0 0.0 0.0 0.0
000110 00 00 00 00 00 00 00 00 00 00 00 00 00 00 00 00
       0.0 0.0 0.0 0.0
000120 00 00 00 00 00 00 00 00 00 00 00 00 00 00 00 00
       0.0 0.0 0.0 0.0
000130 00 00 00 00 00 00 00 00 00 00 00 00 00 00 00 00
       0.0 0.0 0.0 0.0
000140 00 00 00 00 00 00 00 00 00 00 00 00 00 00 00 00
       0.0 0.0 0.0 0.0
000150 00 00 00 00 00 00 00 00 00 00 00 00 00 00 00 00
       0.0 0.0 0.0 0.0
000160 00 00 00 00 00 00 00 00 00 00 00 00 00 00 00 00
       0.0 0.0 0.0 0.0
000170 00 00 00 00 00 00 00 00 00 00 00 00 00 00 00 00
       0.0 0.0 0.0 0.0
000180 00 00 00 00 00 00 00 00 00 00 00 00 00 00 00 00
       0.0 0.0 0.0 0.0
000190 00 00 00 00 00 00 00 00 00 00 00 00 00 00 00 00
       0.0 0.0 0.0 0.0
0001a0 00 00 00 00 00 00 00 00 00 00 00 00 00 00 00 00
       0.0 0.0 0.0 0.0
0001b0 00 00 00 00 00 00 00 00 00 00 00 00 00 00 00 00
       0.0 0.0 0.0 0.0
0001c0 00 00 00 00 00 00 00 00 00 00 00 00 00 00 00 00
       0.0 0.0 0.0 0.0
0001d0 00 00 00 00 00 00 00 00 00 00 00 00 00 00 00 00
       0.0 0.0 0.0 0.0
0001e0 00 00 00 00 00 00 00 00 00 00 00 00 00 00 00 00
       0.0 0.0 0.0 0.0
0001f0 00 00 00 00 00 00 00 00 00 00 00 00 00 00 00 00
       0.0 0.0 0.0 0.0

network_body._body_endoder.seq_layers.2.weight f4 [128, 128]
000000 75 71 91 bd 80 d5 7d be 5d ed 26 3d 74 db 32 be
       -0.07101718 -0.24788475 0.04075371 -0.17466527
000010 70 99 34 3d 1c 0a 37 3e d6 6c a7 bd 20 fc b0 3d
       0.044091642 0.1787495 -0.08175056 0.08641839
000020 e9 64 98 3c e1 e1 d7 bc 4b d0 1c 3d 3e 0c 32 bd
       0.018602805 -0.026352825 0.03828458 -0.043468706
000030 e8 30 08 bd 2e 1a c9 3d 57 20 af bd 1f a5 be 3c
       -0.033249766 0.098194465 -0.0855109 0.023272095
000040 17 d2 a3 bd c9 f5 42 3d 14 f5 19 3d ec 28 88 39
       -0.07999056 0.04759768 0.03758724 0.0002597043
000050 ac 1c 28 3b b5 32 1c 3e 45 60 c0 bc c6 26 93 bc
       0.0025651855 0.15253718 -0.023483405 -0.017962825
000060 a8 17 53 3d 6d 66 63 bd 69 df dd 3d d5 07 de 3d
       0.051536232 -0.055517603 0.10833628 0.108413376
000070 73 4a c8 3c 0a 22 df 3d c2 92 13 3b f0 e9 a7 3d
       0.024449563 0.10895164 0.0022517894 0.08198917
000080 76 a6 f1 bd c5 5f 70 bd 63 4f c5 3d e1 06 e6 3d
       -0.11799328 -0.058685083 0.096342824 0.11231781
000090 95 f8 f1 bd a7 4b 9c bd aa fd 14 3d 61 e2 9b 3d
       -0.118149914 -0.07631617 0.036374725 0.07611538
0000a0 ce 24 af bd 7b a4 fe bb c1 90 a9 bd 39 1f 30 3d
       -0.08551942 -0.0077710724 -0.08279563 0.042998526
0000b0 cd 4e 84 3e 68 e9 49 3d c8 d9 15 be 90 9f 2a bd
       0.2584137 0.04929486 -0.14633858 -0.041656077
0000c0 3a ef bd 3d d3 aa aa 3d e0 91 bf bd 2a 34 29 3d
       0.092741445 0.083333634 -0.09353995 0.041309513
0000d0 0a df 11 3e 66 c8 8a 3d 32 14 f2 bd 26 f5 43 be
       0.14245239 0.06776504 -0.11820258 -0.19136485
0000e0 48 87 69 3d b2 2b 2d 3e 7c f2 ec bd df 78 86 bb
       0.05701378 0.169112 -0.11569688 -0.0041037644
0000f0 75 19 38 3d 13 15 d8 bd cd 5f 6a 3d ef be 98 3c
       0.044946153 -0.105508946 0.05722027 0.018645732
000100 2d e0 27 3e 21 b3 05 3e 59 28 6a bd fc aa a7 3d
       0.1639411 0.13056614 -0.057167385 0.081869096
000110 d2 e7 32 be 1f 3e fa 3d 98 44 b9 3d 62 a4 3c bd
       -0.17471245 0.1221888 0.09046286 -0.046055205
000120 f3 ec 82 3d 28 1b b0 3d 97 de 13 bd 11 19 54 3e
       0.06392851 0.0859893 -0.03610095 0.20712687
000130 d2 91 8f bd 14 a6 c3 bc 04 02 56 3e 45 ae b3 3d
       -0.07010235 -0.023882903 0.20899206 0.08773474
000140 41 58 d7 bd e0 32 e4 bd a5 d4 eb 38 5e be df 3d
       -0.1051488 -0.11142516 0.00011245281 0.109249815
000150 66 a6 4e 3d 99 e8 5d bc 4e f9 0a bd 81 66 a4 3c
       0.05045166 -0.013544225 -0.03392916 0.020068409
000160 aa d2 95 bd 2a 60 6d bc 89 c2 b3 3d 23 70 1d 3e
       -0.073155716 -0.014488259 0.08777339 0.15374808
000170 cf 4a dc bd 9d 21 c9 bd c4 8b d7 3c b5 83 e5 bc
       -0.10756456 -0.09820864 0.026311763 -0.028016904
000180 3b 95 9d be 8d 91 e7 bd f5 64 b6 3d 0e 86 be 3c
       -0.30777916 -0.113070585 0.08905975 0.023257282
000190 40 79 ee 3d 0c b3 f5 bd d6 99 4e 3d 10 85 81 bd
       0.1164422 -0.11997041 0.050439678 -0.06324208
0001a0 2f bb af 3d 2b 57 25 be 77 83 5d bd 33 0b fa 3d
       0.08580624 -0.16146533 -0.054080453 0.12209167
0001b0 3b d3 56 bc 10 f2 28 bd 13 21 1e 3e ff 2d 84 3d
       -0.013111885 -0.041246474 0.15442304 0.064540856
0001c0 3c 1c ef 3d 67 94 20 3e 31 06 37 3d 9a 41 15 3e
       0.11675307 0.15681611 0.04468364 0.14575806
0001d0 68 a9 9d 3c 35 9a a8 3d de 42 a3 3d 48 aa 2c be
       0.019245818 0.08232538 0.07971738 -0.16861832
0001e0 bb 24 b5 3d cb ac 8f 3d df 98 3e be e6 93 90 bd
       0.088448964 0.070153795 -0.18613003 -0.070594594
0001f0 1e 6e e6 3d 68 3f 83 3d 85 b6 42 3e 96 52 49 bd
       0.11251472 0.06408578 0.19014938 -0.049151026
000200 7d ca f7 3d 94 dc 5e bd 34 58 6c bd 6b 9f 96 3d
       0.120991684 -0.05440958 -0.057701305 0.07354625
000210 21 d2 09 3b 9d a7 6a bd 1c 73 65 3d f5 5f 5b 3a
       0.0021029788 -0.057288755 0.05601798 0.0008368486
000220 5e 10 5a bc ad 66 4b bd 1a 28 ea 3c 3d 5d 82 bc
       -0.013309566 -0.049658466 0.028583575 -0.0159136
000230 ce 30 85 bd af 48 34 3d 09 b6 70 bd ce bd 8f bd
       -0.065034494 0.04401463 -0.058767352 -0.07018624
000240 73 11 49 3d 82 53 57 be e3 bb ae bd 47 44 6a bd
       0.049088906 -0.2102795 -0.0853193 -0.05719402
000250 43 7a ee 3d 7d 7a 1a 3d db dc c8 bc f0 28 56 3c
       0.11644413 0.03771447 -0.024519375 0.013071284
000260 0e 3a b2 3b 6e 52 4c bc 35 b8 b5 3d ac e4 e3 bd
       0.0054390496 -0.012470825 0.08873025 -0.111276
000270 52 ac 3d 3d 26 c9 22 3e 16 91 68 3d 28 e6 2c bd
       0.046306916 0.15897045 0.05677899 -0.04221168
000280 33 05 99 3c f5 1e 97 bd 16 cc fc 3c 69 5f 4b bd
       0.018679237 -0.073789515 0.030859035 -0.049651537
000290 f2 bb 98 3d fc c2 3b be 5e 85 53 3c 43 3a 5b bc
       0.07457723 -0.183361 0.012910215 -0.01338059
0002a0 fb df ed 3d 23 78 2a 3d ad d7 fd bd 47 bf 05 3d
       0.116149865 0.041618478 -0.123946525 0.03265312
0002b0 65 e3 18 3e 29 8d 58 be 6b 59 93 bc ae 71 a0 bd
       0.14930494 -0.21147598 -0.017986974 -0.07834183
0002c0 51 6f 66 3c 74 df 9e bd 31 c6 2a bd a8 05 da bd
       0.014064626 -0.07757464 -0.041692916 -0.1064561
0002d0 5f f8 14 3d 17 b5 2f 3d c0 74 13 3a ab e0 56 3e
       0.036369678 0.04289731 0.0005625002 0.20984142
0002e0 ba 63 98 bc 1e 48 8c 3d ef 25 bf bd 36 a2 91 3d
       -0.01860224 0.06849693 -0.09333407 0.071110174
0002f0 a8 a2 cf 3b 9e f8 b3 bb 21 92 99 bd 08 a2 83 3d
       0.006336529 -0.005492284 -0.07498575 0.064273894
000300 88 1b e7 bc b6 5e 43 3c 6d cb 1d be 03 c2 31 bd
       -0.02821137 0.011924436 -0.15409632 -0.043397915
000310 bb f6 30 be ed f0 87 3e 3c e0 2e 3d b9 81 e8 3b
       -0.1728162 0.26551 0.042694315 0.0070955423
000320 0c d1 33 3e 21 a6 26 3d d2 00 33 bd b8 f0 68 3d
       0.17560214 0.040685777 -0.043701954 0.056870192
000330 49 46 a5 bd bc 72 5d 3d 48 95 8f bd e4 ad 69 bd
       -0.080700465 0.054064497 -0.07010895 -0.0570506
000340 17 85 af 3d e6 b9 86 bd cd db a3 bc 20 84 e3 bd
       0.08570307 -0.06578426 -0.02000227 -0.11109185
000350 44 59 03 bd c0 e6 ca 3d 64 60 8f 3b 67 21 e3 3d
       -0.032067552 0.09907293 0.0043755043 0.11090355
000360 5a dd 37 3e 00 b3 5b 3d 66 1e b4 bd c5 ac 82 3d
       0.17955533 0.053637505 -0.087948605 0.063806094
000370 85 6b 83 bd 06 71 13 3e 57 0b 37 3d f9 db 20 3d
       -0.06416992 0.14398584 0.04468855 0.039272282
000380 10 6a 22 bd 25 cf a1 3d c7 1d a2 3d 06 59 e1 3d
       -0.03965193 0.07900838 0.07915836 0.11003308
000390 44 e4 27 bd af 47 85 3b c3 4d f9 3c 1f 0a 9f 3d
       -0.040989175 0.0040673832 0.030432587 0.07765602
0003a0 e0 31 f7 3d a8 7c 20 3d 3a d2 da bd b1 43 6b bd
       0.1207006 0.03918138 -0.10684629 -0.057437602
0003b0 94 9e 03 3e c7 36 2a 3b 87 07 c3 3d 08 8c 85 bd
       0.12853462 0.0025972591 0.0952292 -0.065208495
0003c0 77 1e 8d bd 41 73 0c 3e 87 e0 5f bd f3 8a ab bd
       -0.06890576 0.13715841 -0.054657485 -0.08376112
0003d0 44 97 f0 bb 06 de 2a bc 63 0b 3a 3d b7 55 37 bd
       -0.007342251 -0.010428911 0.045421015 -0.04475948
0003e0 55 a9 a4 bd d5 84 5c bc 5c 1d 48 3e c6 2b ef ba
       -0.0804011 -0.013459404 0.1954245 -0.0018247298
0003f0 73 f0 0c 3e 6e 90 e5 bc 61 0b f5 bd c0 69 31 3d
       0.13763599 -0.028022971 -0.11965061 0.04331374

network_body._body_endoder.seq_layers.2.bias f4 [128]
000000 00 00 00 00 00 00 00 00 00 00 00 00 00 00 00 00
       0.0 0.0 0.0 0.0
000010 00 00 00 00 00 00 00 00 00 00 00 00 00 00 00 00
       0.0 0.0 0.0 0.0
000020 00 00 00 00 00 00 00 00 00 00 00 00 00 00 00 00
       0.0 0.0 0.0 0.0
000030 00 00 00 00 00 00 00 00 00 00 00 00 00 00 00 00
       0.0 0.0 0.0 0.0
000040 00 00 00 00 00 00 00 00 00 00 00 00 00 00 00 00
       0.0 0.0 0.0 0.0
000050 00 00 00 00 00 00 00 00 00 00 00 00 00 00 00 00
       0.0 0.0 0.0 0.0
000060 00 00 00 00 00 00 00 00 00 00 00 00 00 00 00 00
       0.0 0.0 0.0 0.0
000070 00 00 00 00 00 00 00 00 00 00 00 00 00 00 00 00
       0.0 0.0 0.0 0.0
000080 00 00 00 00 00 00 00 00 00 00 00 00 00 00 00 00
       0.0 0.0 0.0 0.0
000090 00 00 00 00 00 00 00 00 00 00 00 00 00 00 00 00
       0.0 0.0 0.0 0.0
0000a0 00 00 00 00 00 00 00 00 00 00 00 00 00 00 00 00
       0.0 0.0 0.0 0.0
0000b0 00 00 00 00 00 00 00 00 00 00 00 00 00 00 00 00
       0.0 0.0 0.0 0.0
0000c0 00 00 00 00 00 00 00 00 00 00 00 00 00 00 00 00
       0.0 0.0 0.0 0.0
0000d0 00 00 00 00 00 00 00 00 00 00 00 00 00 00 00 00
       0.0 0.0 0.0 0.0
0000e0 00 00 00 00 00 00 00 00 00 00 00 00 00 00 00 00
       0.0 0.0 0.0 0.0
0000f0 00 00 00 00 00 00 00 00 00 00 00 00 00 00 00 00
       0.0 0.0 0.0 0.0
000100 00 00 00 00 00 00 00 00 00 00 00 00 00 00 00 00
       0.0 0.0 0.0 0.0
000110 00 00 00 00 00 00 00 00 00 00 00 00 00 00 00 00
       0.0 0.0 0.0 0.0
000120 00 00 00 00 00 00 00 00 00 00 00 00 00 00 00 00
       0.0 0.0 0.0 0.0
000130 00 00 00 00 00 00 00 00 00 00 00 00 00 00 00 00
       0.0 0.0 0.0 0.0
000140 00 00 00 00 00 00 00 00 00 00 00 00 00 00 00 00
       0.0 0.0 0.0 0.0
000150 00 00 00 00 00 00 00 00 00 00 00 00 00 00 00 00
       0.0 0.0 0.0 0.0
000160 00 00 00 00 00 00 00 00 00 00 00 00 00 00 00 00
       0.0 0.0 0.0 0.0
000170 00 00 00 00 00 00 00 00 00 00 00 00 00 00 00 00
       0.0 0.0 0.0 0.0
000180 00 00 00 00 00 00 00 00 00 00 00 00 00 00 00 00
       0.0 0.0 0.0 0.0
000190 00 00 00 00 00 00 00 00 00 00 00 00 00 00 00 00
       0.0 0.0 0.0 0.0
0001a0 00 00 00 00 00 00 00 00 00 00 00 00 00 00 00 00
       0.0 0.0 0.0 0.0
0001b0 00 00 00 00 00 00 00 00 00 00 00 00 00 00 00 00
       0.0 0.0 0.0 0.0
0001c0 00 00 00 00 00 00 00 00 00 00 00 00 00 00 00 00
       0.0 0.0 0.0 0.0
0001d0 00 00 00 00 00 00 00 00 00 00 00 00 00 00 00 00
       0.0 0.0 0.0 0.0
0001e0 00 00 00 00 00 00 00 00 00 00 00 00 00 00 00 00
       0.0 0.0 0.0 0.0
0001f0 00 00 00 00 00 00 00 00 00 00 00 00 00 00 00 00
       0.0 0.0 0.0 0.0

action_model._discrete_distribution.branches.0.weight f4 [5, 128]
000000 e8 4c 9b 3b 57 44 91 39 8f 5f 9b bc eb 7c 87 b8
       0.0047393925 0.00027707472 -0.018966464 -6.4605694e-05
000010 26 4b 27 bc 50 e1 63 3a 45 b3 71 3c 17 6e 2b bc
       -0.010210788 0.0008692937 0.014752214 -0.010463259
000020 b8 db b7 b9 58 73 f1 3b 0f 18 a6 ba 77 26 aa 3b
       -0.00035068183 0.0073684864 -0.0012671965 0.0051925736
000030 9b bb bf bb b8 ee 8a bc a5 b3 77 3c df 07 ea 3a
       -0.0058512217 -0.016959533 0.015118514 0.0017855129
000040 9b 43 fa 3b b7 48 be 3b ff 91 b2 3a 72 3d 75 bc
       0.0076374537 0.005807008 0.0013623832 -0.014968263
000050 25 81 49 ba f8 04 6b bb 58 a3 18 3c 8e b6 15 3c
       -0.00076867855 -0.0035861116 0.009316288 0.009137763
000060 12 b8 6a bc 0f a1 25 bc 8f 4f 91 3a 95 ad a5 bb
       -0.014326112 -0.0101092 0.0011086332 -0.005056093
000070 ac 97 b2 ba d7 70 b3 3a 6e 51 39 3c 55 e7 79 3a
       -0.0013625524 0.0013690245 0.011310918 0.00095330674
000080 7d 80 9c 3b d4 6c a9 bb 8e 4f aa 3b 15 a6 fc 3a
       0.004776059 -0.005170444 0.005197472 0.001927557
000090 50 b1 75 3b ba 8a 5e bb 3a 64 e9 39 27 fc 82 bc
       0.003748972 -0.00339572 0.00044515898 -0.015989376
0000a0 34 0f af bc c3 e6 ae ba eb 33 31 ba 30 78 75 3b
       -0.021369554 -0.0013343919 -0.00067597505 0.003745567
0000b0 b2 bb 8f 3c 43 27 89 bb fc ea af 3b 06 d3 87 bb
       0.017545555 -0.0041855886 0.0053685885 -0.004145029
0000c0 f8 ca b5 3c cb 11 8f bc a9 6f b0 3b 26 25 11 3c
       0.02219151 -0.017464539 0.0053844047 0.0088589545
0000d0 ef 30 79 bb 4b d6 c5 ba ea 5b a4 3c cf c6 34 bc
       -0.0038023551 -0.0015093772 0.02006336 -0.011033728
0000e0 6d 7c d9 3b e0 5c dc 3b b8 cf f5 3b b5 ea ab 3c
       0.006637147 0.0067249388 0.0075015686 0.02098594
0000f0 db 06 b7 bb 5f c9 54 ba 4a a0 ff bb ca ac d9 3b
       -0.005585534 -0.0008117165 -0.0078010904 0.0066429125
000100 00 7c 62 3b d7 bc 9f 3b 32 43 18 bc 3d c7 4f bc
       0.0034558773 0.0048748064 -0.009293364 -0.012681779
000110 28 5f 60 bc b9 85 b6 bb 90 39 59 bc dd fd d8 3b
       -0.013694562 -0.00557014 -0.013258353 0.0066220597
000120 af 06 aa bb 1e 5b 20 3b 60 d1 0f bc 16 fb 41 bc
       -0.005188785 0.0024468373 -0.008777946 -0.011839649
000130 45 e2 f2 bb d7 72 f0 3b ea 67 e1 3b de 49 39 3b
       -0.0074122273 0.0073379087 0.0068788426 0.0028272788
000140 a7 05 47 3c b7 ab b6 ba 57 6b 1c 3c 79 0d ac 3b
       0.012147344 -0.0013936673 0.009547076 0.0052506295
000150 29 ab 3f 3b 0f b7 c9 ba 6a 1b a6 3b 78 e9 da 3a
       0.0029246307 -0.0015389639 0.005069186 0.0016701659
000160 8b 57 01 bc 53 b8 61 3c 75 93 c3 bb a4 39 cb bb
       -0.007894407 0.0137768565 -0.005968506 -0.0062019397
000170 98 65 3e bb a0 e7 f8 3b 11 7d b9 bb 92 ce c3 3a
       -0.0029052254 0.007595971 -0.005660661 0.0014938882
000180 f2 5f 50 3c 7c 2e 45 bb dd 44 09 3c 3f 38 a0 3c
       0.012718188 -0.0030087521 0.008378235 0.01955807
000190 94 84 03 ba e5 da 7d bb 0b fd fb 3a b9 b9 b3 3b
       -0.0005017009 -0.0038735208 0.0019225193 0.0054847864
0001a0 75 52 68 3b 17 49 ee 3b df 8c 7d ba 4f 21 b3 b9
       0.003544954 0.0072718966 -0.00096721755 -0.00034166357
0001b0 f7 12 43 3c 28 0f 54 bb e3 2f 81 3b aa 66 d3 3b
       0.011906377 -0.0032357667 0.003942476 0.0064514475
0001c0 c5 e1 65 3b 08 e9 48 bc b6 6c 8f 3b 7c df 1b 3c
       0.0035077196 -0.01226259 0.004376973 0.009513732
0001d0 fb a9 c9 3b 9d 6b c1 3a 3a bb d1 3b 42 c0 e3 bb
       0.0061542965 0.0014756803 0.006400493 -0.006950409
0001e0 4b bb 69 3a ab 1c 0e 3c 25 77 a3 bb 27 9b 12 bb
       0.00089161535 0.008673827 -0.0049885684 -0.002237031
0001f0 c2 7b f1 bb ed c9 26 bb 7e 82 b6 39 5f 31 5f 3a
       -0.0073694894 -0.0025449947 0.0003481097 0.0008514132
000200 70 ed c3 bb ab 87 92 bb 0b 68 ac bb f3 66 f9 3b
       -0.0059792325 -0.0044717393 -0.0052614263 0.0076111495
000210 79 3a 88 ba 55 88 81 bc 57 32 f2 3b d8 09 70 3b
       -0.0010393403 -0.015812078 0.007391255 0.003662696
000220 25 cf 2e 3c 8f 7f 14 bc 47 1f 78 bc 5d e0 e2 bb
       0.010669504 -0.009063615 -0.015144176 -0.006923719
000230 17 75 d6 b8 a7 29 03 3c 6f 75 85 bc 72 7b 50 3a
       -0.00010226125 0.008005536 -0.016291348 0.0007952965
000240 e0 9e 4f bc d7 05 10 bc 8c 36 36 bc 0e 57 20 bb
       -0.012672156 -0.008790455 -0.011121403 -0.002446595
000250 4c d4 83 3b e0 bc 0e 39 d1 e5 23 bb ff e2 c9 39
       0.0040231105 0.00013612537 -0.0025008807 0.00038506833
000260 5b 81 b6 3b 7a 14 e5 3b 0a dd 6d bb ba b0 0e bc
       0.0055696196 0.0069909664 -0.003629508 -0.008709127
000270 7f 3c 8e 3a 48 49 d8 3b 6c 72 ac 3b 0b f0 04 3b
       0.001085177 0.0066005327 0.0052626636 0.0020284678
000280 3f 85 58 bb 32 4f 62 ba 6b f2 72 3c 73 36 b6 3b
       -0.0033038405 -0.0008633017 0.014828305 0.00556069
000290 fb f5 89 3b 52 f3 e1 bb 45 5a e4 39 f7 fc 45 bc
       0.0042102314 -0.006895461 0.00043554805 -0.012084237
0002a0 a9 39 aa 3a 95 01 57 3b eb 45 8c bb 88 c3 eb bb
       0.0012987155 0.003280734 -0.004280796 -0.00719494
0002b0 94 94 8f 3b db 74 07 3c 37 46 03 3b 72 13 27 3c
       0.0043817256 0.008267607 0.0020030865 0.010197507
0002c0 b9 55 05 ba 57 67 cc ba 73 a7 20 bc 25 88 84 bb
       -0.0005086321 -0.0015594763 -0.009805548 -0.00404455
0002d0 38 5b 12 3c 0b bb 44 3c ba 57 80 3b 2b 4d 45 bc
       0.008932881 0.012007485 0.003916708 -0.012042324
0002e0 6b 62 13 3c ed 79 d3 3b 80 f7 51 39 f5 2e eb 3b
       0.008995633 0.0064537437 0.00020023994 0.0071772286
0002f0 e9 c4 2b 3c c2 f1 06 bb e2 57 a9 3b 97 7c c1 3b
       0.010483959 -0.0020590876 0.005167947 0.005904745
000300 c5 2b 0d 3c 28 5f 92 bb ec 78 1c ba e7 59 18 3a
       0.0086163925 -0.00446691 -0.00059689465 0.00058117363
000310 c0 ef 7d bc 9d bc a2 3b 70 f2 d5 3b 9f 6b 71 3c
       -0.015499055 0.004966332 0.006529145 0.0147351315
000320 4f e6 15 3c 95 4a 25 bc 80 53 cf bb cb d0 87 bc
       0.009149148 -0.0100885825 -0.0063270926 -0.016579052
000330 92 29 94 3b 0b d5 83 bb 8e 01 2c bc da 5c 3b 3b
       0.004521557 -0.0040231994 -0.010498418 0.002858928
000340 0b 95 37 36 49 5a 9e bb 87 46 94 3b e4 0a 43 b9
       2.735588e-06 -0.00483254 0.004525009 -0.00018600706
000350 3c af 86 bc 7a 8d 3f 3c 12 f4 ee bb 91 10 80 3c
       -0.01644098 0.0116914455 -0.007292279 0.0156329
000360 f4 af bb 3a 03 6e 36 bb 3b 8e 98 bc 59 1a b6 bb
       0.0014319406 -0.0027836568 -0.018622508 -0.00555734
000370 db a6 8b 37 77 f0 b2 bb 7e 02 b7 b9 e7 25 52 bc
       1.664779e-05 -0.0054607945 -0.00034906337 -0.012826419
000380 72 94 56 bc 3c 72 a2 3b 2f 98 aa 3b 47 10 b8 ba
       -0.013096916 0.0049574655 0.00520613 -0.0014042937
000390 e3 8f 67 bc 6d 6e 1c 3c 34 d0 80 bb 7c bb 0e 3c
       -0.014133426 0.009547812 -0.0039310697 0.008711692
0003a0 75 f7 e9 bb cd f4 77 3c 92 39 e8 bb 1b 8b da ba
       -0.007140095 0.015134049 -0.007086941 -0.0016673537
0003b0 d3 c3 89 3a b2 08 f6 38 0f f2 17 3c 27 f5 8f 3b
       0.0010510631 0.00011731814 0.00927402 0.004393238
0003c0 55 54 21 3b ea 9b a6 3b 8f 32 59 3c 60 9d f1 bb
       0.0024616916 0.0050845044 0.013256683 -0.007373497
0003d0 53 3e 43 bc 8b 01 85 bb 8f f7 28 bc 05 be 76 bb
       -0.011916715 -0.004059022 -0.010312929 -0.0037649882
0003e0 20 ba dc 3b 8c 8b 86 3b db c9 46 bc b2 62 46 3c
       0.006736055 0.0041059908 -0.012133087 0.012108492
0003f0 a0 f9 6b bb ac b5 98 3b ef 19 c1 bb 61 71 0a bc
       -0.0036006942 0.004660329 -0.005892984 -0.008449883

action_model._discrete_distribution.branches.0.bias f4 [5]
000000 00 00 00 00 00 00 00 00 00 00 00 00 00 00 00 00
       0.0 0.0 0.0 0.0
000010 00 00 00 00
       0.0
