results/ppo/MoveToGoal/MoveToGoal-246623.onnx (onnx, 72644 bytes, 7 tensors)

network_body._body_endoder.seq_layers.0.weight f4 [128, 6]
000000 13 1e cd bd 19 61 2c bf ef 70 35 3d d6 ec eb bc
       -0.10015502 -0.6733566 0.044297155 -0.028799456
000010 e1 f3 6e be 83 cb f2 bc 9d 32 87 be 78 45 f9 3e
       -0.2333522 -0.029638058 -0.26405802 0.48685813
000020 20 00 d0 be 4b ca ab be dc 3b 07 3f 95 01 fa 3d
       -0.40625095 -0.33552775 0.52825713 0.12207333
000030 1a 2a 15 3f db ce 0a 3f b3 5f 4c 3e 11 ff 4e 3e
       0.58267367 0.54221886 0.19958381 0.20214488
000040 12 6e ed be fa 7c 1f be b4 15 d7 3c ae 8b 13 be
       -0.4637304 -0.15575019 0.026255466 -0.14408752
000050 e7 10 9b 3e 39 53 38 3e ab bb ec bd 2f 4b 6f be
       0.30286333 0.18000497 -0.11559232 -0.23368524
000060 e2 7d 58 bd 2a 04 dc 3e 16 43 ea 3d 80 56 11 3f
       -0.052854426 0.42971927 0.11438577 0.56772614
000070 69 aa 8e 3e f7 fe d7 3e b0 5b 71 be f8 21 6d 3d
       0.27864388 0.4218671 -0.23570132 0.057893723
000080 a0 12 84 3e 38 5a 2b bf eb bc f0 be 81 fe 22 be
       0.2579546 -0.6693454 -0.47019133 -0.15917398
000090 5f 78 92 bd 3f 0a d1 3d 55 db 34 3d d8 d3 5e bd
       -0.07151865 0.102070324 0.044154484 -0.05440125
0000a0 13 0d a5 bd b9 26 79 be 84 00 85 bd ff 4a e2 be
       -0.08059134 -0.24331178 -0.06494239 -0.44197842
0000b0 3c 85 f8 be a3 34 f7 3e b6 64 d0 bd 56 6e 66 be
       -0.4853915 0.48282346 -0.10175459 -0.22503027
0000c0 c6 93 c4 3e eb 5d fd be 7f f1 a4 be 26 8d f1 be
       0.38393992 -0.49485716 -0.32215497 -0.47178
0000d0 1e 9b 5c 3c 89 3f af bc a0 c1 ce 3c 7c 99 53 3f
       0.013464717 -0.0213926 0.025238812 0.82656074
0000e0 a3 3f fa bd a0 fd ee bd a2 bd 05 be 75 9e 4b be
       -0.12219169 -0.11669469 -0.1306062 -0.19884665
0000f0 2f 41 c7 be 54 9f 42 bd 40 2c 2a 3e 15 f5 6c 3f
       -0.3891692 -0.04751523 0.16618443 0.92561466
000100 b8 ab 07 3e 99 16 bf 3e fb 96 d0 be d9 17 03 be
       0.13249099 0.37321928 -0.4074019 -0.12802066
000110 ec 9f 7d 3e 14 d7 0a 3f 82 58 0f 3e ec 37 44 3e
       0.24768037 0.54234433 0.13998607 0.19161958
000120 fe 5a 88 be f4 86 64 3d d6 29 ab be 8c cd 0a 3e
       -0.26631922 0.055792764 -0.33430356 0.13554972
000130 2f 80 a0 3e 8d bb 9f 3e 81 70 54 be ab 85 e8 3d
       0.31347796 0.31197777 -0.20746042 0.1135362
000140 14 20 94 be 42 14 b8 be d7 0b 52 3f e3 2d 60 3e
       -0.28930724 -0.35952955 0.82049316 0.21892504
000150 90 7c d5 bd 33 20 fc 3e 17 eb cd bc 1d b6 24 bf
       -0.10424149 0.49243316 -0.025136514 -0.6434038
000160 4b 06 c9 3d 9f 91 16 be ff 04 41 3e c7 ca 59 bf
       0.098156534 -0.14703988 0.18849562 -0.8507504
000170 24 ea 3a bd 40 e6 aa be 0c 5e 0d 3f be 1a d4 bd
       -0.04563345 -0.33378792 0.5522163 -0.10356663
000180 63 80 c4 3d 81 f4 27 bf 01 fd 2b 3e 96 d3 01 be
       0.095948 -0.6560746 0.16795732 -0.1267837
000190 99 8c 47 be 98 0a a0 bd 3b c8 09 3e 1d a0 2a be
       -0.19487227 -0.078145206 0.13455288 -0.16662641
0001a0 c0 c3 09 bf 1a ff 0d 3f 77 7c 6e bd ed e4 b6 be
       -0.53814316 0.5546738 -0.058224168 -0.35721532
0001b0 04 35 de 3d 84 d9 59 be b4 3a ae 3c 12 26 a2 be
       0.10849956 -0.21274382 0.021268226 -0.3166967
0001c0 d7 b6 56 3e df ce b4 3d 8e ac 93 be 79 cb 1f 3f
       0.20968185 0.0882852 -0.28842586 0.6241985
0001d0 9a 52 45 3f 2b 33 fa 3d f9 cb 86 be 78 29 39 be
       0.77079165 0.12216791 -0.26327494 -0.18082225
0001e0 52 c7 fb 3d fc dc ee be ac fe 65 3d a8 87 df bd
       0.12293877 -0.46652973 0.056151077 -0.10914546
0001f0 7d 5b 8a be 23 24 c2 be 9a 70 0f 3f a4 67 ec be
       -0.27022925 -0.37918195 0.5603119 -0.46172822
000200 96 68 33 3e 0c 51 7c 3e 82 c0 29 be d0 e5 78 3d
       0.17520365 0.24640292 -0.16577342 0.06076604
000210 c9 5c 97 be 64 4b cf 3c c9 87 2d bf 0a d3 5e bd
       -0.29562977 0.025304504 -0.67785317 -0.05440048
000220 57 2b 85 3e a2 78 1a 3e 4f aa 75 bd 13 fe 04 b6
       0.26009628 0.1508508 -0.059976872 -1.9817423e-06
000230 f0 59 9c 3d e6 9f 60 3b de 1e 16 3e 27 e5 81 be
       0.07634342 0.0034274994 0.14660212 -0.25370142
000240 1a 02 3d bf 21 18 05 be f5 89 74 3e d1 f5 7a be
       -0.7383133 -0.12997486 0.23880751 -0.24507834
000250 25 a7 98 be 6c bc 0d be 08 69 50 3e 04 a8 94 3e
       -0.2981502 -0.13841408 0.20352566 0.29034436
000260 cb 25 9d 3e ae 55 96 3e 32 ea f7 bd 24 74 d8 be
       0.30692896 0.29362243 -0.12105216 -0.42276108
000270 fb 87 2d bf 26 01 5b be 67 38 80 be b9 a3 2e 3f
       -0.67785615 -0.21387157 -0.25043032 0.6821857
000280 ff da 02 3f 14 54 4d be e9 34 35 3e bb 33 b3 be
       0.5111541 -0.20051605 0.17695965 -0.35000405
000290 f9 0d c2 3d 3b 21 24 bf 78 d7 ba be be 08 63 3e
       0.09475321 -0.64113206 -0.36492515 0.22171304
0002a0 66 cd c4 bd e8 54 15 be 87 b8 25 bf 90 77 d5 bd
       -0.09609489 -0.1458317 -0.6473469 -0.10423195
0002b0 d7 53 78 bd 8a 41 44 3e 04 71 a9 3e c5 26 5b 3e
       -0.06062683 0.19165626 0.33094037 0.21401508
0002c0 fd 84 0b be e7 f7 30 3d 13 bf c2 3e 0b f6 01 3e
       -0.1362495 0.043205168 0.38036403 0.12691514
0002d0 ce dd a9 be 55 52 fd be 30 70 56 be 35 c6 90 3e
       -0.33177036 -0.49476877 -0.20941234 0.2827622
0002e0 12 65 2e 3f 18 76 ae 3e 2b e1 e5 3c 08 d1 82 3e
       0.6812297 0.34074473 0.02806147 0.25550103
0002f0 76 8d 02 3d c7 4b 2a 3f b1 e5 38 3f 33 3e 39 3e
       0.03187319 0.6652188 0.7222548 0.18090133
000300 d5 2e a9 bd 0a 67 02 be a7 3f fe 3d 61 98 a1 be
       -0.082608856 -0.12734619 0.124144845 -0.31561568
000310 57 b2 3c 3e ab 82 55 3d c6 49 32 be 44 f6 ec be
       0.18427406 0.052126568 -0.17410955 -0.46281636
000320 79 2e 98 3e 3a e5 45 bd 8b ad bd 3e f0 78 a1 3e
       0.29722956 -0.04831431 0.37046465 0.3153758
000330 ec 6c d1 3e 3c 38 ed 3c f9 7c ea 3e 78 aa 5f bf
       0.40903413 0.028957479 0.45798472 -0.8736949
000340 9a 8a fc bd 2e 30 93 be 5b 85 50 3f b4 25 e0 3e
       -0.12331124 -0.28747696 0.81453484 0.43778765
000350 91 a6 0d bf df 76 40 be 70 64 37 be 1c 3d 1e bf
       -0.55332285 -0.18795346 -0.17909408 -0.61811996
000360 73 e2 a6 3c 8c 5e 53 be 8f 77 42 bf 4c d9 dc bd
       0.020371651 -0.20641536 -0.7596368 -0.107836336
000370 72 c8 8d 3d b3 a9 b6 be 77 c2 fb be 8e f1 59 bf
       0.069229975 -0.35676345 -0.49171802 -0.8513421
000380 c4 24 42 3e 4f 1e a5 3e a6 eb 6e be 1a 27 57 be
       0.18959337 0.32249686 -0.2333208 -0.2101101
000390 02 4c df 3e a1 f1 3d bf 71 7f d6 be 22 a9 87 be
       0.43612677 -0.7419682 -0.41894105 -0.26496226
0003a0 dc 8a 29 be 8b 21 26 bf a6 2f 0f bf 1c 5e 44 3f
       -0.16556877 -0.6489493 -0.5593208 0.767061
0003b0 62 79 2b 3f d1 02 85 be 84 f8 40 be c7 c5 f8 bc
       0.6698209 -0.2597871 -0.18844801 -0.030367745
0003c0 f6 5e 4d 3f ee cd f2 3d e0 fd 18 bf ce 1d 74 3e
       0.80223024 0.11855684 -0.5976238 0.23839495
0003d0 da bc d1 3e f2 f9 9e 3e 83 4f 05 bf a6 22 fc bd
       0.40964395 0.31050068 -0.5207445 -0.12311296
0003e0 8e 66 d7 be fb 63 61 ba 36 ff c7 bd ec af f9 3e
       -0.4207043 -0.0008597967 -0.097654745 0.4876703
0003f0 c9 98 b9 be 04 29 4a 3e e8 05 18 3f 7f fd cb 3e
       -0.36249378 0.19742209 0.5938401 0.3984184

network_body._body_endoder.seq_layers.0.bias f4 [128]
000000 9f 2c f5 3b a8 68 1c 3d b8 52 07 3c d6 62 20 bc
       0.007482126 0.038185745 0.008259468 -0.009789189
000010 e1 6d e1 3b c7 3d 94 bb ff ef 86 3c ba 7f 3c 3b
       0.0068795537 -0.004523966 0.01647186 0.0028762654
000020 de 09 02 3c bb 46 7e bb 61 8d e3 3b 97 b3 86 ba
       0.007936923 -0.0038799483 0.006944344 -0.0010276911
000030 43 40 d6 37 02 d7 74 bb 6f de a2 bb f3 98 0b 3d
       2.5540712e-05 -0.00373596 -0.004970364 0.03408141
000040 41 3d 92 bb 1a dd d6 3b 22 87 f6 ba 81 2c b3 bb
       -0.0044628684 0.006557119 -0.0018808583 -0.0054679518
000050 30 96 3d ba d4 87 0d 3a 97 47 0a 3d fb 0a ad 3c
       -0.00072321575 0.0005398963 0.03375968 0.0211234
000060 af 1e 07 bc 9c c0 fd 3b 4e 32 a8 3a 6a 43 1c bc
       -0.008247062 0.007743908 0.0012832375 -0.009537557
000070 95 1f 2a bc df 5d aa 3b 44 eb 98 3b a3 ef 96 3b
       -0.010383506 0.0051991786 0.0046667177 0.0046062036
000080 0f 3d 6b bb cc ca 69 3a 56 92 ec bb 72 c8 46 bc
       -0.0035894548 0.0008918464 -0.007219593 -0.012132751
000090 9c 6b 3c bc af cd 8f 3b 7f d0 9b bb 29 e1 ab 3b
       -0.011500265 0.004388533 -0.0047550793 0.005245347
0000a0 8c 4c f3 bb 7b 8a ab bb c9 c0 db 3b 10 f9 bd bb
       -0.0074248966 -0.005235014 0.0067063314 -0.005797513
0000b0 21 7e 10 bc a3 2e f6 3b f5 ff e7 ba 14 0a 32 bc
       -0.008819134 0.0075128837 -0.0017700183 -0.010866661
0000c0 9f 90 bd bb 05 51 0d bc 97 3c df bb 47 69 48 3b
       -0.0057850624 -0.008625274 -0.006812643 0.0030580328
0000d0 25 b1 02 3a c7 93 20 3b 42 50 90 3b 16 03 ad 3c
       0.0004985503 0.0024502145 0.0044040987 0.021119636
0000e0 93 99 cc 3b 05 30 6f 3b 73 d5 d6 b9 64 0f d5 3c
       0.0062438934 0.0036497128 -0.00040976293 0.026008315
0000f0 2e c3 9c 3b 53 67 34 3d 6e 7a 0c 3d 4a f0 f7 39
       0.0047840094 0.04404385 0.034296446 0.0004729054
000100 2c 1b 26 bc 94 6e 88 3d d5 ae 0b 3c 94 94 ef 3b
       -0.010138314 0.06661716 0.00852557 0.007311413
000110 22 7b 36 39 b1 4d 9c 3b 40 75 ae bc 02 2f 03 3c
       0.00017402743 0.0047700037 -0.021296144 0.008006813
000120 bb 06 2c bc 72 a9 68 bb ec 26 d3 3c f5 42 b3 b9
       -0.010499652 -0.0035501388 0.025775395 -0.00034191427
000130 78 d0 f9 3b 41 a7 d7 bb 2f 4a 2e 3d 3b 71 ab 3a
       0.0076237284 -0.0065812175 0.042551216 0.001308001
000140 67 89 3e bb be 2c d0 3b 40 b3 11 bc 25 1d a3 bc
       -0.0029073597 0.00635299 -0.008892834 -0.019911358
000150 04 1e 1a 3b 44 46 ae bb f5 6b 27 3c 6a a4 0b bc
       0.0023516426 -0.005318435 0.01021861 -0.008523086
000160 81 03 c0 3c 2a 9a 6c bc ef a4 81 bb de 9b 64 bc
       0.02343917 -0.014441052 -0.003956429 -0.013953177
000170 ba 60 85 3b 03 c0 b1 3b e8 e8 20 bb ea 48 92 3b
       0.0040703686 0.005424501 -0.0024552885 0.0044642584
000180 c3 1f 5d 3b 79 a2 e7 bb b0 d7 b7 3b 70 86 e2 ba
       0.0033740855 -0.007068929 0.0056104288 -0.0017282497
000190 d3 c7 32 3b fb c8 e7 bc 64 dc 3d 3c 4a 0b 05 3c
       0.002727975 -0.028294077 0.01158819 0.008120367
0001a0 6b 1a 11 3c cc 20 fd bb 1f 79 46 bb e1 ff ee 3b
       0.008856396 -0.007724857 -0.0030284596 0.0072936867
0001b0 58 a0 fc bb 26 f4 91 3c 67 7e fe bc 45 b1 b8 bb
       -0.007709544 0.017816614 -0.031066133 -0.0056363665
0001c0 34 c5 33 3d c0 f5 d4 3b 2e bd 33 bb 7a 8a 2d bc
       0.04388924 0.0064990222 -0.0027425992 -0.010592097
0001d0 9b b0 2e 3c 90 71 60 bc 21 e4 14 3c 17 60 4d bc
       0.010662223 -0.01369895 0.009087593 -0.012535117
0001e0 ab 03 55 3b 4f 53 cd bb 58 77 b9 3b 62 db a8 3c
       0.0032503407 -0.0062660347 0.005659979 0.020612422
0001f0 b2 2b 58 bc f7 e4 d1 bb 56 8a 0e 3b 4a 94 1c bc
       -0.0131940115 -0.0064054686 0.0021749935 -0.009556839

network_body._body_endoder.seq_layers.2.weight f4 [128, 128]
000000 08 7d f8 3d ba e2 a6 3c 49 93 95 bd 75 29 bc ba
       0.12133223 0.020371784 -0.07303483 -0.0014355617
000010 e3 91 74 bd df f8 97 3d 5a 68 0b 3e 9d a8 9c 3d
       -0.05970944 0.07420515 0.13614026 0.07649348
000020 f7 4c 9b 3c b3 b8 03 be 6c cc 29 bb 5d c1 47 bd
       0.018957598 -0.12863426 -0.0025909198 -0.04876839
000030 59 7b a8 bd e6 42 27 3e 74 40 6c bd 89 e9 1a 3d
       -0.08226652 0.16334113 -0.057678655 0.037820373
000040 af 60 a5 3d 50 02 12 3d e0 3d d9 3d ce 6e b7 bc
       0.080750816 0.035646737 0.10607505 -0.022391703
000050 a3 d5 c7 3c 9a 5a 26 3d ab 1b 0d 3c 18 3e 80 bd
       0.024393862 0.040613748 0.008612554 -0.062618434
000060 8a 10 4c 3d a3 cc 3c bd 45 77 f6 bd e8 99 f0 bc
       0.04982046 -0.046093594 -0.120344676 -0.029370263
000070 a4 2e 93 bd 1c 33 7d 3c 4f ff db bd d9 46 9c 3d
       -0.0718663 0.01545408 -0.107420556 0.076307006
000080 0f e3 7e 3d 7c 60 dd bd 71 02 42 3c d4 cc 27 bd
       0.06222826 -0.108094186 0.011841402 -0.040966824
000090 1b 63 0e 3e ac c3 19 3d 71 99 16 bc 63 18 48 bd
       0.13904993 0.037540123 -0.009191857 -0.048851382
0000a0 42 61 f5 bd 26 1e bd 3c ff d7 db bc d6 c5 5c 3d
       -0.11981441 0.023085665 -0.026836393 0.05389961
0000b0 1f 80 c6 bd 93 fd 14 be 23 15 04 3c 89 32 f7 3c
       -0.09692406 -0.14549856 0.00806168 0.030175464
0000c0 43 a7 bc bd 15 82 17 3e 1e 1c 83 3d 2a cc 65 3d
       -0.0921159 0.14795716 0.06401847 0.05610291
0000d0 d8 32 c4 3b 14 1e af 3d 79 6e d6 3c d7 20 ad 3c
       0.0059875064 0.08550659 0.026175724 0.021133823
0000e0 0f 9e 1f bd 74 ce 82 3d ec 81 6c bd ce 7c 9e bc
       -0.038969096 0.06387034 -0.05774109 -0.01934662
0000f0 14 20 91 3d f1 0f 98 bc a0 82 53 bd c2 03 26 3d
       0.070861965 -0.018562289 -0.051638246 0.040530927
000100 e9 b8 1a be a4 d3 0f 3b 9a d3 aa bd 1e 9e cd bd
       -0.151096 0.0021946216 -0.08341141 -0.10039924
000110 5f 5b 44 bd 16 a0 0c 3d a4 c5 8c 3d 70 df 9b 3c
       -0.0479387 0.034332357 0.068736345 0.019027442
000120 37 f2 04 bc 8b 1c ed bb a6 ef 89 bc 50 a1 9c 3e
       -0.008114389 -0.0072360686 -0.016837906 0.30591822
000130 fb b1 16 bd 22 20 fb 3b 51 18 c1 3d d7 d6 f5 3c
       -0.03679083 0.0076637426 0.09428466 0.03000967
000140 56 c8 b9 3d c0 a8 71 3d 5f 5d e1 bc ab 02 92 3d
       0.09071414 0.058998823 -0.027510343 0.07129415
000150 4c 8c 2a bd e0 25 6e 3d 78 17 b7 3d d3 0a 89 3c
       -0.041637704 0.05814159 0.08940023 0.016728794
000160 fa 43 11 bd 00 01 71 3d a6 dc dd bd 57 58 6a 3e
       -0.035465218 0.058838844 -0.10833101 0.22885261
000170 d4 8e 81 bd ae 30 e1 3c b9 a2 9e 3d 56 94 d5 3d
       -0.063260704 0.027489033 0.07745881 0.104286835
000180 a0 26 79 bd 38 ca f8 bb 5f e0 8f 3b cd f7 7c bb
       -0.06082785 -0.0075924657 0.004390761 -0.003859985
000190 ea 02 00 be 0b c4 f3 bd 40 be 54 3d ca 9b 84 bc
       -0.12501112 -0.119026266 0.05193925 -0.016187567
0001a0 c5 5e d4 3d 31 ec 76 bb f8 b1 26 3c ff 10 f2 bd
       0.10369638 -0.0037677402 0.010174267 -0.11819648
0001b0 1c fa 8f 3d 41 fe 8a bc e8 e3 a0 3a 31 dd 05 3e
       0.070301265 -0.01696694 0.0012274953 0.13072659
0001c0 d8 63 f4 3d ea b6 b4 3d 4a 5c 56 be d6 7c 20 3e
       0.11933106 0.088239506 -0.20933643 0.15672621
0001d0 6b 4f 2c bc e1 22 34 3c a7 98 00 be d9 15 9c 3d
       -0.010516982 0.010994644 -0.12558232 0.076213546
0001e0 5c 2b 1f 3c 79 e3 96 3d b1 81 50 be 72 bb c3 3d
       0.0097149275 0.07367606 -0.20361973 0.09557237
0001f0 0f 21 2d 3e 87 e0 11 bd ff 5e 18 3d 5f 6f e5 bd
       0.16907142 -0.035614517 0.03719997 -0.11202883
000200 bd 57 31 be 8e b4 45 3a 8a 06 9b bd 35 53 bd 3c
       -0.17318626 0.00075418584 -0.075696066 0.023110965
000210 5e b8 17 be 1d f2 c1 3d e7 33 a2 3d 40 9c 07 bc
       -0.14816424 0.094700076 0.07920056 -0.008276999
000220 6d 44 eb 3d 09 6c c6 3d f9 d3 ae 3d fd f1 cb bb
       0.114876606 0.09688575 0.08536524 -0.0062239156
000230 f4 a6 e5 bd c4 9e a0 bd 52 e7 bb bd 66 6d 98 3c
       -0.112134844 -0.07842782 -0.0917498 0.018606853
000240 40 a8 c3 3d 61 ae 25 3e b1 6b 08 3d 59 98 91 3e
       0.095535755 0.16179802 0.033305828 0.28436545
000250 e9 2e f4 bc aa 33 78 3c 4e a6 29 3c 4e 06 0f bd
       -0.029807525 0.015149036 0.0103545915 -0.034918122
000260 ed 54 09 bd 10 d8 1e bd ad e2 58 3e a8 d5 55 3d
       -0.033528257 -0.038780272 0.2118022 0.05220571
000270 3c 46 40 bc 5a 62 ce bd 5e 2d c1 3d d3 59 5a bc
       -0.011735495 -0.10077353 0.09432481 -0.01332708
000280 25 c7 76 3d d5 ff 14 bd cc da 0b bb 73 95 61 bd
       0.060248513 -0.036376793 -0.002134013 -0.055074167
000290 6d c5 c6 bd 79 31 a1 bd 37 e6 95 bd e4 21 8e 3d
       -0.09705625 -0.07870764 -0.073193006 0.06940058
0002a0 c7 2d 85 bd a6 7e be bc 25 54 39 bd b1 95 0c bd
       -0.06502872 -0.02325375 -0.045246262 -0.034322444
0002b0 1c 47 2d bc f3 20 be bd 9d 8f 11 be ad cc 39 be
       -0.010576036 -0.09283628 -0.1421494 -0.18144484
0002c0 a1 01 c9 bd 51 d1 a4 bd dd 81 10 3e d8 2a 84 3c
       -0.09814764 -0.080477364 0.14112039 0.01613371
0002d0 4b ea c9 3d 42 ee e8 bd 30 08 0e 3e 44 79 ef 3c
       0.09859141 -0.11373569 0.13870311 0.029232629
0002e0 2e 4e 07 be 53 e3 04 3e 0d 08 61 bd 0f 78 9e 3d
       -0.13213417 0.12977342 -0.05493932 0.07737743
0002f0 d4 71 1a 3e 44 8b af 3c 1d bf ab 3d 03 49 c2 3d
       0.15082484 0.021428712 0.08386061 0.09486582
000300 38 00 ad 3d f8 a6 74 3e 93 98 30 3c 7b ee ea bc
       0.08447307 0.23891819 0.010778564 -0.02867817
000310 de 6e 77 3c 59 cd 4a be 04 c1 3e be a8 06 3c 3d
       0.015102116 -0.19804896 -0.18628317 0.045904785
000320 01 b1 11 be 7d 28 12 3e 44 2d 00 be 3d 08 b8 3d
       -0.14227678 0.14273258 -0.12517267 0.08985946
000330 a6 6e 18 be 8b 44 4f be 76 f1 a0 3d eb ab 99 3c
       -0.14885959 -0.20240991 0.07858555 0.018758735
000340 cc 89 4a 3d 2c 43 1a 3e e5 c2 ff 3c 20 c1 10 3d
       0.04944782 0.15064687 0.031220863 0.03534043
000350 2c 82 43 bd c5 ed dc 3d 30 8f 2c bc fb a9 1b bd
       -0.047731563 0.107875384 -0.010532185 -0.038003903
000360 11 ef 80 bd b2 ce 1a 3e 53 c8 2d 3d 59 f0 82 ba
       -0.06295598 0.1511791 0.042427372 -0.0009989842
000370 b1 14 8a bd 59 52 07 3e 83 26 35 3d 33 10 a8 3d
       -0.06742228 0.13215007 0.04422618 0.08206215
000380 fe 1e 93 bc fe 95 ea 3c 3c 2f ca bd 28 80 a7 3d
       -0.017959114 0.028635975 -0.098722905 0.08178741
000390 04 8d a6 3c 88 15 7d bc 77 d9 be 3c cc 26 06 bd
       0.020330913 -0.015447028 0.023297055 -0.032751843
0003a0 81 c6 cc 3d 62 e5 95 3d ac b9 b6 3b 29 52 b8 bd
       0.09998799 0.07319142 0.005576333 -0.09000046
0003b0 f8 79 92 bd 1a b1 8b bd a6 d5 13 be 73 03 03 bd
       -0.0715217 -0.06820889 -0.14436969 -0.03198571
0003c0 d8 2e ae 3a 7c 62 25 be eb 27 de bd 1a c2 fb bd
       0.0013289107 -0.1615085 -0.108474575 -0.12292881
0003d0 d9 bc a4 3d 31 d7 aa bc cb ce b5 bb f8 43 02 3d
       0.08043832 -0.020854564 -0.0055483333 0.0318031
0003e0 e0 7d 80 bd 08 a8 18 bc 0c 03 32 be 90 8c c0 bd
       -0.06274009 -0.0093174055 -0.17383975 -0.0940181
0003f0 42 32 a9 bd cc ab 90 bd 6b d3 08 3d c8 76 ba bc
       -0.08261539 -0.07064018 0.03340475 -0.022761717

network_body._body_endoder.seq_layers.2.bias f4 [128]
000000 ee 39 c0 bb fe 92 37 3d 56 04 64 3b 9c ce bf 3b
       -0.0058662808 0.044817917 0.0034792623 0.005853487
000010 1f 39 ad 3b 12 38 de 3b 07 d8 83 3b 5f 26 ea 3b
       0.0052863504 0.0067815864 0.004023555 0.0071456875
000020 9f e0 13 3b 4a 56 f0 3a 05 cb d9 3b 1a ab 64 3d
       0.0022564305 0.0018336263 0.0066465163 0.055827238
000030 63 f3 bd bb 84 92 8c 3a df 8b 18 3b 5b b8 69 3b
       -0.005796836 0.0010724817 0.002327673 0.0035662863
000040 0f 73 22 3c 59 0a ad bb 6a 4d 08 3b 94 03 c7 3c
       0.009915127 -0.0052807746 0.0020798096 0.024293698
000050 6e dc 84 bb 29 4d 0e bc ee 96 4a bc 27 45 38 bc
       -0.0040545976 -0.008685389 -0.012365086 -0.011246956
000060 31 03 1f bc e2 5b 9b 3b 68 d2 16 3c bc b5 47 bc
       -0.009705351 0.004741178 0.009205438 -0.012189325
000070 7a d4 25 3b a8 e6 aa 3c 8f 8d 06 bc c8 00 2a 3c
       0.0025303648 0.020861939 -0.008212461 0.010376163
000080 55 b5 0d 3c 6f 8e 17 3c 7e 68 64 bc 4c 06 b0 3b
       0.00864919 0.009250267 -0.0139409285 0.0053718444
000090 a2 03 c8 3a 5b ce ff 3b fd 84 c2 3b 70 5d 12 3c
       0.0015259872 0.007806582 0.0059362636 0.00893341
0000a0 dd e1 9d bb 44 aa 11 bc 05 8c 20 bc d6 e6 a3 3b
       -0.0048181848 -0.008890692 -0.009799008 0.005001883
0000b0 93 b2 1c 3c ce f1 b0 3d a8 0f 04 3c 2a 68 32 3b
       0.00956406 0.086398706 0.008060373 0.002722273
0000c0 be 2b 62 3c f4 b4 a2 3a b6 f2 2d 3c 96 55 12 bc
       0.013804374 0.0012413547 0.010616949 -0.008931538
0000d0 5b 1a e1 3b 74 01 13 bc 24 89 57 bb eb 92 36 3c
       0.006869597 -0.008972514 -0.0032888139 0.011143426
0000e0 a3 72 76 bc 72 7f 8e 3c b0 3d 2c 3b 43 9d d5 bb
       -0.01504198 0.017394755 0.0026281886 -0.006518991
0000f0 d9 e4 4f bb 18 0e c0 ba ac 61 1e bc 5d 61 cf 3b
       -0.0031722097 -0.0014652638 -0.0096668415 0.0063287453
000100 4f 56 f0 3a f7 45 a3 3c c6 89 cd 3a c1 cb ac 3b
       0.0018336269 0.019930823 0.0015681318 0.005273313
000110 b1 6f 39 3c 23 c1 c8 3b ba 5d 13 bc e1 2a 0c bb
       0.011318133 0.0061265393 -0.008994514 -0.0021387863
000120 8e 63 8b bc f2 76 34 3b 8b c2 a3 bb 1f ce 13 39
       -0.017015245 0.0027536717 -0.0049975566 0.00014095799
000130 fa 3a 29 bb 1d 96 c9 bb 35 f3 f8 3b 91 2d fd 3b
       -0.0025822506 -0.006151928 0.007597352 0.007726379
000140 a3 2f da bb 16 3d 10 3b c0 34 29 bb ad d1 4e 3a
       -0.006658511 0.0022009066 -0.0025818795 0.00078895205
000150 b9 7a 59 bc 50 5c f2 ba 58 26 07 bc e7 5f c5 bb
       -0.013273888 -0.0018490646 -0.008248888 -0.0060233953
000160 3c 36 12 3c 4b ab d9 bb 3c 96 0c 3d ee 87 08 3c
       0.008924063 -0.006642734 0.034322962 0.008333189
000170 9a 6f 39 bc 6d d1 34 3c 1d 58 83 3c 0b 3e 26 3c
       -0.011318112 0.011036259 0.016033227 0.010146628
000180 68 fb d3 ba 04 c1 0f bb 11 6d 0b bc 22 aa 85 bb
       -0.0016172947 -0.0021935115 -0.00850989 -0.0040791193
000190 60 a1 7b bb d3 9d 05 bc be e4 ad 3b db c1 72 3b
       -0.0038395748 -0.008155304 0.005306809 0.0037041816
0001a0 b4 d5 de 3b 6d 49 82 bb 4c b8 39 bc c8 6f 06 bc
       0.0068003777 -0.003976038 -0.011335444 -0.008205362
0001b0 65 ed 27 bc 06 cf b3 bc b8 fa a5 3b 53 e8 3a 3c
       -0.01024947 -0.021949302 0.0050652884 0.0114079295
0001c0 0e e6 3f 3c a6 f1 11 bc cf 38 a2 3b 89 61 a1 3b
       0.011712564 -0.008907711 0.00495062 0.004924957
0001d0 05 60 57 3a 07 0d 0d bc 51 9c 0a bc c1 64 23 bb
       0.0008215907 -0.008609063 -0.00846012 -0.002493188
0001e0 b8 24 70 b9 89 f7 b4 bc d2 97 14 3c 18 e9 c6 bb
       -0.00022901862 -0.02209069 0.0090694 -0.0060702674
0001f0 40 f1 6f 39 37 63 ca 3b cf c5 aa bb d4 33 6f bc
       0.00022882689 0.006176378 -0.005211569 -0.014599759

action_model._continuous_distribution.log_sigma f4 [1, 2]
000000 42 dd 25 bb 70 14 0d bc
       -0.0025308882 -0.00861083

action_model._continuous_distribution.mu.weight f4 [2, 128]
000000 3a fe 4d bc ac 6e 84 ba 9c a6 2f bd 11 f4 99 3c
       -0.012572819 -0.0010103784 -0.0428835 0.018793138
000010 71 91 3d 3d 55 d1 52 bd db e9 c5 3b 32 b0 12 bd
       0.04628128 -0.051469166 0.0060398406 -0.035812564
000020 2d c9 36 bc 73 fd 49 bd 47 b0 a9 3b 48 c8 a7 bc
       -0.0111563625 -0.049313974 0.0051784846 -0.020481244
000030 8b 65 e6 bc 17 68 14 3d 77 06 18 bb 44 15 08 bd
       -0.028124591 0.03623208 -0.0023197213 -0.033223405
000040 6a e4 a1 3c 21 49 f3 3b 68 ec 1e bd 3c 7a 9e bc
       0.019762237 0.007424489 -0.038799673 -0.019345395
000050 60 1e bc bc ad 45 9c bc a1 d3 3b bc d5 29 8f bc
       -0.022963703 -0.019076193 -0.0114640305 -0.017476002
000060 18 de a5 bc 48 bc 06 3d 15 3b 0b 3d cb 02 da bb
       -0.020247504 0.032894403 0.033991892 -0.006653165
000070 3f 55 48 3b ac f3 8e bd ce 73 2f bc f4 71 aa 3c
       0.0030568389 -0.069800705 -0.010708762 0.02080629
000080 31 27 29 3d 6f a5 4a ba 13 dd 5c bb 2a c3 8c bc
       0.04129714 -0.000773034 -0.0033701106 -0.017182905
000090 c6 83 5b bd d4 c0 4e bd a3 12 a4 3b df 6d 66 bc
       -0.053592466 -0.050476864 0.0050071045 -0.014064281
0000a0 2c 96 14 bc 65 5a 3f bc d1 4c 81 3b 17 61 a7 3c
       -0.009069007 -0.011679267 0.003945925 0.020432038
0000b0 b7 7b 77 3c e7 c4 15 3d 7d 10 14 3d 5c 4a 0e bc
       0.0151051795 0.036564734 0.036148537 -0.008684721
0000c0 f5 cf 84 bc 4e 6b 98 bb 48 f5 df 3b bd 56 ff bc
       -0.016212443 -0.0046514636 0.0068346597 -0.03116929
0000d0 6e ea fd bc 98 e9 c0 bc 20 c6 65 3b 23 2f d9 3c
       -0.030995574 -0.023548886 0.0035060719 0.026511734
0000e0 a0 08 cd bc 29 20 a4 bb 28 56 96 3c 71 9f 02 bd
       -0.025028527 -0.0050087166 0.01835163 -0.031890336
0000f0 64 86 d3 bc b0 f7 b1 bb fd 7c 7b bc b7 bd 38 3b
       -0.025820918 -0.005431138 -0.015349624 0.002818925
000100 69 dd a4 bd 91 83 5f 3d f5 be 0d 3c e6 5d f8 39
       -0.08050043 0.05456883 0.008651485 0.00047372206
000110 28 2d 00 3d b7 de 1e 3c 5e 6e d4 bc da b8 0d ba
       0.031293064 0.009696654 -0.025931533 -0.0005406268
000120 ea c9 21 bd f1 99 32 bc 82 83 37 3b ed e2 96 bb
       -0.0394992 -0.01090096 0.0028001969 -0.0046046884
000130 f1 e0 2a bd 2b 49 5c bb a6 59 84 3c 96 1c 8b 3b
       -0.041718427 -0.0033612947 0.016156029 0.004245351
000140 ab 2c 6b bd de 6e 41 3c 6c 6e 05 bd 00 4c ca bc
       -0.057415646 0.011806218 -0.03257601 -0.024694443
000150 38 4a 2c bc d0 ae 2e bd da 2d 02 bd 08 62 b9 bc
       -0.010515742 -0.042647183 -0.03178201 -0.022629753
000160 c3 a2 c1 3b 36 9f 34 bb be 0e 82 bc 83 5f e0 3b
       0.0059092953 -0.0027560717 -0.01587617 0.0068473234
000170 0a 42 2f bc bf 52 80 3c fc e3 91 bd f5 05 07 3c
       -0.010696897 0.015664456 -0.07123563 0.008241166
000180 ed f8 df bb dc 3d 04 bd ad c7 2b bc 24 cb f7 bc
       -0.006835094 -0.032285556 -0.010484618 -0.030248232
000190 4b c8 f2 bc eb d8 dc bb 84 53 e1 3c 17 f0 30 bc
       -0.029636523 -0.006739726 0.027505644 -0.010799429
0001a0 c6 64 10 3b 9a 33 e9 3b d0 4d d0 bb 77 5f a7 bb
       0.0022032722 0.007116747 -0.006356932 -0.005107816
0001b0 df ab df bc f5 18 90 bd 8f 6f 18 3d 1a c9 1e bd
       -0.027303634 -0.0703601 0.037215766 -0.038766004
0001c0 4e 08 6c bd ed 52 0b bc 53 9a d8 3a e7 ad 0b bd
       -0.057625107 -0.008503658 0.0016525484 -0.034101393
0001d0 2c 6d 65 3c dc 93 43 bc ed 47 3d bc 28 ae 5f bd
       0.014003079 -0.011937108 -0.011552793 -0.054609448
0001e0 39 54 15 bc c3 29 98 bc ca 28 10 bd 02 cf 9e bc
       -0.0091143185 -0.018574601 -0.03519515 -0.019385818
0001f0 1d fc 12 bc 3c 28 8e 3b f7 cc 0e bb ff 7d 06 bc
       -0.008971241 0.0043382924 -0.002178965 -0.008208751
000200 bf 9f 95 3b e4 7d 13 3d b4 3c 5c bd 5a ab 2a bc
       0.0045661624 0.03600873 -0.05376883 -0.01041683
000210 11 9f 0e bc 8c f9 7c bd fc c9 98 bb 89 dd 4c bd
       -0.008704917 -0.061761424 -0.0046627503 -0.05001596
000220 de 9d 7d bc 1f 9d 0e bd dc f5 30 3c e0 95 80 3d
       -0.015479533 -0.03481781 0.010800805 0.062785864
000230 c4 16 a1 3c e5 ae ee bc 89 59 8f 3c 45 d8 f2 bc
       0.019664176 -0.02913613 0.017498748 -0.029644141
000240 67 79 b9 3c 80 80 30 3d ea 04 df bb 30 fb 1e 3c
       0.022640897 0.043091297 -0.0068060057 0.009703442
000250 59 0a 0f bd 08 df d8 3a 63 e0 9a bb 01 3a b9 3a
       -0.034921978 0.0016545961 -0.004726456 0.0014131666
000260 67 b8 28 3b e8 77 7d bc 68 d5 22 3b b8 62 1c ba
       0.0025744678 -0.015470482 0.0024846438 -0.0005965638
000270 cc 08 91 b9 f3 c3 37 bc a9 5d d7 bc 66 c8 7e 3c
       -0.0002766311 -0.0112161515 -0.026289778 0.015550708
000280 71 97 4f bc b8 e3 5d 3c ff 46 60 bb 23 34 98 bd
       -0.012670384 0.013543062 -0.0034222004 -0.07431819
000290 9e eb e2 bc b3 c1 79 bd da ff f8 3c e4 b4 1f bd
       -0.027700242 -0.06097574 0.030395437 -0.03899087
0002a0 7a 35 44 3c be ab 32 bc 9d 9f 18 bd 6e b1 5e bc
       0.01197564 -0.010905204 -0.037261594 -0.013592107
0002b0 ce 07 8b ba 0d 47 ba 3d 82 ed 26 bc 7f 71 77 3c
       -0.0010607184 0.09095583 -0.010188462 0.015102743
0002c0 03 8e 49 3c 39 62 82 3c 93 7f 96 3c 8c 15 3e bc
       0.012301925 0.015915977 0.018371379 -0.011601817
0002d0 a8 d5 8b bc 7b 9a 89 3b 40 fa 53 bc 35 9f 52 3c
       -0.017069653 0.0041993237 -0.012938082 0.012855341
0002e0 cb d9 73 bc ab 24 7b 3b 03 0e 8c bc 86 95 76 3a
       -0.014883469 0.0038321416 -0.017096525 0.0009406436
0002f0 4d c2 a0 bb 23 6c 12 3c 2a aa b4 3b 8b 8a c4 3b
       -0.004905975 0.008936915 0.005513449 0.005997961
000300 5a 50 21 bc 22 96 07 bd 22 c7 44 bc cc a0 63 3c
       -0.009845817 -0.033102162 -0.012010368 0.013893317
000310 ca c0 28 3c 2d 43 6c bb bc 4a 11 bb 3f 3f ea bb
       0.010299871 -0.0036050782 -0.002216979 -0.007148653
000320 5d 5f c9 bd dc 89 64 3d 5a 2e 8d bc 8d 20 7f 3c
       -0.09832642 0.055795535 -0.017234016 0.015571726
000330 f3 a7 84 bd 1c 3d 9d bc 72 8f d1 bb 88 8a e2 3b
       -0.06477346 -0.019194178 -0.006395274 0.006913487
000340 f4 01 af 3c b9 1f 4c bc a7 61 3d bc f6 09 fe 3b
       0.021363236 -0.012458735 -0.011558927 0.0077526523
000350 29 a1 98 bb 13 52 b1 bc 32 39 48 3c 7b 84 8b 3c
       -0.0046578837 -0.021645581 0.012220668 0.017030945
000360 8e c6 7e 3c b9 d9 94 3b 0a c2 3a 3d b9 e2 28 3c
       0.015550269 0.004542556 0.045595206 0.010307961
000370 d9 e6 b0 bb 41 d2 b5 3b ea 3e e6 bc 85 20 9a 3b
       -0.005398613 0.005548746 -0.028106172 0.0047035837
000380 cc 07 8b bc 9e 8c b3 bc 2c 5a bc bc 16 d4 c7 bc
       -0.016971491 -0.021917637 -0.022992216 -0.024393123
000390 15 a9 0e bd f1 7f 02 bd ee 83 9e bc 11 d2 a1 3c
       -0.034829218 -0.031860296 -0.019350018 0.019753488
0003a0 9b 6c 55 3a 89 6b 1a bc 24 9c f1 bb 8d 59 ef 3a
       0.00081414887 -0.009425052 -0.0073733497 0.0018260941
0003b0 3a cf c8 3b e2 48 ac bd fa 73 ad bc ba e0 65 bc
       0.006128219 -0.08412339 -0.021173466 -0.01403063
0003c0 d7 b0 42 bd d5 82 3e bc 14 79 32 bd fd c6 e2 3a
       -0.04753193 -0.0116278725 -0.0435725 0.0017301735
0003d0 a1 d3 b8 bc 94 e3 d9 3b 90 5e a5 3c 41 52 07 bd
       -0.02256185 0.006649444 0.020186692 -0.033037428
0003e0 68 59 9d 3c 84 ca a2 bc d7 1a 34 bc 02 c2 4d bc
       0.019207671 -0.019871958 -0.010992727 -0.012558462
0003f0 a1 7b ad 3c ae 3e 25 3c cd 3e 27 3c 78 4f ac bc
       0.021177115 0.010085745 0.010207844 -0.021033987

action_model._continuous_distribution.mu.bias f4 [2]
000000 ee 67 32 3c 50 eb 9c 3b
       0.010889037 0.0047887936
