results/ppo/MoveToGoal/MoveToGoal-3392.pt (torch, 143907 bytes, 10 tensors)

network_body._body_endoder.seq_layers.0.weight f4 [128, 1]
0	0x3f664d94	0.89962125
1	0x3e68a5a8	0.22719443
2	0xbf288536	-0.65828264
3	0x3f20a4f9	0.6275173
4	0xbf8e1f66	-1.1103332
5	0x3f59e91f	0.8512134
6	0x3fc38b63	1.5276912
7	0x3ee096f5	0.4386517
8	0x3f83adfa	1.0287468
9	0xbdbfb6aa	-0.09361012
10	0xbea05bbc	-0.31319988
11	0xbfb33ce6	-1.400296
12	0x3f0bc366	0.5459503
13	0xbf5e46fa	-0.8682705
14	0xbf9afc24	-1.2108197
15	0xbd247564	-0.040151015
16	0x3fd5d424	1.6705365
17	0xbf63d72a	-0.8900019
18	0xbf3708e0	-0.7149792
19	0x3f17b6e6	0.59263456
20	0xbe937234	-0.28798068
21	0xbe5f79e6	-0.21823844
22	0x3ff3d4bd	1.9049298
23	0xbf93ce72	-1.1547377
24	0x3ec132f0	0.37734175
25	0x3f089f1e	0.53367794
26	0xbf670f26	-0.9025749
27	0x3e5d8858	0.21634042
28	0x3f4369c1	0.7633324
29	0xbe23d4cc	-0.15999144
30	0x3fa092ed	1.2544838
31	0x3f6f71d3	0.93533057
32	0xbe036ab0	-0.12833667
33	0x3ff8ebe2	1.9446986
34	0xbefde734	-0.49590456
35	0x3d057c8e	0.032589488
36	0xbe537b46	-0.20652494
37	0xbfef6080	-1.8701324
38	0xbf433171	-0.76247317
39	0x3f2ccb6f	0.67497915
40	0x3f2fd739	0.6868778
41	0xbe0a7fe3	-0.13525347
42	0x3f8d7957	1.1052655
43	0xbf92a607	-1.1456918
44	0xbf110095	-0.56641513
45	0xbffe4580	-1.986496
46	0xbfc06b75	-1.5032793
47	0x3f627fa3	0.8847601
48	0xbbd60ce4	-0.0065322984
49	0x3f60b08a	0.8776938
50	0xbddea192	-0.10870661
51	0xbe8167a2	-0.25274378
52	0xbf3bd2dc	-0.7336862
53	0x3f339e3b	0.70163316
54	0xbefcd01b	-0.49377522
55	0x3fe04d59	1.7523605
56	0xbf5f301a	-0.8718277
57	0x3deea47f	0.11652469
58	0xbf358353	-0.7090351
59	0xbe00acc5	-0.12565906
60	0xbea4a99f	-0.3216066
61	0xbf4bcfd8	-0.7961402
62	0xbd0f70aa	-0.035019554
63	0xbf815c1c	-1.0106235
64	0xbeee85e7	-0.46586534
65	0x401a5f17	2.4120538
66	0xbf18cbf7	-0.59686226
67	0x3e97d552	0.29654938
68	0xbf6c8c20	-0.92401314
69	0xbec0aa0e	-0.3762974
70	0xbfb6e17c	-1.4287562
71	0xbf52ad28	-0.82295465
72	0x3f866169	1.0498477
73	0x3ea8f8e3	0.33002385
74	0x3f80d96c	1.0066352
75	0x3f95c856	1.1701763
76	0xbf18082f	-0.5938749
77	0x3e360313	0.1777461
78	0xbd21781b	-0.039421182
79	0x3fe0b913	1.755648
80	0x3f008de0	0.50216484
81	0xbdfabe0b	-0.12243279
82	0x3f1cb66d	0.6121586
83	0x3fbe889c	1.488544
84	0xbf13a353	-0.5767109
85	0x3ef1d226	0.47230643
86	0xbf2f8eb5	-0.6857713
87	0x3fb20a49	1.3909389
88	0xc00709d1	-2.1099741
89	0xbe7ce3fb	-0.24696343
90	0xbf2fe512	-0.6870891
91	0xbfc198a3	-1.5124706
92	0x402d7bd3	2.7106826
93	0xbf2d0f02	-0.67601025
94	0x3e998672	0.29985386
95	0x3f92879a	1.1447632
96	0xbf9234ec	-1.14224
97	0x3f8587e9	1.0432101
98	0xbdc7e9f7	-0.09761422
99	0xbf63a4b9	-0.8892322
100	0xc009cc62	-2.1530995
101	0x3f82b757	1.0212201
102	0xbb8add8f	-0.0042378376
103	0xbfb9b2dd	-1.450771
104	0x3f58f05f	0.8474178
105	0x3ee16ed3	0.44029865
106	0xbdef3407	-0.11679845
107	0xbfc621b1	-1.5479032
108	0xbc610944	-0.013735119
109	0x3f23c4e3	0.639723
110	0xbfe3790a	-1.7771313
111	0xbf83a17f	-1.028366
112	0x3fc99d56	1.575114
113	0x3e152947	0.14566527
114	0x3f5d9ec3	0.86570376
115	0xbf986832	-1.1906798
116	0xbfc2035d	-1.5157276
117	0x3c7a7825	0.015287434
118	0x3fadc207	1.3574837
119	0x3ec7efbe	0.39050096
120	0x3f32bdfe	0.69821155
121	0x3f490427	0.7852196
122	0xbebbbb00	-0.36666107
123	0x3f65803f	0.89648813
124	0x3ff07f73	1.8788894
125	0x3e582ec3	0.21111588
126	0xbf0d1fc1	-0.5512658
127	0x3f424271	0.7588263

network_body._body_endoder.seq_layers.0.bias f4 [128]
0	0x00000000	0.0
1	0x00000000	0.0
2	0x00000000	0.0
3	0x00000000	0.0
4	0x00000000	0.0
5	0x00000000	0.0
6	0x00000000	0.0
7	0x00000000	0.0
8	0x00000000	0.0
9	0x00000000	0.0
10	0x00000000	0.0
11	0x00000000	0.0
12	0x00000000	0.0
13	0x00000000	0.0
14	0x00000000	0.0
15	0x00000000	0.0
16	0x00000000	0.0
17	0x00000000	0.0
18	0x00000000	0.0
19	0x00000000	0.0
20	0x00000000	0.0
21	0x00000000	0.0
22	0x00000000	0.0
23	0x00000000	0.0
24	0x00000000	0.0
25	0x00000000	0.0
26	0x00000000	0.0
27	0x00000000	0.0
28	0x00000000	0.0
29	0x00000000	0.0
30	0x00000000	0.0
31	0x00000000	0.0
32	0x00000000	0.0
33	0x00000000	0.0
34	0x00000000	0.0
35	0x00000000	0.0
36	0x00000000	0.0
37	0x00000000	0.0
38	0x00000000	0.0
39	0x00000000	0.0
40	0x00000000	0.0
41	0x00000000	0.0
42	0x00000000	0.0
43	0x00000000	0.0
44	0x00000000	0.0
45	0x00000000	0.0
46	0x00000000	0.0
47	0x00000000	0.0
48	0x00000000	0.0
49	0x00000000	0.0
50	0x00000000	0.0
51	0x00000000	0.0
52	0x00000000	0.0
53	0x00000000	0.0
54	0x00000000	0.0
55	0x00000000	0.0
56	0x00000000	0.0
57	0x00000000	0.0
58	0x00000000	0.0
59	0x00000000	0.0
60	0x00000000	0.0
61	0x00000000	0.0
62	0x00000000	0.0
63	0x00000000	0.0
64	0x00000000	0.0
65	0x00000000	0.0
66	0x00000000	0.0
67	0x00000000	0.0
68	0x00000000	0.0
69	0x00000000	0.0
70	0x00000000	0.0
71	0x00000000	0.0
72	0x00000000	0.0
73	0x00000000	0.0
74	0x00000000	0.0
75	0x00000000	0.0
76	0x00000000	0.0
77	0x00000000	0.0
78	0x00000000	0.0
79	0x00000000	0.0
80	0x00000000	0.0
81	0x00000000	0.0
82	0x00000000	0.0
83	0x00000000	0.0
84	0x00000000	0.0
85	0x00000000	0.0
86	0x00000000	0.0
87	0x00000000	0.0
88	0x00000000	0.0
89	0x00000000	0.0
90	0x00000000	0.0
91	0x00000000	0.0
92	0x00000000	0.0
93	0x00000000	0.0
94	0x00000000	0.0
95	0x00000000	0.0
96	0x00000000	0.0
97	0x00000000	0.0
98	0x00000000	0.0
99	0x00000000	0.0
100	0x00000000	0.0
101	0x00000000	0.0
102	0x00000000	0.0
103	0x00000000	0.0
104	0x00000000	0.0
105	0x00000000	0.0
106	0x00000000	0.0
107	0x00000000	0.0
108	0x00000000	0.0
109	0x00000000	0.0
110	0x00000000	0.0
111	0x00000000	0.0
112	0x00000000	0.0
113	0x00000000	0.0
114	0x00000000	0.0
115	0x00000000	0.0
116	0x00000000	0.0
117	0x00000000	0.0
118	0x00000000	0.0
119	0x00000000	0.0
120	0x00000000	0.0
121	0x00000000	0.0
122	0x00000000	0.0
123	0x00000000	0.0
124	0x00000000	0.0
125	0x00000000	0.0
126	0x00000000	0.0
127	0x00000000	0.0

network_body._body_endoder.seq_layers.2.weight f4 [128, 128]
0	0x3bba842e	0.0056920266
1	0x3da3dff6	0.080017015
2	0x3bb225d8	0.00543664
3	0xbcd1b6b9	-0.025599824
4	0xbd199c8c	-0.03750281
5	0x3e261f97	0.16222988
6	0xbd2045bb	-0.039129
7	0xbddacd4f	-0.10683691
8	0x3dbf0b8e	0.09328376
9	0xbe051c02	-0.12998965
10	0xbe5aaf50	-0.21355939
11	0xbd9bbc21	-0.07604242
12	0x3d2476ef	0.040152486
13	0x3deeb521	0.11655641
14	0x3d45451b	0.048161607
15	0x3de7bab2	0.11314906
16	0x3dfb9e3d	0.12286041
17	0xbba5b09b	-0.0050564534
18	0x3d799038	0.060928553
19	0xbe2f4199	-0.17114867
20	0x3d713391	0.05888707
21	0x3c8d03b5	0.017213682
22	0x3dd30d30	0.1030525
23	0x3cb9bd9f	0.022673426
24	0xbdd11233	-0.10208549
25	0x3b2504f6	0.002517996
26	0xbdd668f7	-0.10469239
27	0x3bcdeb0c	0.0062841233
28	0xbdd98a2c	-0.10622057
29	0x3d44bb93	0.048030447
30	0xbd963661	-0.07334591
31	0xbb85de79	-0.0040853587
32	0xbd140a54	-0.036142662
33	0x3e2b4fc5	0.16729648
34	0x3d16cca2	0.036816247
35	0x3d66c148	0.05633667
36	0xbdd37d6d	-0.103266574
37	0x3d3cc71e	0.04608833
38	0x3ccac215	0.024750749
39	0x3e146040	0.14489841
40	0xbdae2172	-0.08502473
41	0xbdbef6dc	-0.093244284
42	0xbd1a3193	-0.037644934
43	0x3d071a6e	0.03298419
44	0x3d17433a	0.036929347
45	0xbd41d51e	-0.047322385
46	0x3d395468	0.04524651
47	0x3e0ecd81	0.13945581
48	0x3cfff549	0.03124489
49	0xbc17a89a	-0.009256506
50	0x3cd267eb	0.025684318
51	0x3e250616	0.16115603
52	0x3d560987	0.05225518
53	0x3dc3d597	0.095622234
54	0xbcb24e85	-0.021765957
55	0x3d88e04b	0.066834055
56	0x3da31f9e	0.07965015
57	0x3db3bfd6	0.08776824
58	0x3e441ea3	0.19152312
59	0xbc799592	-0.015233414
60	0xbcc642b6	-0.024201732
61	0x3d94dc08	0.0726853
62	0xbbbe18d7	-0.005801301
63	0xbd8c511d	-0.06851409
64	0x3e0120bf	0.12610148
65	0xbda2a887	-0.079423
66	0xbdd80402	-0.105476394
67	0x3dac95bb	0.08426996
68	0x3d400392	0.046878405
69	0x3dbc1764	0.09184149
70	0x3d99d64c	0.07511577
71	0xbcad133c	-0.021127336
72	0xbc051f70	-0.008125171
73	0x3dd44710	0.103651166
74	0x3dac9faf	0.08428895
75	0x3de2885b	0.11061164
76	0x3c6b0e1b	0.014346625
77	0xbe09bebe	-0.13451669
78	0xbc2bd46d	-0.010487658
79	0x3bd6ea42	0.0065586874
80	0xbe3c17dc	-0.18368477
81	0x3cf8371b	0.030299714
82	0xbda00c6d	-0.0781487
83	0x3c6ff931	0.014646814
84	0x3c5b6f98	0.013393305
85	0xbcd1abcc	-0.025594614
86	0x3da3d47b	0.07999512
87	0x3d4de6c4	0.050268903
88	0x3cdc4816	0.026889842
89	0xba59d884	-0.00083101564
90	0xbd206b10	-0.039164603
91	0x3cfcdf7a	0.03086828
92	0x3ca31967	0.019909574
93	0xbcd8bef3	-0.02645824
94	0x3da1e22a	0.079044655
95	0xbdc5c56e	-0.09656797
96	0x3da5ab94	0.080893666
97	0xbcda08c1	-0.026615502
98	0x3dd78207	0.105228476
99	0x3c4a6af7	0.012354604
100	0x3d8694d9	0.06571359
101	0xbdc93986	-0.09825425
102	0xbc3f6bd7	-0.011683426
103	0xbd1d4700	-0.03839779
104	0xbd9f6eeb	-0.07784828
105	0x3e53b042	0.20672706
106	0xbe3460d1	-0.17615058
107	0x3d8a1921	0.06743074
108	0xbe358d7d	-0.17729755
109	0x3b669fd3	0.0035190478
110	0xbc897dee	-0.01678368
111	0x3dbdf5b7	0.09275382
112	0xbcb87729	-0.022517757
113	0x3d99b519	0.07505245
114	0x3cf9c48b	0.030489227
115	0x3d6d1d4e	0.057889275
116	0xb8bfe3c5	-9.150015e-05
117	0x3dff86ab	0.12476858
118	0x3da20d2a	0.07912667
119	0x3cd6057e	0.026125666
120	0x3d8d713f	0.069063656
121	0xbbb124c1	-0.0054059927
122	0x3ce2e2ce	0.02769604
123	0x3db6205c	0.08892891
124	0xbd86bc4f	-0.06578886
125	0x3c3bba1c	0.011457946
126	0xbdcc19ed	-0.099658825
127	0x3d42215a	0.047395088
128	0x3d61dad7	0.055140343
129	0xbdb130d5	-0.08651892
130	0x3cb94d4f	0.022619871
131	0xbb356ee5	-0.0027684506
132	0xbdcb28dd	-0.099199034
133	0x3ca6f3aa	0.02037986
134	0x3c2ad17f	0.010425924
135	0x3d52ba97	0.051447477
136	0x3c6376c7	0.013883299
137	0x3d6c5e50	0.05770713
138	0x3da65704	0.08122066
139	0x3c96cee0	0.018409193
140	0xbe4f97c1	-0.20272733
141	0x3dd27bdf	0.10277533
142	0xbc62c400	-0.013840675
143	0x3d955fd4	0.072936684
144	0xbd9613b8	-0.0732798
145	0x3ccaf6ef	0.02477595
146	0xbc86ffbc	-0.016479366
147	0xbd70aa2b	-0.058756035
148	0x3cc9b54a	0.024622578
149	0x3dad4f58	0.08462399
150	0x3d68632b	0.0567352
151	0xbd9242e4	-0.071416646
152	0x3d1bc483	0.038029205
153	0x3e19a1c4	0.15003115
154	0xbd8d70f1	-0.069063075
155	0x3cbb60ed	0.022873366
156	0xbd7fe3be	-0.06247305
157	0x3db16d63	0.08663442
158	0xbcd3d52c	-0.025858484
159	0xbd852c89	-0.06502635
160	0x3d1ec612	0.038763113
161	0x3cccfc44	0.025022633
162	0x3e0b008e	0.1357443
163	0xbd41b6fd	-0.04729365
164	0x3dad4253	0.08459916
165	0x3cc3fbf9	0.02392386
166	0xbc815819	-0.015789079
167	0x3d7f471d	0.06232368
168	0xbd2dd6f5	-0.042441327
169	0xbc138f4e	-0.0090063345
170	0x3d81784c	0.06321773
171	0x3de2c19c	0.11072084
172	0x3d6fa154	0.058503464
173	0xbd303163	-0.04301585
174	0xbdf82b73	-0.12117662
175	0x3d2be549	0.04196671
176	0xbd74b901	-0.059746746
177	0x3d9093c1	0.07059432
178	0x3dbdf72f	0.09275662
179	0xbd00b23e	-0.031419985
180	0xbe1640d2	-0.14673164
181	0x3c982b24	0.018575259
182	0xbd9d772e	-0.07688747
183	0xbd10f9f8	-0.03539464
184	0xbcaacf64	-0.020850845
185	0x3dc7776c	0.09739575
186	0x3d3c7075	0.046005685
187	0x3c8609c5	0.01636208
188	0x3dc3c078	0.09558195
189	0x3d758da6	0.05994954
190	0x3d36805d	0.04455601
191	0xbc713419	-0.014721894
192	0xbde8b42a	-0.113624886
193	0x3df9245d	0.12165139
194	0x3db6525a	0.08902426
195	0xbc731a21	-0.014837773
196	0x3cc04f37	0.023475273
197	0x3d3bd4ad	0.04585712
198	0x3d019fc3	0.0316465
199	0x3d4cdc22	0.050014623
200	0xbcff9821	-0.03120047
201	0x3dde8bd2	0.10866512
202	0xbdcec5a7	-0.10096293
203	0x3cf40060	0.029785335
204	0x3deb51e5	0.114902295
205	0x3bb82161	0.0056192135
206	0x3e02fff8	0.12792957
207	0x3e183ff9	0.14868154
208	0xbd38d3c0	-0.045123816
209	0x3db38ecf	0.08767473
210	0xbdc14647	-0.094372325
211	0x3d6777ab	0.05651061
212	0x3cb69035	0.02228556
213	0xbd89a9f4	-0.06721869
214	0x3e9aac3e	0.30209535
215	0x3d5c2b30	0.053752124
216	0x3c3dd433	0.011586237
217	0x3c253a9f	0.010084777
218	0xbde25e8a	-0.11053188
219	0x3ddb55bf	0.10709714
220	0x3e36f987	0.17868625
221	0xbd94950f	-0.07254993
222	0x3d495c65	0.04916038
223	0x3c132211	0.00898029
224	0xbd63d258	-0.05562052
225	0x3d4d0f59	0.050063465
226	0xbd217721	-0.03942025
227	0xbc393c12	-0.011305826
228	0xbde04f84	-0.109526664
229	0xbe33c456	-0.17555365
230	0x3b27b05d	0.0025587298
231	0x3ddf89dd	0.10914967
232	0x3e0313e9	0.12800564
233	0xbdf9471e	-0.12171768
234	0xbe09feaf	-0.1347606
235	0xbdc5aaa0	-0.09651685
236	0x3df0d864	0.11760023
237	0x3d15bf84	0.036559597
238	0x3de32f4b	0.11093005
239	0x3db7808a	0.08960064
240	0x3d429c27	0.0475122
241	0xbe1d5382	-0.15363887
242	0xbe1e0614	-0.15432006
243	0x3d1a2323	0.037631165
244	0xbc369236	-0.011143258
245	0x3e0f9a60	0.14023733
246	0xbe125859	-0.14291514
247	0xbd5a509d	-0.053299535
248	0xbe584fcd	-0.21124192
249	0xbd854756	-0.06507747
250	0x3dddc1b7	0.10827964
251	0xbdc9c2f5	-0.09851638
252	0x3c1a4de9	0.009417989
253	0xbdf4d8f2	-0.119554415
254	0xbca4d4ca	-0.020120997
255	0x3d10ce5d	0.035353053

network_body._body_endoder.seq_layers.2.bias f4 [128]
0	0x00000000	0.0
1	0x00000000	0.0
2	0x00000000	0.0
3	0x00000000	0.0
4	0x00000000	0.0
5	0x00000000	0.0
6	0x00000000	0.0
7	0x00000000	0.0
8	0x00000000	0.0
9	0x00000000	0.0
10	0x00000000	0.0
11	0x00000000	0.0
12	0x00000000	0.0
13	0x00000000	0.0
14	0x00000000	0.0
15	0x00000000	0.0
16	0x00000000	0.0
17	0x00000000	0.0
18	0x00000000	0.0
19	0x00000000	0.0
20	0x00000000	0.0
21	0x00000000	0.0
22	0x00000000	0.0
23	0x00000000	0.0
24	0x00000000	0.0
25	0x00000000	0.0
26	0x00000000	0.0
27	0x00000000	0.0
28	0x00000000	0.0
29	0x00000000	0.0
30	0x00000000	0.0
31	0x00000000	0.0
32	0x00000000	0.0
33	0x00000000	0.0
34	0x00000000	0.0
35	0x00000000	0.0
36	0x00000000	0.0
37	0x00000000	0.0
38	0x00000000	0.0
39	0x00000000	0.0
40	0x00000000	0.0
41	0x00000000	0.0
42	0x00000000	0.0
43	0x00000000	0.0
44	0x00000000	0.0
45	0x00000000	0.0
46	0x00000000	0.0
47	0x00000000	0.0
48	0x00000000	0.0
49	0x00000000	0.0
50	0x00000000	0.0
51	0x00000000	0.0
52	0x00000000	0.0
53	0x00000000	0.0
54	0x00000000	0.0
55	0x00000000	0.0
56	0x00000000	0.0
57	0x00000000	0.0
58	0x00000000	0.0
59	0x00000000	0.0
60	0x00000000	0.0
61	0x00000000	0.0
62	0x00000000	0.0
63	0x00000000	0.0
64	0x00000000	0.0
65	0x00000000	0.0
66	0x00000000	0.0
67	0x00000000	0.0
68	0x00000000	0.0
69	0x00000000	0.0
70	0x00000000	0.0
71	0x00000000	0.0
72	0x00000000	0.0
73	0x00000000	0.0
74	0x00000000	0.0
75	0x00000000	0.0
76	0x00000000	0.0
77	0x00000000	0.0
78	0x00000000	0.0
79	0x00000000	0.0
80	0x00000000	0.0
81	0x00000000	0.0
82	0x00000000	0.0
83	0x00000000	0.0
84	0x00000000	0.0
85	0x00000000	0.0
86	0x00000000	0.0
87	0x00000000	0.0
88	0x00000000	0.0
89	0x00000000	0.0
90	0x00000000	0.0
91	0x00000000	0.0
92	0x00000000	0.0
93	0x00000000	0.0
94	0x00000000	0.0
95	0x00000000	0.0
96	0x00000000	0.0
97	0x00000000	0.0
98	0x00000000	0.0
99	0x00000000	0.0
100	0x00000000	0.0
101	0x00000000	0.0
102	0x00000000	0.0
103	0x00000000	0.0
104	0x00000000	0.0
105	0x00000000	0.0
106	0x00000000	0.0
107	0x00000000	0.0
108	0x00000000	0.0
109	0x00000000	0.0
110	0x00000000	0.0
111	0x00000000	0.0
112	0x00000000	0.0
113	0x00000000	0.0
114	0x00000000	0.0
115	0x00000000	0.0
116	0x00000000	0.0
117	0x00000000	0.0
118	0x00000000	0.0
119	0x00000000	0.0
120	0x00000000	0.0
121	0x00000000	0.0
122	0x00000000	0.0
123	0x00000000	0.0
124	0x00000000	0.0
125	0x00000000	0.0
126	0x00000000	0.0
127	0x00000000	0.0

action_model._continuous_distribution.mu.weight f4 [1, 128]
0	0xbcc7ea02	-0.024403576
1	0x3c0aa1af	0.0084614
2	0x3cd99b00	0.026563168
3	0x3d0af320	0.03392327
4	0xb9b6236b	-0.00034740134
5	0x3c8b3577	0.016993267
6	0x3c37a3b5	0.011208464
7	0x3bd9a4f5	0.006641979
8	0x3c831d1b	0.01600509
9	0x3c1a83b7	0.009430817
10	0x3cb2dc3f	0.021833537
11	0xbd0cbdd5	-0.034360725
12	0xbb2b7ed2	-0.002616812
13	0xbb5c1838	-0.0033583771
14	0xbc015c8b	-0.007895599
15	0x3c510c6a	0.012759307
16	0xbce8d442	-0.028421525
17	0xbcf24adf	-0.029576717
18	0x3c52e593	0.012872118
19	0xbb7d591d	-0.0038657852
20	0xbc0ce0b0	-0.008598492
21	0xbd18f1b7	-0.037339892
22	0x3c2deed7	0.010616026
23	0x3bac91cd	0.0052664042
24	0x3c38192b	0.011236469
25	0x3c3bd58b	0.011464487
26	0xbc5c826f	-0.013458832
27	0x3c01d521	0.007924349
28	0x3c40bd77	0.011763922
29	0xbcd43e9d	-0.025908763
30	0xbc4dfd6f	-0.01257263
31	0xbaa4b1a0	-0.0012565143
32	0xbcd03667	-0.025416566
33	0xbbd2228a	-0.006412809
34	0x3ce19e1f	0.027541218
35	0xbb835ccc	-0.004008865
36	0xbc137ae3	-0.009001466
37	0x3b52073f	0.0032047776
38	0x3c10a412	0.00882818
39	0xbc0025cb	-0.007821511
40	0x3cefa550	0.029253632
41	0xba9c8f5e	-0.0011944582
42	0xbca68062	-0.02032489
43	0x3b78082f	0.0037846675
44	0xbc05600b	-0.008140574
45	0xbc80034f	-0.015626578
46	0x3bf31b5b	0.0074190325
47	0xb9a34cec	-0.00031147094
48	0xbb81531a	-0.003946674
49	0x3c926da3	0.017874544
50	0x3c3bb084	0.011455659
51	0x3cdd6428	0.027025297
52	0x3c35b093	0.011089462
53	0xbc688ef7	-0.014194242
54	0xbb203593	-0.0024445995
55	0xbc44e9c5	-0.012018626
56	0xbbd434ad	-0.006476006
57	0x3cf5013b	0.029907813
58	0xbbc72c5c	-0.006078286
59	0xba0392a8	-0.0005019107
60	0x3cbd03a7	0.02307303
61	0x3c87e799	0.016589927
62	0xbbde45d5	-0.006783227
63	0xbbe0c295	-0.0068591335
64	0xbc09e4d3	-0.008416372
65	0x3c47b5d3	0.012189346
66	0x3c9ae9e3	0.018910354
67	0x3bbeb709	0.0058201593
68	0x3c5d94b3	0.013524222
69	0x3be1c82b	0.006890317
70	0xbc83dce9	-0.01609655
71	0xbbd8555a	-0.0066019716
72	0xbaaa1473	-0.0012976065
73	0xbad2c98a	-0.0016081792
74	0xbc931bdb	-0.017957618
75	0xbc15bf90	-0.00913991
76	0x3c3a12c4	0.011357013
77	0xbc43ecda	-0.011958325
78	0xbc278afc	-0.010226008
79	0xbb9051f7	-0.004404302
80	0x3d0e7353	0.03477795
81	0xbca59ae3	-0.020215457
82	0xbb1a09dc	-0.0023504412
83	0x3b626dff	0.0034550426
84	0x3b05875b	0.0020374868
85	0x3c24f61c	0.010068443
86	0x3c4caf1b	0.01249292
87	0x3b501405	0.0031750214
88	0x3b3f7edc	0.0029219901
89	0xbc96ad6d	-0.018393243
90	0xbc467fe3	-0.0121154515
91	0xbc7c5ac2	-0.015402498
92	0xbc8e7fcc	-0.017394923
93	0x39e436ca	0.0004352837
94	0x3ca7f5ca	0.020502944
95	0x3b82868b	0.003983324
96	0xbb1a7ba9	-0.0023572242
97	0x3c18a1f8	0.00931596
98	0x3c97fa9e	0.01855212
99	0xbc509c13	-0.0127325235
100	0x3c0bd047	0.008533544
101	0xbc84e280	-0.016221285
102	0xbcd5586a	-0.026043136
103	0xbc7d21ba	-0.015449936
104	0x3c8814ef	0.016611544
105	0x3caa86f9	0.020816313
106	0xbc57e8a3	-0.0131780235
107	0x3ce74015	0.028228799
108	0x3c9b3073	0.018944
109	0x3c7a5bb7	0.015280656
110	0xbc1a4bb9	-0.009417468
111	0x3bd15ecd	0.006389475
112	0xb9a97de3	-0.00032327985
113	0x3c493f1a	0.012283111
114	0xbac1d8b4	-0.0014789314
115	0x3cdb115f	0.026741682
116	0xbd02a40f	-0.03189474
117	0xb9672778	-0.0002204458
118	0x3b8d8f1f	0.00432004
119	0x3cb6eeb4	0.02233062
120	0xbaa271c8	-0.0012393529
121	0x3b6a688f	0.0035767888
122	0x3c3e60db	0.011619772
123	0x3cc63987	0.024197353
124	0xbb3b7e27	-0.0028609128
125	0x3bc53c59	0.006019157
126	0x3c0a8804	0.00845528
127	0xbb714595	-0.0036815156

network_body._body_endoder.seq_layers.0.weight f4 [128, 1]
0	0x3fc380e0	1.5273705
1	0xbf9424b0	-1.1573696
2	0xbe9636c2	-0.29338652
3	0xbf49f991	-0.78896433
4	0x3f8b0803	1.086182
5	0x3f963f08	1.1737986
6	0xbfadad14	-1.3568444
7	0x40260d79	2.5945723
8	0xbf97dc8f	-1.1864184
9	0xbec0a417	-0.3762519
10	0x3f4a347a	0.7898632
11	0x3bc630f6	0.006048317
12	0xbfb0d590	-1.3815174
13	0xbe4fdb4a	-0.20298496
14	0x3fcdce0d	1.6078507
15	0x3f818f43	1.0121845
16	0xbfa7fb3a	-1.3123543
17	0xbf74e52e	-0.956622
18	0xbfabd398	-1.3423948
19	0x3f7041a9	0.9385019
20	0xbd051867	-0.032493975
21	0xbfdf0f52	-1.742655
22	0x3f05552b	0.5208308
23	0xbf1e1339	-0.6174808
24	0xbf4f9771	-0.81090456
25	0x3fa981df	1.3242759
26	0x3f62955c	0.88509154
27	0x3e806406	0.25076312
28	0x3f9eaf1c	1.2397189
29	0xbe98aab9	-0.2981775
30	0xbebc9dd7	-0.36839172
31	0xbaad44d4	-0.0013219365
32	0x3f9cb7f2	1.2243636
33	0x3ef113e4	0.47085488
34	0xbf934ced	-1.1507851
35	0x3fca45fd	1.5802609
36	0x3f9c0944	1.2190328
37	0xbe01605d	-0.12634416
38	0xbfea791f	-1.8318213
39	0xbe93976f	-0.28826472
40	0x3ea50314	0.3222891
41	0x3fe06065	1.7529417
42	0x3ec58bbf	0.3858318
43	0x3e96dcd2	0.29465348
44	0x3eb67001	0.35632327
45	0x3e7f3dcf	0.24925922
46	0x3f217a1e	0.6307696
47	0xc00b35dd	-2.1751626
48	0x3f8c73b1	1.0972806
49	0xbf5ed685	-0.8704608
50	0x3f7a9921	0.97889906
51	0xbe8b0625	-0.27153125
52	0x3ebccd84	0.36875546
53	0xbedf9901	-0.4367142
54	0x402bdea2	2.6854634
55	0x3ebf5936	0.3737275
56	0x3ff66053	1.9248146
57	0xbf4b97a3	-0.79528254
58	0x3ea55bb7	0.32296535
59	0xbe915527	-0.2838528
60	0xbe1c79f2	-0.15280893
61	0xbfe719a4	-1.80547
62	0xbf759a82	-0.95938885
63	0x3ed33e97	0.4125869
64	0xbf2058df	-0.62635607
65	0xbf0ffb5a	-0.5624291
66	0x3f48a9b9	0.78383976
67	0xbe1eaca2	-0.15495542
68	0x3fd8d34e	1.6939485
69	0xbf98420b	-1.1895155
70	0xbfc620ad	-1.5478722
71	0xbf5babdc	-0.8580911
72	0xbe81b19d	-0.2533082
73	0xbf5ff908	-0.87489367
74	0xbfc0d694	-1.5065484
75	0x3e71dd8a	0.23619667
76	0x3e961873	0.29315528
77	0x3f451754	0.7698872
78	0xbf78753b	-0.9705388
79	0x3e4dfa92	0.20115116
80	0xbd68155c	-0.056660995
81	0x3faa1cc1	1.3290025
82	0x3f4f72d3	0.8103458
83	0xbf26eaa3	-0.6520178
84	0xbf9c5fbd	-1.2216717
85	0xbf9dfeb5	-1.2343355
86	0x3e32cd1f	0.1746106
87	0xbf9734f8	-1.181304
88	0xbff282b3	-1.8946136
89	0x3ce3559b	0.02775078
90	0xbe9199f7	-0.28437778
91	0xbfe7b3f3	-1.8101791
92	0x3e9d1eac	0.30687463
93	0x3febee5c	1.8432117
94	0x40194cb8	2.3953075
95	0x3eff1343	0.49819383
96	0x3f18056a	0.5938326
97	0x3e45577b	0.19271652
98	0xbef0bb2e	-0.47017807
99	0xbef1ad8c	-0.47202718
100	0xbf4e8450	-0.8067064
101	0x3f30d131	0.690692
102	0xbedb279d	-0.4280366
103	0xbd5df74a	-0.05419091
104	0xbed66943	-0.41877183
105	0x3f3ef134	0.74586797
106	0x3efd6b52	0.4949594
107	0x3f844326	1.0332992
108	0xbe1034f2	-0.14082697
109	0x3f6a0351	0.9141131
110	0x3f3ab900	0.7293854
111	0x3eb3c2dd	0.35109606
112	0xbf0e3ebe	-0.55564487
113	0x3f6f85a4	0.93563294
114	0x3f30129c	0.68778396
115	0x3dd40330	0.103521705
116	0xbf066fc7	-0.5251431
117	0xbf29b516	-0.6629194
118	0xbf6342b7	-0.88773674
119	0x3ca84f7e	0.020545717
120	0xbe0a9266	-0.13532409
121	0x3eeac344	0.458521
122	0xbf984b06	-1.1897895
123	0x3f2d2162	0.67629063
124	0x3fe36efe	1.7768247
125	0xbed4dcf7	-0.41574833
126	0xbf920165	-1.1406676
127	0x3f60bc22	0.8778707

network_body._body_endoder.seq_layers.0.bias f4 [128]
0	0x00000000	0.0
1	0x00000000	0.0
2	0x00000000	0.0
3	0x00000000	0.0
4	0x00000000	0.0
5	0x00000000	0.0
6	0x00000000	0.0
7	0x00000000	0.0
8	0x00000000	0.0
9	0x00000000	0.0
10	0x00000000	0.0
11	0x00000000	0.0
12	0x00000000	0.0
13	0x00000000	0.0
14	0x00000000	0.0
15	0x00000000	0.0
16	0x00000000	0.0
17	0x00000000	0.0
18	0x00000000	0.0
19	0x00000000	0.0
20	0x00000000	0.0
21	0x00000000	0.0
22	0x00000000	0.0
23	0x00000000	0.0
24	0x00000000	0.0
25	0x00000000	0.0
26	0x00000000	0.0
27	0x00000000	0.0
28	0x00000000	0.0
29	0x00000000	0.0
30	0x00000000	0.0
31	0x00000000	0.0
32	0x00000000	0.0
33	0x00000000	0.0
34	0x00000000	0.0
35	0x00000000	0.0
36	0x00000000	0.0
37	0x00000000	0.0
38	0x00000000	0.0
39	0x00000000	0.0
40	0x00000000	0.0
41	0x00000000	0.0
42	0x00000000	0.0
43	0x00000000	0.0
44	0x00000000	0.0
45	0x00000000	0.0
46	0x00000000	0.0
47	0x00000000	0.0
48	0x00000000	0.0
49	0x00000000	0.0
50	0x00000000	0.0
51	0x00000000	0.0
52	0x00000000	0.0
53	0x00000000	0.0
54	0x00000000	0.0
55	0x00000000	0.0
56	0x00000000	0.0
57	0x00000000	0.0
58	0x00000000	0.0
59	0x00000000	0.0
60	0x00000000	0.0
61	0x00000000	0.0
62	0x00000000	0.0
63	0x00000000	0.0
64	0x00000000	0.0
65	0x00000000	0.0
66	0x00000000	0.0
67	0x00000000	0.0
68	0x00000000	0.0
69	0x00000000	0.0
70	0x00000000	0.0
71	0x00000000	0.0
72	0x00000000	0.0
73	0x00000000	0.0
74	0x00000000	0.0
75	0x00000000	0.0
76	0x00000000	0.0
77	0x00000000	0.0
78	0x00000000	0.0
79	0x00000000	0.0
80	0x00000000	0.0
81	0x00000000	0.0
82	0x00000000	0.0
83	0x00000000	0.0
84	0x00000000	0.0
85	0x00000000	0.0
86	0x00000000	0.0
87	0x00000000	0.0
88	0x00000000	0.0
89	0x00000000	0.0
90	0x00000000	0.0
91	0x00000000	0.0
92	0x00000000	0.0
93	0x00000000	0.0
94	0x00000000	0.0
95	0x00000000	0.0
96	0x00000000	0.0
97	0x00000000	0.0
98	0x00000000	0.0
99	0x00000000	0.0
100	0x00000000	0.0
101	0x00000000	0.0
102	0x00000000	0.0
103	0x00000000	0.0
104	0x00000000	0.0
105	0x00000000	0.0
106	0x00000000	0.0
107	0x00000000	0.0
108	0x00000000	0.0
109	0x00000000	0.0
110	0x00000000	0.0
111	0x00000000	0.0
112	0x00000000	0.0
113	0x00000000	0.0
114	0x00000000	0.0
115	0x00000000	0.0
116	0x00000000	0.0
117	0x00000000	0.0
118	0x00000000	0.0
119	0x00000000	0.0
120	0x00000000	0.0
121	0x00000000	0.0
122	0x00000000	0.0
123	0x00000000	0.0
124	0x00000000	0.0
125	0x00000000	0.0
126	0x00000000	0.0
127	0x00000000	0.0

network_body._body_endoder.seq_layers.2.weight f4 [128, 128]
0	0xbda6434a	-0.08118303
1	0x3e4eab18	0.20182455
2	0xbc0cc495	-0.008591791
3	0xbd8491ec	-0.06473145
4	0x3cc39cd2	0.023878489
5	0x3c9a4775	0.018832901
6	0x3d661fb0	0.056182563
7	0x3d8d592e	0.06901775
8	0xbe23b043	-0.15985207
9	0x3a94708a	0.0011325043
10	0x3d2bbb18	0.041926473
11	0x3aed1383	0.001808748
12	0x3e154da0	0.14580393
13	0xbd012029	-0.03152481
14	0xbd4af451	-0.049549405
15	0x3d8c590d	0.068529226
16	0x3cffebdf	0.031240402
17	0xbda754b2	-0.08170451
18	0x3e332a3e	0.17496583
19	0xbddf1eb6	-0.108945295
20	0x3cc6bd41	0.024260165
21	0x3bece0e8	0.0072289594
22	0xbe249edf	-0.1607623
23	0xbce1aedb	-0.027549198
24	0x3d3851bd	0.044999827
25	0xbd2ad27d	-0.041704644
26	0xbe433dba	-0.19066516
27	0x3de09f5f	0.109678976
28	0x3e1b77ab	0.15182368
29	0x3da39c17	0.07988756
30	0x3db9369d	0.0904362
31	0xbc64dd89	-0.013968834
32	0x3e6b8ef3	0.2300375
33	0x3dffe7cc	0.124953836
34	0xbd642598	-0.055699915
35	0x3ca3678b	0.019946834
36	0x3db48d24	0.08815983
37	0xbe1fce51	-0.15606047
38	0xbe5238b1	-0.20529439
39	0x3dc2391b	0.09483548
40	0x3e0b8cca	0.13627926
41	0x3e1cbf11	0.15307261
42	0x3dcb45d4	0.09925428
43	0x3e711dfe	0.23546597
44	0xbcb331a5	-0.021874258
45	0x3d05daf7	0.032679524
46	0x3d2e33aa	0.04252974
47	0x3da7e10a	0.0819722
48	0x3cd724d7	0.026262684
49	0xbe1610a1	-0.14654781
50	0x3e82ae69	0.2552369
51	0xbddddf7c	-0.10833642
52	0x3d80a356	0.06281154
53	0x3d9d8af3	0.07692518
54	0xbd880074	-0.066407114
55	0x3e0cb54b	0.13741033
56	0xbe09ad42	-0.13444999
57	0xbd3f4b8f	-0.046702918
58	0xbd922995	-0.071368374
59	0x3cca0f53	0.02466551
60	0x3e2398db	0.15976278
61	0x3d71ce6b	0.059034746
62	0x3e1d19df	0.153419
63	0xbb5e9563	-0.0033963553
64	0x3d072d5a	0.033002235
65	0x3dafbfc2	0.08581497
66	0x3caa604e	0.020797875
67	0x3d804ece	0.06265031
68	0x3dbfc521	0.09363771
69	0xbda10b16	-0.078634426
70	0xbdc09e14	-0.09405151
71	0x3d9cecbe	0.076623425
72	0x3ded2d66	0.11580925
73	0x3e015b9d	0.12632604
74	0xbe037978	-0.12839305
75	0xbe175a8c	-0.14780635
76	0xbce94bb1	-0.028478475
77	0x3db162f2	0.086614504
78	0xbd9e8a89	-0.07741267
79	0xbdf498cd	-0.11943207
80	0x3d76444b	0.060123723
81	0xbd9b2d6a	-0.075770214
82	0xbd2bf92d	-0.04198568
83	0x3d1b12b3	0.03785963
84	0xbd914a8e	-0.07094298
85	0x3e0cb09e	0.13739249
86	0x3e05bd9c	0.13060611
87	0xbd0589ad	-0.032602
88	0xbe09199f	-0.1338868
89	0xbdcb66af	-0.09931695
90	0x3dcbc296	0.09949224
91	0xbd5b6008	-0.05355838
92	0xbd3f07c2	-0.046638258
93	0xbdbc9042	-0.092072025
94	0x3de621e0	0.1123693
95	0x3cc9be41	0.024626853
96	0x3cb27708	0.021785274
97	0xbd44a7e9	-0.048011694
98	0xbd05104d	-0.03248625
99	0xbd9a90ca	-0.075471476
100	0xbe0f4a5b	-0.13993208
101	0x3d9e1220	0.07718301
102	0xbe37fcbf	-0.17967509
103	0xbd265855	-0.040611584
104	0x3cc70116	0.02429251
105	0x3d35f0be	0.044419043
106	0xbc057ca8	-0.008147396
107	0xbd040a7b	-0.032236557
108	0x3c04c2de	0.008103101
109	0xbcc58274	-0.024110056
110	0xbd3654eb	-0.044514578
111	0xbd40f527	-0.047108795
112	0x3e119912	0.14218548
113	0xbca26c44	-0.019827016
114	0xbe34199a	-0.17587891
115	0xbcca9703	-0.024730211
116	0xbd99fd07	-0.07518964
117	0xbdf56b96	-0.11983411
118	0xbe1b9200	-0.15192413
119	0x3d8cf6b6	0.06882994
120	0xbc6c5b52	-0.014426069
121	0x3d31a32e	0.04336851
122	0xbe163e87	-0.1467229
123	0x3d639bfc	0.05556868
124	0xbd4d6daf	-0.05015343
125	0xbdb3ffd2	-0.08789028
126	0xbd54f426	-0.05199065
127	0x3e86727a	0.26259214
128	0xbdd1a581	-0.102366455
129	0x3dfac2c1	0.122441776
130	0x3ddb4dac	0.10708174
131	0x3d4df92f	0.050286468
132	0x3d8c6ce8	0.0685671
133	0x3d2457ed	0.040122915
134	0xbd0a3883	-0.0337453
135	0x3e1a04f1	0.15040947
136	0xbde50a85	-0.11183647
137	0xbe056e0c	-0.13030261
138	0x3a67e373	0.0008845843
139	0x3842440d	4.631658e-05
140	0x3db43fbe	0.0880122
141	0x3e1cd3c5	0.15315159
142	0x3ded481b	0.11586019
143	0xbd88f4a8	-0.066872895
144	0x3c3c8e84	0.011508588
145	0xbb8ad06b	-0.004236271
146	0xbe31d4cf	-0.17366336
147	0xbbe66e6a	-0.0070322054
148	0x3dae3787	0.08506685
149	0x3e5260a2	0.20544675
150	0xbcf9b708	-0.030482784
151	0xbd2ba05c	-0.041900977
152	0xbd22198b	-0.03957514
153	0x3bc624b5	0.0060468563
154	0x3cefbb47	0.029264105
155	0xbdc38263	-0.09546354
156	0x3d7a37a7	0.06108823
157	0x3e12b89f	0.1432824
158	0x3d9cb445	0.07651571
159	0xbde74065	-0.11291579
160	0x3dec8feb	0.11550888
161	0xbdb61d81	-0.08892346
162	0xbdbd925e	-0.09256433
163	0x3d8bd873	0.06828394
164	0x3d5016ac	0.05080287
165	0x3b9db5a9	0.0048129153
166	0xbd9f4a55	-0.077778496
167	0x3cfebe85	0.031096706
168	0xbdc77380	-0.09738827
169	0x3e5678ad	0.20944472
170	0x3d3dce0d	0.046339083
171	0xbcb926f5	-0.022601584
172	0xbdc756fd	-0.097333886
173	0x3d44f334	0.0480835
174	0xbdcc16d1	-0.099652894
175	0x3a56978a	0.0008186033
176	0x3e4ff1f3	0.2030714
177	0xbe2bf5c1	-0.16792966
178	0x3e211828	0.15731871
179	0x3d0c97f7	0.034324612
180	0x3dfcd062	0.12344433
181	0xbe132bb8	-0.14372146
182	0xbd6e7683	-0.05821849
183	0xbd8b6597	-0.06806486
184	0x3e089d7a	0.13341323
185	0x3d018e33	0.031629752
186	0xbd22ace7	-0.039715674
187	0xbbf6e721	-0.007534877
188	0xbd008d17	-0.031384554
189	0x3e17ef0c	0.14837283
190	0xbb82c75f	-0.003991052
191	0xbdb1a1b2	-0.08673419
192	0xbd587114	-0.052842215
193	0x3c4d600e	0.012535108
194	0xbd332d4e	-0.043744378
195	0xbd111fd6	-0.03543075
196	0x3e0e446c	0.13893288
197	0xbc2c662a	-0.010522405
198	0x3e3f9d32	0.18712309
199	0x3e09d4e8	0.13460124
200	0x3dd9bb7f	0.10631465
201	0x3dcc3f5a	0.09973021
202	0x3d8b9c66	0.0681694
203	0x3d8afda5	0.0678666
204	0x3d2d954d	0.042378712
205	0x3e19d33d	0.15021987
206	0xbdd5b410	-0.10434735
207	0x3c0c4f25	0.008563791
208	0xbdd6a8a7	-0.10481387
209	0x3e0313ab	0.12800471
210	0x3d113382	0.035449512
211	0xbd9ce823	-0.07661464
212	0x3cd19fd9	0.025588917
213	0xbd989754	-0.074507385
214	0x3d881e3c	0.06646392
215	0xbd5709b6	-0.052499495
216	0x3d219a36	0.039453708
217	0x3d9353ff	0.07193755
218	0xbcc19abd	-0.023633355
219	0xbcb712b6	-0.02234779
220	0x3c4e4b16	0.012591144
221	0x3c94ac3d	0.018148536
222	0xbe1c1e25	-0.15245874
223	0x3e53d1c9	0.20685495
224	0xbcb0d8d1	-0.021587761
225	0xbd07a1c2	-0.03311325
226	0x3c8e3ee8	0.01736398
227	0x3cf2898b	0.029606601
228	0x3e4a4649	0.19753374
229	0x3d75994d	0.059960652
230	0xbdce2762	-0.100661054
231	0xbd89d54f	-0.067301385
232	0x3d076bd0	0.033061802
233	0x3bc45562	0.0059916237
234	0x3e7745b6	0.24147686
235	0x3df33115	0.11874596
236	0xbd89082a	-0.0669101
237	0xbdfbd759	-0.12296934
238	0x3cbef427	0.02330978
239	0xbcb39247	-0.021920336
240	0x3d69cf25	0.057082314
241	0x3b854ac5	0.004067751
242	0xbe32c87e	-0.17459294
243	0x3d1872eb	0.03721897
244	0x3e08c074	0.13354665
245	0x3bcbdaca	0.00622115
246	0x3e88c6af	0.26714084
247	0x3d69fef8	0.057127923
248	0xbe2814c4	-0.16414171
249	0xbcdd3285	-0.027001629
250	0xbd05d1b8	-0.032670707
251	0xbdd6a4e0	-0.10480666
252	0xbda2c226	-0.07947187
253	0xbdb17561	-0.086649664
254	0x3dd824ef	0.105539195
255	0x3d8d8d7d	0.069117524

network_body._body_endoder.seq_layers.2.bias f4 [128]
0	0x00000000	0.0
1	0x00000000	0.0
2	0x00000000	0.0
3	0x00000000	0.0
4	0x00000000	0.0
5	0x00000000	0.0
6	0x00000000	0.0
7	0x00000000	0.0
8	0x00000000	0.0
9	0x00000000	0.0
10	0x00000000	0.0
11	0x00000000	0.0
12	0x00000000	0.0
13	0x00000000	0.0
14	0x00000000	0.0
15	0x00000000	0.0
16	0x00000000	0.0
17	0x00000000	0.0
18	0x00000000	0.0
19	0x00000000	0.0
20	0x00000000	0.0
21	0x00000000	0.0
22	0x00000000	0.0
23	0x00000000	0.0
24	0x00000000	0.0
25	0x00000000	0.0
26	0x00000000	0.0
27	0x00000000	0.0
28	0x00000000	0.0
29	0x00000000	0.0
30	0x00000000	0.0
31	0x00000000	0.0
32	0x00000000	0.0
33	0x00000000	0.0
34	0x00000000	0.0
35	0x00000000	0.0
36	0x00000000	0.0
37	0x00000000	0.0
38	0x00000000	0.0
39	0x00000000	0.0
40	0x00000000	0.0
41	0x00000000	0.0
42	0x00000000	0.0
43	0x00000000	0.0
44	0x00000000	0.0
45	0x00000000	0.0
46	0x00000000	0.0
47	0x00000000	0.0
48	0x00000000	0.0
49	0x00000000	0.0
50	0x00000000	0.0
51	0x00000000	0.0
52	0x00000000	0.0
53	0x00000000	0.0
54	0x00000000	0.0
55	0x00000000	0.0
56	0x00000000	0.0
57	0x00000000	0.0
58	0x00000000	0.0
59	0x00000000	0.0
60	0x00000000	0.0
61	0x00000000	0.0
62	0x00000000	0.0
63	0x00000000	0.0
64	0x00000000	0.0
65	0x00000000	0.0
66	0x00000000	0.0
67	0x00000000	0.0
68	0x00000000	0.0
69	0x00000000	0.0
70	0x00000000	0.0
71	0x00000000	0.0
72	0x00000000	0.0
73	0x00000000	0.0
74	0x00000000	0.0
75	0x00000000	0.0
76	0x00000000	0.0
77	0x00000000	0.0
78	0x00000000	0.0
79	0x00000000	0.0
80	0x00000000	0.0
81	0x00000000	0.0
82	0x00000000	0.0
83	0x00000000	0.0
84	0x00000000	0.0
85	0x00000000	0.0
86	0x00000000	0.0
87	0x00000000	0.0
88	0x00000000	0.0
89	0x00000000	0.0
90	0x00000000	0.0
91	0x00000000	0.0
92	0x00000000	0.0
93	0x00000000	0.0
94	0x00000000	0.0
95	0x00000000	0.0
96	0x00000000	0.0
97	0x00000000	0.0
98	0x00000000	0.0
99	0x00000000	0.0
100	0x00000000	0.0
101	0x00000000	0.0
102	0x00000000	0.0
103	0x00000000	0.0
104	0x00000000	0.0
105	0x00000000	0.0
106	0x00000000	0.0
107	0x00000000	0.0
108	0x00000000	0.0
109	0x00000000	0.0
110	0x00000000	0.0
111	0x00000000	0.0
112	0x00000000	0.0
113	0x00000000	0.0
114	0x00000000	0.0
115	0x00000000	0.0
116	0x00000000	0.0
117	0x00000000	0.0
118	0x00000000	0.0
119	0x00000000	0.0
120	0x00000000	0.0
121	0x00000000	0.0
122	0x00000000	0.0
123	0x00000000	0.0
124	0x00000000	0.0
125	0x00000000	0.0
126	0x00000000	0.0
127	0x00000000	0.0

value_heads.value_heads.extrinsic.weight f4 [1, 128]
0	0x3d6d24cd	0.057896424
1	0xbc97d4c8	-0.01853408
2	0x3d94f2bc	0.072728604
3	0x3e02f16e	0.1278741
4	0xbe11eece	-0.14251253
5	0x3db91757	0.09037655
6	0xbdb0a948	-0.08626038
7	0x3cc9873e	0.024600621
8	0xbd23d5e8	-0.03999892
9	0xbe4ebe61	-0.20189811
10	0x3dcb1017	0.09915178
11	0x3e169819	0.14706458
12	0xbe0ccbd5	-0.13749631
13	0x3db1d8e9	0.086839505
14	0x3e31a961	0.17349769
15	0x3e06d132	0.13165739
16	0x3d9074c7	0.070535235
17	0xbdfb23e2	-0.122627035
18	0xbe0b1fc2	-0.13586333
19	0x3e253180	0.16132164
20	0xbe298cf7	-0.1655768
21	0x3c3448f7	0.011003724
22	0xbc7ed093	-0.015552658
23	0xbdd38866	-0.1032875
24	0x3db2b02c	0.08725008
25	0x3e0e87a7	0.13918935
26	0xbe34fe60	-0.17675161
27	0x3d44cca9	0.04804674
28	0xbe18e1d7	-0.14929901
29	0xbd1d6380	-0.03842497
30	0xbc4cf302	-0.012509109
31	0x3e30a14a	0.17249027
32	0x3dfcc37f	0.123419754
33	0xbdcb227c	-0.09918687
34	0x3d05d853	0.032677006
35	0xbe21e474	-0.15809804
36	0xbddcc40c	-0.107795805
37	0xbd44f25c	-0.048082694
38	0xbcbea989	-0.0232742
39	0x3e2f66ef	0.1712911
40	0xbe316432	-0.17323378
41	0xbd99e9c7	-0.075152926
42	0x3e29d56a	0.16585317
43	0xbe1378fe	-0.14401624
44	0x3e018e7c	0.1265201
45	0xbe55b6e6	-0.20870551
46	0xbe3bd28e	-0.18342039
47	0xbcf0f8a6	-0.02941544
48	0xbdd922eb	-0.10602363
49	0xbe44b493	-0.19209509
50	0x3c8a5bab	0.016889414
51	0xbdaa2c50	-0.08309233
52	0x3e005cb8	0.1253537
53	0xbcebc2c9	-0.028779404
54	0xbe0c2b20	-0.13688326
55	0x3dff0c95	0.12453572
56	0xbe3111e4	-0.17291981
57	0xbdadf3e2	-0.084937826
58	0x3d8c6b75	0.06856433
59	0xbd8081d0	-0.0627476
60	0xbe1dc89a	-0.15408555
61	0x3e3bc6ea	0.18337598
62	0xbd9fd190	-0.07803643
63	0xbdd8a2b0	-0.10577905
64	0x3dc4f51f	0.09617066
65	0x3c410aaf	0.011782332
66	0xbc43641f	-0.011925726
67	0xbd908340	-0.07056284
68	0xbd495b99	-0.04915962
69	0x3e29dff4	0.16589338
70	0xbc9fe636	-0.019518953
71	0xbd3e5120	-0.046464086
72	0xbc953288	-0.018212572
73	0x3deb4b5c	0.11488983
74	0xbe07cd59	-0.13261928
75	0x3dbd1530	0.09232557
76	0xbdb973d0	-0.090552926
77	0x3ccd12c4	0.025033362
78	0x3d795f30	0.060881793
79	0x3ce1a3ea	0.02754398
80	0xbe139a2b	-0.14414279
81	0xbdabfd1b	-0.083978854
82	0xbda69041	-0.08132983
83	0xbd70583c	-0.058677897
84	0x3cfd9ced	0.030958617
85	0xbd12b98a	-0.035821475
86	0xbca5ce91	-0.0202401
87	0xbde28481	-0.11060429
88	0xbde7085b	-0.112808906
89	0x3db9bfe8	0.09069806
90	0xbe0012b9	-0.12507142
91	0x3de1b2a2	0.110204
92	0xbd04f708	-0.03246215
93	0x3dc7389a	0.09727593
94	0xbdaabbe4	-0.083366185
95	0x3e4167a6	0.18887195
96	0x3d13e691	0.036108557
97	0xbd822205	-0.06354145
98	0x3c6d54c2	0.01448554
99	0xbe118ea3	-0.14214568
100	0xbdbc3d33	-0.0919136
101	0x3da5f967	0.0810421
102	0xbd39b94a	-0.04534272
103	0xbd37898b	-0.044808906
104	0xbdf05426	-0.117348
105	0xbc383a3a	-0.011244351
106	0xbdfa3a27	-0.12218123
107	0xbe4ab47e	-0.19795415
108	0xbdfda1bc	-0.12384364
109	0x3de7e8a8	0.113236725
110	0xbcbdc2f6	-0.023164254
111	0xbe2b56cf	-0.16732334
112	0x3c56739b	0.013089086
113	0xbcf9e928	-0.030506685
114	0x3d9f6c74	0.07784358
115	0xbe0802ae	-0.13282272
116	0xbe47533d	-0.19465347
117	0xbc9a3cdc	-0.018827848
118	0xbd22cd46	-0.039746545
119	0x3dc5cd1d	0.09658263
120	0xbdab4fe8	-0.0836485
121	0x3e129328	0.14313948
122	0xbdf7b535	-0.120951094
123	0xbde61ad5	-0.112355866
124	0xbd5da744	-0.054114595
125	0xbd9a18e5	-0.075242795
126	0x3e18ffe7	0.14941369
127	0xbe234473	-0.1594408
