results/TestParameters/MoveToGoal/checkpoint.pt (torch, 439245 bytes, 36 tensors)

network_body._body_endoder.seq_layers.0.weight f4 [128, 6]
-0.17289396 -0.584975 -0.98502976 0.61447847 -0.252147 -0.16562718 -0.2373264 0.15021555
0.33354223 -0.4468709 0.8274418 -0.6845905 -0.08122848 0.5205525 0.21259393 1.1202345
1.0940074 -0.6134377 0.20559026 -0.45227584 -0.34080133 -0.2932452 0.45452437 0.44929826
0.45507237 0.14105149 -0.06278555 0.022096785 0.50124276 -0.1051704 0.60738945 -0.45745447
-0.3138352 0.2400701 0.023515305 -0.13493018 0.041139256 0.2913332 -0.8988596 0.27129397
-0.30395702 0.0165938 -0.75258505 0.17036617 -0.47342727 0.6964003 -0.64850914 -0.30622128
0.57146674 0.04512106 0.30293375 -0.13996895 5.768571e-05 -0.2886777 0.27454174 0.007788197
0.38562542 0.360804 -0.10526263 -0.3858005 -0.0040462776 1.4482055 -0.04153268 -0.035540678
-0.11497202 0.64243656 0.011329863 -0.15805186 0.27057314 -0.0049924133 0.8335674 -0.3535119
0.4882345 0.4659756 -0.6181229 -0.06206544 0.2771431 0.7919364 -0.45779032 -0.21776663
0.29387724 0.28936023 0.19281417 -0.251205 0.13259897 -0.5810317 0.6510529 -0.24079451
-0.25843236 0.2549264 0.32400298 -0.57514405 0.01626871 -0.41181478 -0.2763615 0.05442568
-0.01812717 -0.07142993 -0.63536054 -0.36303356 -0.25170985 0.8491739 -0.67718834 0.38529918
0.015570168 0.57380396 -0.1414102 -0.013851778 -0.38552907 0.6360695 -0.004547295 0.14726211
0.22564822 0.8512534 -0.42542055 0.40835732 -0.06659655 0.45272303 0.9116794 -0.049678918
0.4693309 0.48740727 0.268456 -0.15992445 0.027727634 0.2733823 0.4701885 0.12800841
-0.41300556 0.1135966 0.4037873 0.0483097 -0.11291591 -0.64943725 -0.19552496 0.43105993
0.050487954 0.108321525 0.48703486 0.20322335 -0.20918673 0.055809528 -0.051745586 -0.48536018
0.21534637 -0.029969137 0.8100751 0.053782236 -0.05543896 -0.12803182 -0.6818313 -0.04452246
-0.24320751 -0.1883495 -0.35243425 -0.3208283 0.25854382 -1.457408 -0.82295203 0.18452813
-0.40381077 0.4389845 -0.3816344 0.50424564 0.13606732 -0.0005411132 0.7363974 -0.021807728
-0.5390558 -0.6201993 -0.13249691 -0.16304505 -0.33637026 -0.31446323 -0.46345153 0.22923122
0.23261853 0.11868416 -0.2615124 0.100848846 0.04436834 -0.5770771 -0.4411568 -0.31351978
-0.29592386 0.2840651 0.006463056 -0.2728682 0.9119464 -0.1086071 0.17504391 0.37289295
0.11596966 -0.36551017 -0.1300896 0.47568592 0.17689002 -0.24261804 -0.26365224 0.99127096
-0.44484094 0.20829017 -0.14384256 -0.27187318 0.09342187 0.3102151 0.40387437 -0.14028914
0.13338946 0.050501816 -0.18649225 0.26172626 0.22149901 -0.41851333 0.54497796 -0.18017015
-0.34041354 0.076211914 -0.21766816 -0.05065048 -0.5529042 -0.37990308 -0.0022297206 0.30178502
-0.08415252 -0.47900313 0.06367894 0.04534444 -0.11021748 -0.42220625 0.5080851 -0.48337883
0.29365325 -0.45844448 0.2409051 -0.68961495 0.6015862 -0.34965268 -0.028933855 -0.4397394
-0.6445107 0.22345956 0.23942757 0.3938866 -0.21633554 -0.2213933 -0.22921106 0.116078146
0.8088742 0.154879 0.03804088 0.115707666 -0.1596415 -0.7421618 0.5404736 0.7523124
00000000: 1d0b 31be ecc0 15bf e92a 7cbf 764e 1d3f
00000010: 6919 81be 2c9a 29be b105 73be 1bd2 193e
00000020: 0cc6 aa3e 43cc e4be 3ad3 533f 5341 2fbf
00000030: 1e5b a6bd ee42 053f 39b2 593e d863 8f3f
00000040: 6f08 8c3f 410a 1dbf 4186 523e b390 e7be
00000050: 837d aebe 3c24 96be 6bb7 e83e 6c0a e63e
00000060: 3fff e83e cd6f 103e b695 80bd 5104 b53c
00000070: 7251 003f 9463 d7bd e07d 1b3f 7937 eabe
00000080: 02af a0be f0d4 753e 2ba3 c03c 232b 0abe
00000090: a381 283d a029 953e aa1b 66bf 0be7 8a3e
000000a0: 41a0 9bbe b9ef 873c 6aa9 40bf 7874 2e3e
000000b0: 0f65 f2be 4a47 323f b204 26bf 09c9 9cbe
000000c0: a54b 123f dcd0 383d 221a 9b3e 0554 0fbe
000000d0: 8ff3 7138 90cd 93be bc90 8c3e 2234 ff3b
000000e0: b270 c53e 4dbb b83e ef93 d7bd a587 c5be
000000f0: a396 84bb cc5e b93f 2c1e 2abd 1a93 11bd
00000100: 7376 ebbd b976 243f e4a0 393c 59d8 21be
00000110: 9088 8a3e 6697 a3bb ac64 553f 83ff b4be
00000120: dff9 f93e 5b94 ee3e 4d3d 1ebf 5538 7ebd
00000130: b3e5 8d3e 58bc 4a3f 7e63 eabe 37fe 5ebe
00000140: 1477 963e 0627 943e 1471 453e f19d 80be
00000150: 06c8 073e 7ebe 14bf 67ab 263f d692 76be
00000160: 3f51 84be b785 823e b8e3 a53e a43c 13bf
00000170: f545 853c 63d9 d2be 417f 8dbe 76ed 5e3d
00000180: 6e7f 94bc db49 92bd fda6 22bf 89df b9be
00000190: 1de0 80be 7663 593f 375c 2dbf ef45 c53e
000001a0: 051a 7f3c d1e4 123f d6cd 10be 91f2 62bc
000001b0: 1164 c5be 73d5 223f 7a01 95bb e1cb 163e
000001c0: 5410 673e beeb 593f b9d0 d9be 3614 d13e
000001d0: c663 88bd 50cb e73e d263 693f 1f7c 4bbd
000001e0: 244c f03e 728d f93e 1173 893e 3cc3 23be
000001f0: 1025 e33c c4f8 8b3e 8cbc f03e a314 033e
00000200: 7775 d3be 56a5 e83d 36bd ce3e 64e0 453d
00000210: 7540 e7bd 8541 26bf b237 48be e3b3 dc3e
00000220: 75cc 4e3d add7 dd3d a25c f93e c819 503e
00000230: 0c35 56be 8898 643d 2ef3 53bd 2181 f8be
00000240: c283 5c3e d681 f5bc 1561 4f3f c34a 5c3d
00000250: f713 63bd c61a 03be 7f8c 2ebf 2f5d 36bd
00000260: 640b 79be b1de 40be 4372 b4be 9b43 a4be
00000270: db5f 843e 588c babf fcac 52bf f1f4 3c3e
00000280: 49c0 cebe 94c2 e03e 9665 c3be 3e16 013f
00000290: 3b55 0b3e 7ed9 0dba 8a84 3c3f 1fa6 b2bc
000002a0: 90ff 09bf 62c5 1ebf 45ad 07be 48f5 26be
000002b0: b938 acbe 5301 a1be 8549 edbe 97bb 6a3e
000002c0: 8d33 6e3e ae10 f33d f4e4 85be d789 ce3d
000002d0: 94bb 353d 53bb 13bf 4edf e1be aa85 a0be
000002e0: 5583 97be fb70 913e 0bc8 d33b 61b5 8bbe
000002f0: 5275 693f 666d debd b63e 333e d3eb be3e
00000300: 8081 ed3d 2624 bbbe 3536 05be 1b8d f33e
00000310: a822 353e dd70 78be 6dfd 86be efc3 7d3f
00000320: 31c2 e3be 054a 553e 774b 13be f632 8bbe
00000330: f753 bf3d 83d4 9e3e 9fc8 ce3e f5a7 0fbe
00000340: 3f97 083e feda 4e3d d3f7 3ebe fc00 863e
00000350: a3d0 623e 6147 d6be ad83 0b3f 867e 38be
00000360: af4a aebe fe14 9c3d 67e4 5ebe e176 4fbd
00000370: 218b 0dbf a882 c2be 8120 12bb 9183 9a3e
00000380: 2858 acbd e63f f5be 1b6a 823d 17bb 393d
00000390: b4b9 e1bd 6b2b d8be dd11 023f 6e7d f7be
000003a0: b859 963e 3cb9 eabe d4af 763e 9b8a 30bf
000003b0: 8e01 1a3f ad05 b3be b106 edbc 8625 e1be
000003c0: a7fe 24bf 95d2 643e 802c 753e 81ab c93e
000003d0: 1087 5dbe edb4 62be 4eb6 6abe 61ba ed3d
000003e0: 6112 4f3f 9a98 1e3e c1d0 1b3d 24f8 ec3d
000003f0: 1079 23be 51fe 3dbf 7a5c 0a3f 8c97 403f

network_body._body_endoder.seq_layers.0.bias f4 [128]
-0.053937215 -0.041690953 0.013987861 -0.076232605 0.005174729 0.047472164 -0.07412457 -0.018773636
-0.091505304 -0.09152267 0.032663073 0.00064392894 -0.026347166 -0.067001134 -0.06203864 -0.122386836
-0.0038864082 -0.17590028 -0.03223089 -0.02768464 -0.09166672 -0.08868631 -0.014326311 0.015401568
-0.038960025 0.04200098 -0.012938964 -0.04562438 0.00613908 -0.030166136 0.05489031 -0.07638019
-0.090446874 0.02802789 -0.10221082 -0.027185334 0.025439141 0.052895814 -0.07300581 -0.039409056
-0.02717742 -0.10663793 0.05563337 -0.08052381 -0.09034276 0.02604682 -0.07832125 0.023999723
0.09494833 -0.0579808 -0.11305905 -0.04326118 -0.050452743 0.0135356635 -0.022593675 -0.13501713
-0.093478 -0.09929356 0.024025314 -0.064097755 -0.08584552 -0.023257911 -0.042023152 -0.07537649
0.016607212 -0.062823355 -0.12719151 -0.046700172 0.026396928 -0.060243405 -0.028996019 -0.05506352
-0.11937325 0.02126636 -0.10395546 -0.13907273 0.030864066 -0.060984895 -0.014759305 -0.0008970835
0.02760336 -0.030128222 0.039202094 -0.007489774 -0.041659728 -0.08516014 -0.039442297 -0.14120795
-0.013699973 -0.12479469 -0.06921321 -0.050310217 -0.11747695 -0.07168707 -0.06207429 -0.058164846
-0.053090785 -0.096158616 0.005660221 0.04978885 -0.026126452 -0.07319064 0.036591373 0.003993583
-0.020439751 -0.101078436 -0.10900122 0.09472663 -0.05515341 -0.046339158 -0.09478229 -0.022983681
0.07682906 0.06365638 -0.017910728 -0.01045604 -0.06463494 -0.07832138 -0.05191801 0.034200583
-0.09844543 -0.0015435993 -0.06547488 -0.12403591 -0.06723043 -0.13657056 -0.07766715 -0.11801036
00000000: 45ed 5cbd 22c4 2abd 572d 653c d71f 9cbd
00000010: c690 a93b 2c72 423d 9fce 97bd 2bcb 99bc
00000020: 2267 bbbd 3d70 bbbd b7c9 053d 57cd 283a
00000030: 03d6 d7bc e437 89bd 3b1c 7ebd f3a5 fabd
00000040: 1cb3 7ebb 341f 34be 8a04 04bd e6ca e2bc
00000050: c3bb bbbd 2ba1 b5bd e7b8 6abc dc56 7c3c
00000060: 8c94 1fbd 3809 2c3d f3fd 53bc a1e0 3abd
00000070: 562a c93b f91e f7bc a9d4 603d 386d 9cbd
00000080: 363c b9bd bf9a e53c e853 d1bd c7b3 debc
00000090: bf65 d03c 48a9 583d 1284 95bd 646b 21bd
000000a0: 2ea3 debc fd64 dabd d1df 633d abe9 a4bd
000000b0: a005 b9bd 2460 d53c e466 a0bd 119b c43c
000000c0: 4574 c23d 467d 6dbd 818b e7bd a332 31bd
000000d0: 89a7 4ebd b0c4 5d3c 5f16 b9bc ee41 0abe
000000e0: 6571 bfbd 6c5a cbbd bcd0 c43c af45 83bd
000000f0: c7cf afbd 6087 bebc 7820 2cbd fd5e 9abd
00000100: d90b 883c 88a9 80bd 7e3e 02be ae48 3fbd
00000110: 5f3e d83c cac1 76bd 0f89 edbc 498a 61bd
00000120: f679 f4bd ca36 ae3c 9ae6 d4bd 1569 0ebe
00000130: a3d6 fc3c 4ccb 79bd 03d1 71bc 412a 6bba
00000140: 7120 e23c 76cf f6bc 6092 203d c76c f5bb
00000150: 64a3 2abd 7168 aebd 3f8e 21bd d198 10be
00000160: da75 60bc 5c94 ffbd a8bf 8dbd 1612 4ebd
00000170: c197 f0bd acd0 92bd 9c41 7ebd 433e 6ebd
00000180: b975 59bd cfee c4bd 6079 b93b 65ef 4b3d
00000190: 2407 d6bc f9e4 95bd d6e0 153d 9adc 823b
000001a0: 4471 a7bc 3602 cfbd 083c dfbd 0900 c23d
000001b0: 8be8 61bd 21ce 3dbd 381d c2bd 4648 bcbc
000001c0: 8e58 9d3d 475e 823d 85b9 92bc cf4f 2bbc
000001d0: 535f 84bd f666 a0bd fba7 54bd e915 0c3d
000001e0: c29d c9bd 9952 caba b217 86bd 8a06 febd
000001f0: 1cb0 89bd 27d9 0bbe f40f 9fbd 6aaf f1bd

network_body._body_endoder.seq_layers.2.weight f4 [128, 128]
0.15223132 -0.06844604 0.043450538 -0.12028358 -0.049858242 0.09908903 -0.06705706 -0.00075953023
-0.11866978 -0.12126235 -0.053367037 0.0045057014 -0.10596227 -0.029700685 -0.04554572 -0.027787723
-0.13116138 0.01929295 -0.38764066 -0.03149633 0.0075234445 -0.0404119 0.012528439 0.033176858
-0.06848938 0.14110142 0.013022242 0.0068089585 0.12471248 -0.030986177 -0.072210126 -0.12143881
-0.035602145 -0.15331446 0.050941553 0.13643235 0.05541885 -0.021549344 0.03105327 0.018349137
-0.08355955 0.04612693 0.07465522 -0.0046414007 -0.017566899 -0.1121239 -0.032369614 0.08070821
0.055340778 0.0045629856 0.033743147 -0.14576297 -0.042176075 -0.13199006 -0.048314072 -0.06353243
0.056043584 -0.021179847 0.03715969 -0.030271402 -0.11930708 0.06693466 -0.011191586 0.0014558025
0.043452118 -0.029185483 0.019720709 0.0057759043 -0.102070495 -0.07016038 -0.06147883 -0.0043865517
0.09659381 -0.20423283 0.033563443 -0.011999337 0.0962556 0.06301427 0.04877904 0.052699234
0.041649323 -0.005761847 -0.008052696 0.0079064155 -0.05754908 5.8378642e-05 0.0874347 0.07023313
0.037274744 -0.0040913625 -0.060625866 0.09152518 0.018881576 -0.040249515 0.028610736 -0.09043926
0.104066044 0.005497162 0.04748399 0.017773174 0.038722593 0.065078095 -0.01644579 0.02434248
0.05143774 -0.13354868 -0.035559542 -0.2120964 0.018457672 -0.08535739 -0.053670958 -0.16784216
0.119086966 -0.15047868 0.019213576 -0.07610073 0.1420272 -0.08938714 0.021261977 0.06819554
0.022346172 -0.0021416692 -0.00067306473 -0.11380083 -0.14812465 -0.0667323 -0.051562063 -0.13373002
0.11701935 0.023829168 -0.030184483 0.21651384 -0.008389813 0.097759 -0.010829662 -0.022531789
-0.10687593 -0.04320008 -0.07970233 -0.0017649898 -0.048630856 -0.21494779 0.016017849 -0.091058224
0.09907807 0.0032430321 0.00061481626 0.101072975 -0.0380852 0.03505785 -0.1944966 -0.091574594
-0.0737299 -0.05430301 0.030747099 -0.031441882 -0.11095688 -0.10482708 0.16625425 -0.19526955
-0.038141757 0.013535066 0.0447225 -0.045952324 0.11607594 0.14255175 -0.13334253 0.0642084
-0.069719166 -0.115331985 0.08475378 -0.03243407 0.13715896 -0.026460605 0.111556046 -0.06883676
-0.036195904 -0.032717235 -0.043298986 -0.018292734 -0.0052282163 -0.081538536 0.08639255 -0.05183929
-0.04256905 -0.16295557 -0.063266985 -0.0065707387 -0.11209853 0.03944722 0.059390172 0.010070577
0.03664361 0.12716307 0.11320979 0.015092889 -0.11636753 -0.0674796 -0.105941735 -0.0068476256
-0.0696637 0.05309821 -0.108719274 0.00990952 0.0018502831 -0.16183437 0.08537133 0.01363919
-0.15133944 -0.020788986 -0.02614255 0.10870003 -0.002601277 -0.008238495 -0.079521336 -0.12861319
-0.13293545 -0.14717966 -0.0007692395 0.28860384 -0.031728122 -0.18165371 0.22344898 0.02690827
-0.046264607 -0.048914593 -0.064932436 0.0073053553 0.16509855 0.01996405 -0.0071906196 -0.21321784
-0.0058422987 -0.054406304 -0.12147226 -0.097489744 -0.09585438 -0.010298784 0.12576571 0.07707943
0.046121836 -0.030866265 0.0284476 -0.06669015 -0.018517414 -0.066765584 -0.08614138 0.03762439
0.015728433 -0.105515674 0.17471856 -0.17651923 -0.07729963 -0.047378805 -0.09406253 0.039103113
00000000: 87e2 1b3e 702d 8cbd 31f9 313d 3d57 f6bd
00000010: 2838 4cbd 30ef ca3d 3655 89bd 361b 47ba
00000020: 2409 f3bd 6558 f8bd 6597 5abd 90a4 933b
00000030: bf02 d9bd da4e f3bc 268e 3abd 14a3 e3bc
00000040: 2b4f 06be 400c 9e3c d678 c6be 4c02 01bd
00000050: 3a87 f63b f386 25bd 1544 4d3c 75e4 073d
00000060: 2944 8cbd e47c 103e 3e5b 553c af1d df3b
00000070: 4269 ff3d b9d6 fdbc e7e2 93bd e9b4 f8bd
00000080: 8ed3 11bd 77fe 1cbe 17a8 503d ecb4 0b3e
00000090: e0fe 623d 4088 b0bc 6d63 fe3c ee50 963c
000000a0: 4521 abbd 97ef 3c3d d6e4 983d e416 98bb
000000b0: 75e8 8fbc 37a1 e5bd 0096 04bd 594a a53d
000000c0: 03ad 623d 1985 953b 4136 0a3d e342 15be
000000d0: d2c0 2cbd 6728 07be fae4 45bd 4a1d 82bd
000000e0: f58d 653d 5c81 adbc c234 183d bbfb f7bc
000000f0: 4557 f4bd 0a15 893d ea5c 37bc a0d0 be3a
00000100: d9fa 313d 6516 efbc 538d a13c cc43 bd3b
00000110: 560a d1bd 3fb0 8fbd 3ad1 7bbd 10bd 8fbb
00000120: fad2 c53d 6922 51be d279 093d de98 44bc
00000130: a821 c53d a00d 813d 88cc 473d 27db 573d
00000140: 7b98 2a3d e0cd bcbb 74ef 03bc e989 013c
00000150: 96b8 6bbd 97db 7438 f710 b33d 63d6 8f3d
00000160: 67ad 183d d610 86bb d452 78bd 8e71 bb3d
00000170: 89ad 9a3c addc 24bd 1061 ea3c 3838 b9bd
00000180: 9420 d53d 8a21 b43b 937e 423d 0c99 913c
00000190: 959b 1e3d aa47 853d 52b9 86bc e169 c73c
000001a0: 61b0 523d fcc0 08be e2a6 11bd cc2f 59be
000001b0: 8b34 973c dbcf aebd 14d6 5bbd d1de 2bbe
000001c0: dee3 f33d 1517 1abe ca65 9d3c b3da 9bbd
000001d0: 946f 113e 9b10 b7bd 992d ae3c 1aaa 8b3d
000001e0: 520f b73c 3f5b 0cbb 9c70 30ba 6910 e9bd
000001f0: fdad 17be f2aa 88bd be32 53bd 86f0 08be
00000200: d7a7 ef3d 6335 c33c 7345 f7bc ceb5 5d3e
00000210: 6d75 09bc df35 c83d e56e 31bc 9694 b8bc
00000220: c5e1 dabd 91f2 30bd fa3a a3bd 3b57 e7ba
00000230: 2631 47bd 461b 5cbe dd37 833c bc7c babd
00000240: 71e9 ca3d 0d89 543b 9f2b 213a 59ff ce3d
00000250: 3aff 1bbd d298 0f3d 1e2a 47be 768b bbbd
00000260: b4ff 96bd d56c 5ebd 57e1 fb3c 34c9 00bd
00000270: 5c3d e3bd 95af d6bd 8e3e 2a3e bef4 47be
00000280: 883a 1cbd 2ec2 5d3c f12e 373d 8138 3cbd
00000290: 39b9 ed3d 16f9 113e f28a 08be b27f 833d
000002a0: ecc8 8ebd 2d33 ecbd 6493 ad3d 96d9 04bd
000002b0: 6673 0c3e e9c3 d8bc 7f77 e43d 4afa 8cbd
000002c0: 2842 14bd 8202 06bd 475a 31bd a5da 95bc
000002d0: 7551 abbb adfd a6bd 94ee b03d 6f55 54bd
000002e0: e25c 2ebd d3dd 26be 1f92 81bd 5a4f d7bb
000002f0: ea93 e5bd 6893 213d 1c43 733d 10ff 243c
00000300: 9c17 163d 0937 023e 89da e73d 2a48 773c
00000310: 1952 eebd bf32 8abd fbf7 d8bd 0c62 e0bb
00000320: d8ab 8ebd 827d 593d 36a8 debd 8a5b 223c
00000330: 3385 f23a e9b7 25be 2ad7 ae3d e976 5f3c
00000340: baf8 1abe aa4d aabc e728 d6bc 1f9e de3d
00000350: 307a 2abb c1fa 06bc 15dc a2bd 2db3 03be
00000360: 3b20 08be 44b6 16be caa6 49ba e2c3 933e
00000370: 59f5 01bd 6e03 3abe cfcf 643e bb6e dc3c
00000380: f57f 3dbd ab5a 48bd 4cfb 84bd c361 ef3b
00000390: 980f 293e a68b a33c 4a9f ebbb c755 5abe
000003a0: c170 bfbb 25d9 5ebd 73c6 f8bd b4a8 c7bd
000003b0: 4d4f c4bd 3bbc 28bc bac8 003e d2db 9d3d
000003c0: 40ea 3c3d 40db fcbc f10a e93c d894 88bd
000003d0: d5b1 97bc 65bc 88bd e46a b0bd 081c 1a3d
000003e0: ead8 803c 9a18 d8bd 6ce9 323e 75c1 34be
000003f0: 454f 9ebd 4710 42bd dba3 c0bd 962a 203d

network_body._body_endoder.seq_layers.2.bias f4 [128]
-0.0075593563 -0.067273125 -0.0039573316 -0.03884015 -0.027245607 -0.013468229 -0.03140957 -0.026904183
-0.062319115 0.0060994085 -0.065353714 -0.017428212 -0.0365715 -0.0582091 -0.005223493 -0.011727941
0.008735843 0.0038119708 -0.003974716 -0.065380074 -0.045280926 -0.045865897 -0.03240494 0.018330865
0.004748742 -0.039783485 0.0028846397 0.04411543 -0.026412563 -0.05631508 -0.017275626 -0.05459425
-0.01674252 -0.052847486 -0.035691492 -0.04660465 -0.039190482 0.015228213 -0.007534816 -0.011153984
0.0033956536 -0.052197237 -0.033803016 -0.04755625 -0.03259589 -0.07383856 -0.044382803 -0.018419527
-0.07175043 0.01210935 -0.031688917 -0.026896564 -0.024132285 -0.046621658 -0.019422961 -0.065950446
-0.013264094 -0.03437124 -0.029932639 0.009754277 -0.012565203 -0.05670906 -0.015679257 -0.018114422
-0.038965512 -0.078076184 -0.08757352 -0.02241391 -0.032184124 -0.027318556 -0.05339469 -0.03499657
-0.047249917 -0.0012958171 0.027526135 -0.012760888 -0.07773371 -0.06001214 -0.040558185 -0.036990613
-0.06674489 -0.03966728 -0.054922268 -0.035748202 -0.05132968 -0.07628678 -0.036738694 -0.041588277
-0.015963437 -0.034652837 -0.067482114 -0.014449379 -0.038894646 -0.052247494 -0.068886444 -0.00093223574
-0.073016375 -0.0521126 -0.0480814 -0.005570102 -0.03278302 -0.06798482 -0.033746902 0.01209619
-0.016141724 -0.08927248 -0.019667154 -0.02655128 -0.053390786 -0.026998205 -0.010297705 -0.035588328
0.0011351169 -0.036019646 -0.04814714 -0.0069419746 -0.05829925 -0.046443366 -0.05051766 -0.051011555
-0.019940283 -0.03217572 -0.04543493 -0.010301563 -0.008916333 -0.0351607 -0.0734571 0.01366458
00000000: 7ab4 f7bb 7ec6 89bd 81ac 81bb d916 1fbd
00000010: 2e32 dfbc d9a9 5cbc 52a7 00bd 2966 dcbc
00000020: 5442 7fbd 8cdd c73b 2bd8 85bd 9cc5 8ebc
00000030: ffcb 15bd aa6c 6ebd d629 abbb 8d26 40bc
00000040: c820 0f3c 42d2 793b 563e 82bb fde5 85bd
00000050: 7e78 39bd e1dd 3bbd 0bbb 04bd 9c2a 963c
00000060: 569b 9b3b 02f4 22bd 390c 3d3b 62b2 343d
00000070: 295f d8bc a4aa 66bd 9d85 8dbc 389e 5fbd
00000080: 9c27 89bc 9b76 58bd 3e31 12bd 84e4 3ebd
00000090: 3386 20bd c17f 793c 9ee6 f6bb 33bf 36bc
000000a0: 9d89 5e3b c5cc 55bd 0875 0abd 58ca 42bd
000000b0: 4583 05bd ac38 97bd beca 35bd 8ce4 96bc
000000c0: e4f1 92bd 4c66 463c 3dcc 01bd 2f56 dcbc
000000d0: 12b1 c5bc 5af6 3ebd e71c 9fbc 0711 87bd
000000e0: a451 59bc dbc8 0cbd 4b35 f5bc 67d0 1f3c
000000f0: 48de 4dbc c247 68bd c971 80bc b264 94bc
00000100: 4d9a 1fbd 68e6 9fbd bf59 b3bd 609d b7bc
00000110: 80d3 03bd 2acb dfbc 64b4 5abd 9058 0fbd
00000120: 2189 41bd 68d8 a9ba 7d7e e13c 0b13 51bc
00000130: da32 9fbd 4acf 75bd 5720 26bd 7883 17bd
00000140: 8bb1 88bd 287a 22bd 2cf6 60bd b56c 12bd
00000150: 123f 52bd 3e3c 9cbd 507b 16bd 7858 2abd
00000160: c1c5 82bc 22f0 0dbd 1034 8abd 17bd 6cbc
00000170: fe4f 1fbd 7801 56bd 5614 8dbd 4861 74ba
00000180: 9c89 95bd 0674 55bd 01f1 44bd 6785 b6bb
00000190: 7d47 06bd a03b 8bbd 313a 0abd 192f 463c
000001a0: a63b 84bc 7dd4 b6bd 031d a1bc 1282 d9bc
000001b0: 4cb0 5abd 572b ddbc b5b7 28bc 11c5 11bd
000001c0: 34c8 943a 5689 13bd ef35 45bd 8179 e3bb
000001d0: 32cb 6ebd 663b 3ebd 9beb 4ebd 7ef1 50bd
000001e0: ce59 a3bc b0ca 03bd fa19 3abd e3c7 28bc
000001f0: d015 12bc ab04 10bd ad70 96bd 67e1 5f3c

action_model._continuous_distribution.log_sigma f4 [1, 2]
0.3976347 0.19638999
00000000: c796 cb3e 751a 493e

action_model._continuous_distribution.mu.weight f4 [2, 128]
-0.011049993 0.0030504903 0.016679306 -0.04475327 0.051238485 -0.066953525 -0.04500821 -0.046920534
0.0059003346 -0.062238175 -0.00559137 -0.037268568 -0.03269079 -0.03427282 -0.026154533 -0.03019971
-0.041214377 -0.03235238 -0.037371714 -0.040207792 0.017849475 -0.011546333 -0.02059641 0.0386068
-0.07348944 -0.024434473 -0.043491747 0.028108563 0.009611379 -0.030366926 -0.018785182 -0.0033741046
-0.060202032 -0.0171085 -0.030540794 -0.032107122 -0.017750887 0.023190394 -0.04699279 -0.08732849
-0.02277049 -0.020215334 -0.070898734 0.005609892 -0.009224706 -0.031173475 -0.06253452 -0.022987898
-0.01579343 -0.046466503 -0.023387188 -0.011331981 -0.034352392 -0.012811255 -0.047163937 -0.004374465
-0.086930476 -0.048818614 -0.030795291 -0.01444262 -0.036283456 -0.011936862 -0.049170416 -0.036282767
-0.052715156 0.00014452844 -0.012385933 -0.042322744 -0.00808291 -0.0048625288 -0.03288076 -0.020345803
-0.03945658 -0.10307465 -0.005638165 -0.020902503 0.0077338307 0.0021860455 0.011781472 0.015325151
-0.005077908 -0.031922236 0.0014720707 -0.020367669 -0.007515258 -0.013298122 -0.031196225 -0.013067297
-0.039521687 0.022847364 0.020367809 0.020618727 -0.0021004914 -0.04895044 -0.029987508 0.053115364
-0.005444439 -0.029637383 -0.006225506 -0.0550067 -0.0352722 0.0112925945 -0.039073158 -0.084352635
0.029043552 -0.012893811 0.027557073 -0.020487268 -0.05551964 -0.011936418 -0.051098123 -0.047076747
-0.07141344 -0.03875122 -0.007669959 -0.01389122 0.02027916 -0.041378446 -0.01797145 -0.0022054797
-0.0344591 -0.06288164 0.0130751375 0.03342525 -0.008124324 -0.04524191 -0.0077265413 -0.0698476
-0.0023607195 0.0021587482 0.01334468 -0.0068683936 -0.040106405 -0.043304447 -0.012403002 -0.015053311
0.0011339342 -0.01747345 0.0066135093 -0.034529887 0.0051976265 -0.003452215 0.01669986 0.008076628
0.00834709 -0.035472233 -0.027984845 -0.0037652946 0.004755798 -0.025541851 -0.03352738 -0.02918472
-0.037548304 -0.0071075554 -0.051733643 0.009641611 -0.04568318 -0.021748217 -0.01947189 0.0013397794
-0.02449819 -0.0068266373 -0.015616072 -0.0049031535 0.0042297025 -0.008972852 -0.0046876376 -0.04374197
-0.0062553165 -0.0044035693 -0.017211484 0.017484624 -0.008960483 -0.00086158334 -0.02816629 -0.036881637
-0.0012103529 0.006575233 0.008703658 -0.008309234 -0.037114512 0.0009301973 -0.00035699405 0.0044983095
-0.050627355 -0.015267745 -0.0013153241 -0.038277548 -0.009374362 -0.0022083747 0.0073269336 -0.036496844
-0.02842045 -0.006012034 -0.0066568484 -0.013361095 0.02637608 0.011706295 0.005299951 -0.00042208756
-0.005746518 -0.012583169 0.04877264 -0.012631963 -0.0023244536 0.0059681786 -0.04413941 0.013157229
0.009057396 0.000701738 -0.004881498 -0.0013719158 0.007110798 0.006086791 -0.0074433032 0.009996971
0.0010603407 -0.032301486 0.003842812 -0.023133237 0.00060917484 -0.02878616 0.026033176 -0.0033914263
-0.0056059975 -0.023346381 -0.02363718 -0.045450833 -0.022329798 -0.0048916624 -0.014013806 -0.06448648
0.00615309 -0.010543195 -0.0013829884 -0.008039901 -0.056211747 -0.0054891645 -0.03328486 -0.035267506
-0.025896953 -0.037055075 -0.02425164 -0.03456177 -0.0021227482 -0.0028200645 -0.005161482 0.009435191
-0.008050965 -0.021632748 -0.021030346 -0.019418905 0.0057301675 0.015464 -0.016448243 0.0059388718
00000000: 080b 35bc bcea 473b 0aa3 883c 344f 37bd
00000010: 72df 513d ee1e 89bd 875a 38bd bf2f 40bd
00000020: 9857 c13b 75ed 7ebd d037 b7bb eda6 18bd
00000030: c7e6 05bd a861 0cbd 0842 d6bc 6265 f7bc
00000040: 68d0 28bd ee83 04bd 1513 19bd edb0 24bd
00000050: 1039 923c d52c 3dbc cdb9 a8bc 2a22 1e3d
00000060: a281 96bd ce2a c8bc 6724 32bd ee43 e63c
00000070: 0c79 1d3c 0fc4 f8bc 62e3 99bc 1520 5dbb
00000080: 6896 76bd 2027 8cbc b030 fabc c282 03bd
00000090: 4f6a 91bc c8f9 bd3c 837b 40bd 48d9 b2bd
000000a0: 2e89 babc a19a a5bc 5b33 91bd 2fd3 b73b
000000b0: 3923 17bc 845f ffbc 1912 80bd 1e51 bcbc
000000c0: 3961 81bc a953 3ebd 7d96 bfbc c6a9 39bc
000000d0: 18b5 0cbd 4ce6 51bc f92e 41bd ac57 8fbb
000000e0: 9b08 b2bd 07f6 47bd 6846 fcbc bda0 6cbc
000000f0: f69d 14bd d492 43bc eb66 49bd 3d9d 14bd
00000100: d9eb 57bd 8f8c 1739 5eee 4abc 9d5a 2dbd
00000110: 2f6e 04bc d955 9fbb faad 06bd 3eac a6bc
00000120: 399d 21bd cd18 d3bd 5bc0 b8bb ba3b abbc
00000130: 136c fd3b c243 0f3b 1307 413c 5816 7b3c
00000140: 9464 a6bb e4c0 02bd 7ff2 c03a 19da a6bc
00000150: 8e42 f6bb 5ee0 59bc 3a8f ffbc 3718 56bc
00000160: 7ee1 21bd 652a bb3c 64da a63c 9be8 a83c
00000170: 66a8 09bb 4280 48bd 5da8 f5bc 7f8f 593d
00000180: 4467 b2bb 19ca f2bc 54ff cbbb b54e 61bd
00000190: 9579 10bd 9304 393c 2d0b 20bd 13c1 acbd
000001a0: beec ed3c 9040 53bc 5fbf e13c ead4 a7bc
000001b0: 9068 63bd f790 43bc 444c 51bd 8cd3 40bd
000001c0: 3641 92bd 99b9 1ebd 4854 fbbb 0098 63bc
000001d0: 7b20 a63c 727c 29bd dd38 93bc cf89 10bb
000001e0: fc24 0dbd 17c8 80bd 1a39 563c eae8 083d
000001f0: e21b 05bc 954f 39bd ed2e fdbb 420c 8fbd
00000200: 4db6 1abb c979 0d3b a5a3 5a3c 4310 e1bb
00000210: 9d46 24bd 0160 31bd f635 4bbc 2aa2 76bc
00000220: 85a0 943a 7b24 8fbc 23b6 d83b 366f 0dbd
00000230: da50 aa3b 8f3e 62bb 25ce 883c d553 043c
00000240: 3cc2 083c 554b 11bd 7940 e5bc 29c3 76bb
00000250: 86d6 9b3b 253d d1bc 0254 09bd cb14 efbc
00000260: 40cc 19bd 7fe6 e8bb a8e6 53bd d9f7 1d3c
00000270: 491e 3bbd 5129 b2bc 8383 9fbc 899b af3a
00000280: 6eb0 c8bc fcb1 dfbb 8eda 7fbc a2aa a0bb
00000290: 5199 8a3b de02 13bc c19a 99bb c82a 33bd
000002a0: 66f9 ccbb d14b 90bb 19ff 8cbc ea3b 8f3c
000002b0: fdce 12bc e1db 61ba febc e6bc 3311 17bd
000002c0: b4a4 9eba 0d75 d73b ca99 0e3c 7423 08bc
000002d0: 6305 18bd 7cd8 733a ee2a bbb9 8e66 933b
000002e0: a15e 4fbd 9025 7abc f466 acba ebc8 1cbd
000002f0: ed96 19bc 61ba 10bb c616 f03b b77d 15bd
00000300: 01d2 e8bc 9900 c5bb b121 dabb 7fe8 5abc
00000310: a612 d83c c3cb 3f3c 36ab ad3b a24b ddb9
00000320: 494d bcbb a329 4ebc d2c5 473d 4bf6 4ebc
00000330: dc55 18bb b690 c33b 87cb 34bd 6b91 573c
00000340: 7965 143c d7f4 373a f9f4 9fbb dbd1 b3ba
00000350: b201 e93b b473 c73b f4e6 f3bb 56ca 233c
00000360: 21fb 8a3a 904e 04bd b0d7 7b3b ea81 bdbc
00000370: 08b1 1f3a f4d0 ebbc 8743 d53c b142 5ebb
00000380: 84b2 b7bb e940 bfbc c2a2 c1bc a72a 3abd
00000390: fbec b6bc 3d4a a0bb 2a9a 65bc 7d11 84bd
000003a0: dc9f c93b 5dbd 2cbc 6445 b5ba cab9 03bc
000003b0: 4a3e 66bd 73de b3bb b555 08bd a974 10bd
000003c0: d925 d4bc 10c7 17bd 60ab c6bc a490 0dbd
000003d0: ce1d 0bbb d5d0 38bb a621 a9bb 0f96 1a3c
000003e0: 32e8 03bc 2937 b1bc d547 acbc 6514 9fbc
000003f0: 21c4 bb3b b85c 7d3c 77be 86bc de9a c23b

action_model._continuous_distribution.mu.bias f4 [2]
0.012661368 -0.023798736
00000000: a071 4f3c 91f5 c2bc

exp_avg f4 [128, 6]
0.000398578 -0.00038411553 0.0003568059 0.00040950603 -0.00037912032 0.0002936565 7.997763e-08 3.425624e-08
-1.4988181e-07 5.3426024e-08 3.226506e-08 -1.5274695e-07 -0.00267884 0.00036585148 -0.0025967157 -0.0015028669
0.00040950696 -0.0017241105 -0.00023912352 0.00039118357 -0.0001431892 -0.00045932713 0.00037637085 -0.0002759775
0.00085931784 -0.00046316485 0.0009538835 0.0012144843 -0.000438616 0.0013680938 0.00042554337 -0.0012356716
0.0005928162 0.0019606932 -0.0011518154 0.0019105964 3.5880923e-05 -3.5531888e-05 3.2231837e-05 3.7629397e-05
-3.505759e-05 2.7145785e-05 6.46658e-05 -6.596294e-05 5.833655e-05 7.0871014e-05 -6.512759e-05 5.0333107e-05
0.0029705572 -0.0017153017 0.0027755885 0.0029746424 -0.0016959151 0.0026819573 0.0044249664 -0.0031355314
0.0044691786 0.005068748 -0.0030624208 0.0048741205 0.0014149015 -0.0002677836 0.0020374071 0.0005016578
-0.00030780424 0.0011712582 -2.4924244e-05 1.878055e-05 -2.6257032e-05 -2.5124611e-05 1.8617426e-05 -2.3488756e-05
0.0016962597 -0.0004333926 0.0016849888 0.0016963208 -0.000419279 0.0019081004 -2.4224812e-05 -0.00020487978
0.0004223097 5.9948958e-05 -0.00020304734 0.00042885126 -0.0012181688 0.0008640335 -0.0013430926 -0.0010633868
0.0008624509 -0.0010512009 -0.00030025045 -0.00014256421 -0.00022680475 -4.757319e-06 -0.00012593066 6.1780192e-06
-0.0010530943 0.0004258484 -0.001159445 -0.0010758832 0.00041140028 -0.001271985 1.8348004e-05 -0.00010760861
0.0002584442 5.1181683e-05 -0.0001050963 0.00026022925 0.00020809744 6.5392425e-07 0.000586074 -0.00073556294
-4.9441427e-05 -0.0004998621 -3.2032048e-07 4.335768e-07 -3.0965586e-07 -3.540194e-07 4.2799232e-07 -2.3168053e-07
0.0033526048 -0.0020346825 0.0039579724 0.0023092218 -0.0020669862 0.002535853 0.0001281456 -0.00019768659
0.00019094892 0.00051153556 -0.00017779939 0.000585566 0.00038590582 -0.00074030843 0.0004973752 0.0010314684
-0.00069781474 0.001041565 -1.1820706e-05 1.0542184e-05 -9.9656745e-06 -1.2168327e-05 1.0449981e-05 -9.54444e-06
0.0028600954 -0.0016019421 0.0031774293 0.0021824725 -0.0016228742 0.002280216 -1.8376226e-05 -2.0551355e-05
5.5256973e-05 -9.510948e-06 -2.0123827e-05 5.4572105e-05 0.00032084505 -0.00088920904 0.0005850484 0.0010621282
-0.0008413248 0.001155149 -4.7188125e-05 -2.3533743e-05 9.248321e-05 -3.159548e-05 -2.2543307e-05 9.3366754e-05
0.0002789552 0.000335782 -0.0009182985 0.00013116322 0.0003245939 -0.0009086176 -0.0022178758 0.0006026081
-0.0016409054 -0.003322228 0.0005406854 -0.003141758 0.0008429695 -0.00035927817 -8.869209e-05 0.00077656866
-0.00034760754 -0.00012874427 0.0049905805 -0.0033936142 0.005130689 0.004266181 -0.0033990785 0.0038323314
-0.00028484623 -0.00050993345 -0.00023580118 0.0004192831 -0.00047592068 0.00026126672 3.1309956e-08 -3.2837526e-08
3.034362e-08 3.518928e-08 -3.241856e-08 2.5140677e-08 0.0004352417 -1.3581432e-05 0.00085966184 1.0206446e-06
-3.2702974e-05 0.00045471484 4.0990664e-05 2.0360872e-05 -8.0215505e-05 2.7361535e-05 1.9325862e-05 -8.106031e-05
0.00010780333 -0.00011156907 0.00010205217 0.00011770198 -0.00011012156 8.597829e-05 0.0002521231 9.9051176e-05
-0.0004432305 0.00017535906 9.3762595e-05 -0.00045051606 0.0001367734 -8.992463e-06 -0.00014377887 0.00011348807
-1.0068834e-05 -0.0001546337 -0.00010015729 7.653971e-05 6.6187305e-05 -0.00014207058 7.205135e-05 2.2849821e-05
-4.667726e-05 -6.0617076e-05 0.00016505794 -2.32148e-05 -5.9410137e-05 0.00016261746 -0.00094342104 0.0010301701
-0.00060822594 -0.0016383755 0.0009838962 -0.0011903513 -0.003125878 0.0016088301 -0.0029732857 -0.002267687
00000000: 3cf8 d039 1d63 c9b9 ad11 bb39 f8b2 d639
00000010: abc4 c6b9 e9f5 9939 2bc0 ab33 2221 1333
00000020: 33ef 20b4 8976 6533 cf93 0a33 c302 24b4
00000030: 7a8f 2fbb c1cf bf39 a92d 2abb d8fb c4ba
00000040: 18b3 d639 8cfb e1ba 3bbd 7ab9 c517 cd39
00000050: 0f25 16b9 d8d1 f0b9 a453 c539 13b1 90b9
00000060: d843 613a efd4 f2b9 0a0e 7a3a 552f 9f3a
00000070: 0bf6 e5b9 9c51 b33a 771b df39 42f6 a1ba
00000080: 3967 1b3a f97e 003b 83f8 96ba fa6c fa3a
00000090: d97e 1638 1308 15b8 ac30 0738 42d4 1d38
000000a0: cd0a 13b8 21b7 e337 309d 8738 9555 8ab8
000000b0: 65ae 7438 96a0 9438 1c95 88b8 c31c 5338
000000c0: aead 423b f9d3 e0ba a6e6 353b 38f2 423b
000000d0: 7849 deba c7c3 2f3b 4fff 903b 7d7d 4dbb
000000e0: 3072 923b bd17 a63b e5b2 48bb 16b7 9f3b
000000f0: 3774 b93a 4e65 8cb9 0586 053b af81 033a
00000100: c960 a1b9 e784 993a 6814 d1b7 ed8a 9d37
00000110: 8c42 dcb7 b1c2 d2b7 9e2c 9c37 b809 c5b7
00000120: 0855 de3a f838 e3b9 d8da dc3a 1557 de3a
00000130: add2 dbb9 3a19 fa3a 6336 cbb7 ffd4 56b9
00000140: 7369 dd39 b471 7b38 1be9 54b9 71d7 e039
00000150: f6aa 9fba 4f80 623a b60a b0ba 5761 8bba
00000160: 1a16 623a 73c8 89ba ef6a 9db9 4a7d 15b9
00000170: 70d2 6db9 0fa1 9fb6 410c 04b9 c84c cf36
00000180: fb07 8aba 6844 df39 85f8 97ba a604 8dba
00000190: 36b1 d739 bcb8 a6ba 0aea 9937 efab e1b8
000001a0: cb7f 8739 eaab 5638 2567 dcb8 616f 8839
000001b0: bb34 5a39 5589 2f35 c3a2 193a cbd2 40ba
000001c0: 545f 4fb8 2d09 03ba 83f8 abb4 57c6 e834
000001d0: c73e a6b4 0e10 beb4 d1c6 e534 dcc3 78b4
000001e0: 60b7 5b3b 4f58 05bb e1b1 813b 5056 173b
000001f0: 4676 07bb 8e30 263b d35e 0639 174a 4fb9
00000200: 7639 4839 9218 063a a96f 3ab9 ab80 193a
00000210: 6753 ca39 4211 42ba 4962 023a 5632 873a
00000220: 8eed 36ba 1f85 883a 8c51 46b7 56de 3037
00000230: 3f32 27b7 9126 4cb7 5452 2f37 0f21 20b7
00000240: 7070 3b3b 42f8 d1ba 6b3c 503b d007 0f3b
00000250: 9fb6 d4ba ad6f 153b a526 9ab7 b365 acb7
00000260: b9c3 6738 3691 1fb7 97cf a8b7 5ae4 6438
00000270: 1837 a839 cf19 69ba ef5d 193a 1c37 8b3a
00000280: 5a8c 5cba 5e68 973a ddeb 45b8 546a c5b7
00000290: 8cf3 c138 6385 04b8 621b bdb7 e5cd c338
000002a0: bc40 9239 e60b b039 f8b9 70ba dc88 0939
000002b0: 412e aa39 4c30 6eba c859 11bb 58f8 1d3a
000002c0: a613 d7ba bdb9 59bb c8bc 0d3a f4e5 4dbb
000002d0: bafa 5c3a 805d bcb9 3400 bab8 a492 4b3a
000002e0: 183f b6b9 87ff 06b9 0688 a33b 6667 5ebb
000002f0: 571f a83b 52cb 8b3b 13c3 5ebb da27 7b3b
00000300: 6a57 95b9 0ead 05ba 6641 77b9 3ad3 db39
00000310: fe84 f9b9 a0fa 8839 a979 0633 3e09 0db3
00000320: 2a53 0233 0623 1733 953c 0bb3 eff4 d732
00000330: 2731 e439 cedb 63b7 ee5a 613a 15fd 8835
00000340: 8d2a 09b8 cb66 ee39 64ed 2b38 a4cc aa37
00000350: 5f39 a8b8 7386 e537 f91d a237 ecfe a9b8
00000360: 7914 e238 30fa e9b8 d704 d638 c5d6 f638
00000370: 10f1 e6b8 3e4f b438 642f 8439 b2b9 cf38
00000380: 6461 e8b9 97e0 3739 69a2 c438 3e33 ecb9
00000390: d46a 0f39 56de 16b7 59c3 16b9 7200 ee38
000003a0: 50ed 28b7 2b25 22b9 890b d2b8 f283 a038
000003b0: 0ace 8a38 c8f8 14b9 461a 9738 9ead bf37
000003c0: 54c7 43b8 173f 7eb8 6713 2d39 67bd c2b7
000003d0: 262f 79b8 4b84 2a39 ea4f 77ba c606 873a
000003e0: 5a71 1fba c2be d6ba 14f6 803a 9005 9cba
000003f0: 88db 4cbb 61df d23a 75db 42bb 7a9d 14bb

exp_avg_sq f4 [128, 6]
0.00017154733 2.6684183e-05 3.0613875e-05 0.00020261899 2.5738338e-05 4.738888e-05 1.11664995e-05 4.639866e-06
3.3951972e-06 1.7209915e-05 4.5293673e-06 9.80956e-07 0.00085474295 7.212528e-05 0.0011770248 0.0009642284
7.1110124e-05 0.0011929998 0.00012754789 3.4730816e-05 0.00038897735 0.00012270502 3.3343356e-05 0.00042739118
7.372497e-05 6.994041e-06 0.00010833533 8.071986e-05 6.9051744e-06 0.000107506836 0.0021097118 0.0003093995
0.0041598454 0.0023038497 0.0003009118 0.0041918606 6.587978e-05 6.300801e-06 2.7800252e-06 7.504866e-05
6.2176064e-06 4.74327e-06 1.7716073e-05 3.6920283e-06 1.7210389e-06 1.9307487e-05 3.6491363e-06 1.6468605e-06
0.00021708332 4.046724e-05 0.0006461433 0.0002350357 3.9845807e-05 0.00065770024 0.00054308225 8.891118e-05
0.0009992735 0.00060765876 8.637741e-05 0.0010162265 0.0014576755 0.00035119453 0.0062728575 0.0014898893
0.00034042966 0.006564549 3.5960547e-08 1.0565028e-08 3.384293e-08 4.3343928e-08 1.04119655e-08 2.7437714e-08
0.00021288273 3.0855852e-05 0.00039673276 0.00023935424 3.011226e-05 0.0004126879 0.00012259817 7.443106e-05
0.0012100381 0.00012957788 7.1745686e-05 0.0012646155 0.00025144618 4.716256e-05 0.00040644943 0.00026793336
4.6184407e-05 0.00042793658 0.00011664631 2.7862789e-05 0.00044487664 0.00011990232 2.7199716e-05 0.0004648352
7.8572084e-05 1.8942992e-05 0.00023813294 7.869826e-05 1.8418967e-05 0.00025779565 1.7053428e-05 6.390134e-06
8.093704e-05 1.03106595e-05 6.0778334e-06 9.1856506e-05 0.0012976258 0.00031477146 0.005038035 0.0013327604
0.00030627562 0.005299701 1.8453668e-10 2.4897041e-11 4.9278092e-11 2.2955238e-10 2.4446804e-11 6.340872e-11
0.002593535 0.0006409026 0.009560204 0.002734169 0.0006259318 0.010014632 0.0005483809 5.499748e-05
0.0001135587 0.00061764976 5.4087453e-05 0.00014534203 0.0004926977 0.00011641636 0.0015831286 0.000530956
0.000113487324 0.001649713 0.0001644627 1.5244557e-05 1.4174302e-05 0.00018453553 1.499996e-05 1.9041163e-05
0.0015942401 0.00037309766 0.005294018 0.001711887 0.00036414634 0.0055769864 0.00011954803 3.734679e-05
0.00023167477 7.976878e-05 3.396291e-05 0.0002795187 0.0006121398 0.00014098617 0.001703219 0.00065339997
0.00013758647 0.0017992408 1.2690489e-05 3.7609893e-06 9.6144126e-05 1.0872753e-05 3.6417473e-06 0.00010299501
0.00032229276 0.00015256906 0.0013201997 0.00023698671 0.00014584395 0.0014855561 0.0020630164 0.0006181648
0.010365151 0.002082309 0.00060090784 0.010816911 0.0004830798 0.00024276623 0.003498748 0.0004116109
0.00023514644 0.0038277768 0.0018215958 0.0004718465 0.0073641655 0.0019258655 0.00046143113 0.007710436
0.00072311715 7.8113415e-05 0.00063241774 0.0008200253 7.608588e-05 0.0006741015 1.4938956e-11 3.4348236e-12
1.027438e-12 1.2130159e-11 3.3807783e-12 1.2265051e-12 0.0003830229 0.00010898254 0.0016378564 0.00038112825
0.00010565877 0.0017402802 1.1783032e-05 3.8938e-06 1.6990545e-05 1.1145291e-05 3.7265931e-06 1.7885957e-05
7.77222e-06 5.1252323e-06 4.071088e-06 5.6561503e-06 5.013245e-06 3.208586e-06 0.00017013439 5.0907922e-05
0.00089830573 0.00014378314 4.8330297e-05 0.0009957724 1.7363864e-05 1.37982215e-05 0.00018558622 1.4817012e-05
1.3545481e-05 0.00019382862 0.00015950952 3.9301147e-05 0.0002154455 0.00015938428 3.8015223e-05 0.00023042243
2.5874993e-05 1.408022e-05 0.0001548775 2.2275472e-05 1.3685987e-05 0.00016432283 0.0005609788 0.00013978509
0.0022756066 0.0005790249 0.00013568453 0.0023932913 0.00054814987 7.4765325e-05 0.000879803 0.00064996124
00000000: 63e1 3339 d9d7 df37 6667 0038 1f76 5439
00000010: a9e8 d737 6cc3 4638 c057 3b37 25b0 9b36
00000020: 0bd9 6336 035e 9037 f8fa 9736 64a9 8335
00000030: d410 603a f741 9738 6646 9a3a 46c4 7c3a
00000040: f520 9538 6e5e 9c3a 60be 0539 eeab 1138
00000050: a8ef cb39 61aa 0039 28da 0b38 7913 e039
00000060: cb9c 9a38 5bae ea36 1632 e338 2548 a938
00000070: ffb2 e736 4b75 e138 1743 0a3b e636 a239
00000080: 504f 883b 2ffc 163b b3c3 9d39 e05b 893b
00000090: f028 8a38 786b d336 7890 3a36 7163 9d38
000000a0: d5a0 d036 6128 9f36 fa9c 9437 90c4 7736
000000b0: 72fe e635 83f6 a137 afe3 7436 b209 dd35
000000c0: dca0 6339 5ebb 2938 f161 293a ea73 7639
000000d0: 1c20 2738 8469 2c3a a25d 0e3a d475 ba38
000000e0: 0efa 823a 4a4b 1f3a 8525 b538 e732 853a
000000f0: 790f bf3a 8820 b839 8b8c cd3b 6448 c33a
00000100: b27b b239 6e1b d73b 0a73 1a33 7c81 3532
00000110: b25a 1133 2729 3a33 4fe0 3232 2cb0 eb32
00000120: 4639 5f39 386b 0138 9200 d039 2afb 7a39
00000130: 9699 fc37 085e d839 b28d 0039 df17 9c38
00000140: 249a 9e3a 4cdf 0739 2c76 9638 74c1 a53a
00000150: 89d4 8339 6ad0 4538 b818 d539 6879 8c39
00000160: 21b6 4138 ad5c e039 03a0 f438 e2ba e937
00000170: 553e e939 1174 fb38 f22a e437 20b5 f339
00000180: 11c7 a438 c4e7 9e37 53b3 7939 ce0a a538
00000190: 6e82 9a37 bf28 8739 f50d 8f37 d56a d636
000001a0: bebc a938 f2fb 2c37 31f0 cb36 16a3 c038
000001b0: 1915 aa3a e907 a539 1a16 a53b 05b0 ae3a
000001c0: 9e93 a039 1da9 ad3b 75e6 4a2f 27ff da2d
000001d0: 33ba 582e 4065 7c2f 4f09 d72d f06f 8b2e
000001e0: 4cf8 293b 3f02 283a 67a2 1c3c be2f 333b
000001f0: 9215 243a 6914 243c 38c1 0f3a 18ad 6638
00000200: 5d26 ee38 c6e9 213a f6db 6238 f466 1839
00000210: 6228 013a 8f24 f438 fb80 cf3a db2f 0b3a
00000220: 0b00 ee38 2f3b d83a 9f73 2c39 e0c2 7f37
00000230: 2ace 6d37 e17f 4139 56a8 7b37 96ba 9f37
00000240: d2f5 d03a 529c c339 7179 ad3b 6561 e03a
00000250: e5ea be39 27bf b63b dcb5 fa38 cfa4 1c38
00000260: b9ed 7239 8a49 a738 6673 0e38 5d8c 9239
00000270: 0278 203a b0d5 1339 8c3e df3a ee48 2b3a
00000280: 1645 1039 81d4 eb3a 3ce9 5437 4e65 7c36
00000290: fca0 c938 1e6a 3637 be64 7436 06ff d738
000002a0: 67f9 a839 f2fa 1f39 8d0a ad3a a37f 7839
000002b0: b0ed 1839 feb6 c23a ac33 073b 560c 223a
000002c0: 98d2 293c 5977 083b 3e86 1d3a 6a39 313c
000002d0: e045 fd39 108f 7e39 404b 653b 7bcd d739
000002e0: a491 7639 70db 7a3b 9dc2 ee3a 2a62 f739
000002f0: 194f f13b 536d fc3a 3dec f139 d3a7 fc3b
00000300: 928f 3d3a d2d0 a338 d6c8 253a f7f6 563a
00000310: 4c90 9f38 30b6 303a 8a67 832d 48b4 712c
00000320: 5b99 902b 6165 552d b0e6 6d2c 819d ac2b
00000330: 77d0 c839 8e8d e438 57ad d63a 2bd2 c739
00000340: 1f95 dd38 1d1a e43a bdaf 4537 7da7 8236
00000350: eb86 8e37 a9fc 3a37 6216 7a36 cd09 9637
00000360: 6e65 0237 69f9 ab36 619a 8836 f6c9 bd36
00000370: 7237 a836 1653 5736 1a66 3239 f785 5538
00000380: 477c 6b3a 7ec4 1639 43b6 4a38 9484 823a
00000390: 9da8 9137 e97e 6737 ec99 4239 9596 7837
000003a0: 6641 6337 793e 4b39 0342 2739 49d7 2438
000003b0: 36e9 6139 6420 2739 8972 1f38 8d9d 7139
000003c0: 200e d937 163a 6c37 9d66 2239 36dc ba37
000003d0: de9c 6537 134e 2c39 a60e 133a 4693 1239
000003e0: 5822 153b b4c9 173a 8a46 0e39 c4d8 1c3b
000003f0: b7b1 0f3a 54cb 9c38 94a2 663a 2962 2a3a

exp_avg f4 [128]
4.956721e-05 -4.2184216e-09 -5.3540032e-05 -4.9207734e-05 5.7345846e-05 0.00015059153 4.583526e-06 8.514956e-06
0.00022172846 0.0004003891 4.0243132e-05 -2.4340932e-06 5.481766e-05 2.6546939e-05 -0.00011275917 1.646451e-05
-5.3787582e-05 1.37405705e-05 6.464153e-06 -5.5956885e-08 0.0002702434 2.324597e-05 9.123414e-05 -1.3662587e-06
0.00021217897 2.6310438e-06 0.00010999706 2.9473724e-06 -4.2438285e-05 -7.0690694e-05 4.544716e-05 0.0004444048
6.2223175e-05 4.23849e-09 4.2756815e-06 -2.526714e-06 1.43975885e-05 -1.2258776e-05 1.3164286e-06 -9.420167e-06
7.767442e-06 -0.00012863727 -0.00021385822 1.269011e-05 -2.2209782e-05 -2.1424754e-05 0.00027338354 -0.000338278
3.9191837e-06 -9.778399e-10 -2.5528328e-05 4.0024858e-07 0.0003078807 0.0002037568 -1.8061475e-05 -1.8806253e-05
-1.9091707e-05 0.0002022423 -0.0004772402 1.1799518e-05 0.00012598926 -3.3467182e-05 2.8266499e-05 4.5084134e-06
5.806355e-05 -1.6692342e-06 2.3021597e-05 0.00019493875 -0.0002382984 -2.1649616e-05 3.6016376e-05 1.4328156e-06
7.468521e-06 6.4598873e-09 -2.3040633e-05 -0.00010903064 -7.4813756e-06 -0.00013492006 1.2477188e-05 -2.0427164e-05
2.0654566e-06 -1.2666071e-07 1.5202203e-06 -6.17216e-08 3.116397e-05 2.428083e-06 -8.4823536e-05 6.0551127e-05
-1.497644e-06 -5.477948e-05 -9.138979e-06 -1.1385611e-05 4.0738945e-05 0.00033772326 -0.0001242386 -2.7752453e-06
0.00017545625 0.00024620554 -0.0001356377 2.2960765e-07 1.4764647e-05 2.094253e-05 5.3160197e-06 -0.000102540864
1.1026109e-07 -2.2957622e-06 0.00011621108 7.6804423e-07 -0.00012328372 -9.716852e-07 9.4068205e-11 -1.1208056e-05
-1.639235e-05 -5.3557534e-07 -4.171779e-06 -9.846736e-05 -4.5872017e-05 8.557086e-05 0.00028947764 1.8916705e-08
0.0001243682 -4.0112267e-12 1.4972703e-07 0.00017751125 0.00015869075 -5.485312e-05 8.65008e-06 -8.7516644e-05
00000000: 63e6 4f38 a1f1 90b1 2c90 60b8 6764 4eb8
00000010: a286 7038 1be8 1d39 30cc 9936 75db 0e37
00000020: c87f 6839 51eb d139 bcca 2838 6759 23b6
00000030: 04ec 6538 1eb1 de37 1e79 ecb8 441d 8a37
00000040: fa99 61b8 4d87 6637 a7e6 d836 3f55 70b3
00000050: 75af 8d39 5700 c337 f554 bf38 4b60 b7b5
00000060: 5c7c 5e39 fd90 3036 39ae e638 79cb 4536
00000070: c3ff 31b8 c73f 94b8 849e 3e38 01ff e839
00000080: d07d 8238 27a2 9131 d377 8f36 9e90 29b6
00000090: 2c8d 7137 0bab 4db7 24b0 b035 4f0b 1eb7
000000a0: e950 0237 cee2 06b9 213f 60b9 9ce7 5437
000000b0: 254f bab7 4fb9 b3b7 eb54 8f39 e85a b1b9
000000c0: 8881 8336 af64 86b0 ab25 d6b7 bfe1 d634
000000d0: 0c6b a139 8da7 5539 b982 97b7 1fc2 9db7
000000e0: 2127 a0b7 0111 5439 1836 fab9 8bf6 4537
000000f0: fc1b 0439 1d5f 0cb8 d81d ed37 fa46 9736
00000100: 4389 7338 730a e0b5 811e c137 7968 4c39
00000110: bddf 79b9 329c b5b7 4a10 1738 2b4f c035
00000120: 1b9a fa36 c5f5 dd31 6247 c1b7 61a7 e4b8
00000130: 8708 fbb6 5479 0db9 1d55 5137 005b abb7
00000140: 469c 0a36 3b00 08b4 5f0a cc35 cf8b 84b3
00000150: 0fb6 0238 26f2 2236 4ae3 b1b8 47f8 7d38
00000160: a802 c9b5 05c3 65b8 9e53 19b7 d404 3fb7
00000170: 1cdf 2a38 7310 b139 0c46 02b9 5a3e 3ab6
00000180: aefa 3739 2615 8139 f839 0eb9 128a 7634
00000190: adb5 7737 bead af37 4360 b236 350b d7b8
000001a0: adc8 ec33 e510 1ab6 59b6 f338 992b 4e35
000001b0: b945 01b9 d96a 82b5 b1db ce2e 3c0a 3cb7
000001c0: 4e82 89b7 75c4 0fb5 4ffb 8bb6 4380 ceb8
000001d0: b466 40b8 8174 b338 08c5 9739 467e a232
000001e0: d668 0239 eb21 8dac a7c4 2034 5022 3a39
000001f0: 3966 2639 1712 66b8 d01f 1137 2489 b7b8

exp_avg_sq f4 [128]
4.399624e-07 7.7423465e-08 1.215532e-06 5.6995856e-07 1.1803459e-07 5.143681e-06 1.0628167e-07 6.237713e-08
6.8111035e-07 1.4765058e-06 5.8191827e-06 1.7797855e-10 5.147277e-07 1.2263955e-06 7.894579e-07 4.6494176e-07
3.148473e-07 1.0389238e-07 5.2353757e-06 4.1788518e-13 1.069947e-05 9.2455275e-07 1.9399138e-06 2.5640432e-07
6.2246004e-06 5.805505e-07 2.351859e-06 6.225066e-08 2.4930036e-06 1.027171e-05 4.019501e-06 7.887557e-06
1.3005865e-06 5.778985e-14 1.8060988e-06 6.3701144e-08 8.5694694e-08 8.2614264e-07 2.3154145e-07 6.4981833e-07
2.3394354e-07 2.3193477e-06 1.2341962e-06 5.68137e-06 1.906142e-05 2.0953769e-06 6.7167093e-07 9.88461e-06
3.9064057e-07 8.872943e-14 7.997436e-07 3.5915904e-10 9.7638e-07 9.120764e-07 1.198319e-06 6.645302e-08
6.253349e-07 2.3508694e-06 3.0398946e-06 1.903045e-07 7.97458e-06 1.1028352e-06 1.2434008e-06 1.0085521e-06
3.685799e-07 2.158526e-09 1.6769329e-06 3.3111687e-06 1.5089406e-06 3.6037665e-07 5.628515e-07 8.953721e-08
1.6950542e-06 2.7589764e-09 6.1858594e-07 6.2211706e-07 3.857464e-07 3.3834833e-06 3.7272594e-07 2.1825879e-06
1.2484868e-07 8.007274e-10 4.0987402e-07 2.2549154e-09 8.713355e-06 2.4417923e-07 1.434103e-07 5.240631e-07
3.3093253e-10 6.569681e-07 2.513032e-07 3.726806e-08 2.7396808e-07 3.4120021e-06 6.319448e-07 1.3942844e-06
1.6939873e-06 2.3342075e-06 6.045968e-07 1.1278571e-07 6.0051285e-08 4.1288527e-07 4.507937e-07 1.956533e-06
8.188538e-09 1.0178983e-07 3.3144206e-06 1.1759981e-07 7.4161466e-07 1.7989842e-07 8.120271e-16 3.7918946e-07
3.6949004e-07 1.0321493e-07 2.5209656e-07 1.4390143e-06 3.6849951e-06 7.962148e-07 1.826944e-05 7.674205e-13
4.383828e-06 8.641563e-17 5.896114e-12 4.4125946e-07 3.2000803e-06 3.0281043e-07 2.4841728e-07 3.7619805e-07
00000000: f933 ec34 0044 a633 5d25 a335 41ff 1835
00000010: 347a fd33 e297 ac36 f73c e433 31f4 8533
00000020: 8cd5 3635 5a2c c635 6642 c336 82b0 432f
00000030: d12b 0a35 a19a a435 22eb 5335 1c9d f934
00000040: 4908 a934 711b df33 89ab af36 9a3f eb2a
00000050: e081 3337 c82e 7835 772f 0236 f1a7 8934
00000060: e9dc d036 20d7 1b35 a1d4 1d36 aaae 8533
00000070: 7a4d 2736 a954 2c37 40df 8636 cd54 0437
00000080: d08f ae35 9521 8229 1569 f235 13cc 8833
00000090: 2807 b833 17c4 5d35 a19d 7834 2d6f 2e35
000000a0: e931 7b34 17a6 1b36 a9a6 a535 99a2 be36
000000b0: 16e6 9f37 4d9e 0c36 e04c 3435 14d6 2537
000000c0: 3bb9 d134 09cd c729 f6ad 5635 2473 c52f
000000d0: 290c 8335 6ad5 7435 edd5 a035 efb4 8e33
000000e0: b0dc 2735 a1c3 1d36 fe00 4c36 8156 4c34
000000f0: 8fca 0537 2105 9435 ede2 a635 965d 8735
00000100: 3ce1 c534 3155 1431 fa12 e135 7235 5e36
00000110: ce86 ca35 ca79 c134 dc16 1735 9a47 c033
00000120: 9e81 e335 6d98 3d31 e70c 2635 8fff 2635
00000130: 9518 cf34 cd0f 6336 101b c834 9378 1236
00000140: 250e 0634 2e1a 5c30 a80c dc34 e4f4 1a31
00000150: 932f 1237 bd17 8334 53fc 1934 58ad 0c35
00000160: 9dee b52f 815a 3035 d9ea 8634 aa10 2033
00000170: e315 9334 c0f9 6436 eaa2 2935 3f23 bb35
00000180: f65c e335 61a5 1c36 934b 2235 9a34 f233
00000190: 8bf5 8033 85aa dd34 9d04 f234 fb4c 0336
000001a0: 92ad 0c32 8d97 da33 506d 5e36 2e8b fc33
000001b0: 5f13 4735 1a2a 4134 060d 6a26 6793 cb34
000001c0: 535e c634 02a7 dd33 e357 8734 2824 c135
000001d0: bc4b 7736 77bb 5535 5341 9937 7a02 582b
000001e0: cc18 9336 c942 c724 7973 cf2c 3de6 ec34
000001f0: f6c0 5636 f391 a234 365e 8534 44f8 c934
