results/TestParameters3/MoveToGoal/MoveToGoal-33602.pt (torch, 439245 bytes, 36 tensors)

network_body._body_endoder.seq_layers.0.weight f4 [128, 6]
0.5876072 -0.30545503 -0.5233646 -0.558643 0.07349388 0.1448505 0.70047605 -0.3504068
0.22759508 0.001092922 -0.3187682 -0.7081489 -0.6093869 -0.1728465 -0.2716354 0.040219657
0.7493727 -0.20886521 -0.24602191 0.48026347 0.0619582 -0.14802656 0.6880877 0.1671927
-0.03485266 0.58558124 -0.93842393 -0.38831618 -0.33078387 0.1453151 -0.50153756 -0.2988637
0.056929912 0.55425733 -0.66212475 0.2939413 0.037237618 0.2595091 0.20298438 0.23280211
0.12846784 0.13329431 0.31308106 -0.057848614 0.15880866 -0.31063268 0.3912585 0.36589438
0.07930082 -0.5811852 -0.10383484 -0.17246251 0.48787895 0.12874661 -0.611323 0.523096
-0.011134908 -0.6599168 0.69780797 0.5039614 -0.6681467 0.3124912 0.29151067 -0.03650584
0.25815204 0.1935565 0.36232007 0.1601783 0.12969561 0.066799365 0.64549774 -0.63970834
-0.59497434 -0.400574 -0.26497394 -0.39072385 0.4806422 -0.008193306 -0.2421626 -0.5726746
-0.059478916 0.4077625 0.29949757 0.22272968 0.87335855 -0.094555505 -0.3631358 -0.046639066
0.18930426 0.3440859 -0.55866235 0.14804399 -0.23063728 -0.15244867 0.039522156 0.58497787
0.23833476 0.33449858 -0.46251094 -0.098854356 -0.6198519 -0.5021951 0.053835075 -0.07453851
-0.29846823 0.92006356 -0.22710137 -0.822838 -0.3565432 -0.2800271 -0.10548468 -0.24608552
0.55184686 -0.9391286 -0.29865915 0.04827078 -0.22858071 0.14583652 -0.36809582 -0.28905824
0.17970021 0.08848623 -0.07242134 -0.22681817 -0.6189849 0.8191894 -0.040789746 -0.114251986
-0.24635983 -0.38153577 -0.1420139 0.6635653 -0.5388817 0.5169265 -0.059767485 -0.48670897
0.528879 -0.011530263 -0.017414719 -0.4338428 0.42896843 0.3010034 -0.3635365 0.49170128
-0.062010422 0.41156197 0.13832682 0.30507445 -0.25952294 0.33256835 -0.048313692 0.37099335
0.014978852 0.05328505 0.23742598 -0.45110807 -0.469072 0.07527583 0.23576836 -0.30677575
0.23606686 -0.22206095 0.7411622 0.19856514 0.114820085 -0.07701195 -0.5986639 0.03601333
0.038073078 -0.022307588 -0.5398477 0.24806608 0.4070991 0.05798786 0.6011708 0.66772544
0.11074539 -0.16456315 -0.38858414 -0.8081032 -0.07542729 0.4843421 0.48635942 -0.058187477
-0.28360632 0.33274004 0.08694209 -0.34055498 0.77301216 -0.42578298 -0.32034382 0.14011739
0.77580523 0.19741611 -0.16838562 0.1514701 -0.32726094 0.113128334 0.13018224 -0.16300789
0.027888069 -0.2082292 -0.34684289 -0.54141027 0.040169377 -0.55330837 -0.15106657 -0.53259534
0.6069054 -1.0596879 0.68602985 0.5108087 -0.008034668 -0.3784445 -0.15125166 0.41296118
-0.43769675 -0.35277864 0.45878917 0.44046995 -0.013607806 -0.44166797 -0.23805933 -0.37186518
-0.1142579 0.3622436 0.27709356 -0.2559697 0.1922288 0.34543037 -0.08993944 -0.61872876
0.08357264 -0.65199685 0.22809224 -0.087105185 0.4940464 -0.68338966 1.0836977 0.020385468
-0.5818213 0.6798187 0.49525198 0.10722887 0.26618993 -0.5701746 0.04977043 -0.15479851
0.4553648 -0.07108892 0.22808635 -0.06773409 -0.75610155 -0.18058065 0.26471254 -0.5570177
00000000: 6d6d 163f 9a64 9cbe 39fb 05bf 3a03 0fbf
00000010: f683 963d b153 143e 6652 333f 8568 b3be
00000020: af0e 693e 6040 8f3a 9635 a3be 3f49 35bf
00000030: c800 1cbf acfe 30be cc13 8bbe 5ebd 243d
00000040: e4d6 3f3f c3e0 55be 2bed 7bbe 18e5 f53e
00000050: e2c7 7d3d 4694 17be 8426 303f 9034 2b3e
00000060: aac1 0ebd a7e8 153f 8d3c 70bf 61d1 c6be
00000070: 815c a9be 7bcd 143e c464 00bf aa04 99be
00000080: 572f 693d cfe3 0d3f 0281 29bf 797f 963e
00000090: 7986 183d 60de 843e 23db 4f3e ad63 6e3e
000000a0: 138d 033e 4e7e 083e 294c a03e abf2 6cbd
000000b0: bd9e 223e 3f0b 9fbe 0953 c83e 8256 bb3e
000000c0: 7868 a23d 8ec8 14bf 5ca7 d4bd 039a 30be
000000d0: 45cb f93e 27d6 033e aa7f 1cbf 9fe9 053f
000000e0: 306f 36bc 4ff0 28bf 8ba3 323f 9d03 013f
000000f0: aa0b 2bbf d9fe 9f3e e340 953e 2687 15bd
00000100: 812c 843e ad33 463e 0482 b93e c805 243e
00000110: edce 043e 1bce 883d 573f 253f edc3 23bf
00000120: 3d50 18bf 0918 cdbe aaaa 87be f50c c8be
00000130: bc16 f63e 373d 06bc 79f9 77be cd9a 12bf
00000140: 2aa0 73bd 3fc6 d03e bf57 993e 4013 643e
00000150: 6d94 5f3f 51a6 c1bd f0ec b9be 9b08 3fbd
00000160: fad8 413e 072c b03e 7f04 0fbf d898 173e
00000170: 2e2c 6cbe 811b 1cbe fce1 213d 1cc1 153f
00000180: 070e 743e 6643 ab3e 3cce ecbe 2774 cabd
00000190: 9dae 1ebf dc8f 00bf 2b82 5c3d a5a7 98bd
000001a0: d4d0 98be 4989 6b3f 438d 68be 83a5 52bf
000001b0: d58c b6be b65f 8fbe 5a08 d8bd d8fd 7bbe
000001c0: d645 0d3f bb6a 70bf dae9 98be 95b7 453d
000001d0: 1011 6abe 2b56 153e 0e77 bcbe 71ff 93be
000001e0: 5503 383e 4538 b53d a451 94bd 0643 68be
000001f0: cb75 1ebf 66b6 513f 2613 27bd f2fc e9bd
00000200: c045 7cbe a858 c3be 186c 11be 6adf 293f
00000210: 27f4 09bf 4c55 043f c0ce 74bd eb31 f9be
00000220: 9d64 073f 6ee9 3cbc 50a9 8ebc a520 debe
00000230: c0a1 db3e 1e1d 9a3e 7521 babe 45c0 fb3e
00000240: a4fe 7dbd 40b8 d23e 8ca5 0d3e b832 9c3e
00000250: 31e0 84be 6646 aa3e 94e4 45bd d7f2 bd3e
00000260: dc69 753c 6d41 5a3d cc1f 733e a3f7 e6be
00000270: 352a f0be 372a 9a3d 436d 713e b611 9dbe
00000280: 83bb 713e f263 63be cebc 3d3f a954 4b3e
00000290: cb26 eb3d 71b8 9dbd 0a42 19bf b782 133d
000002a0: 84f2 1b3d 67be b6bc 7533 0abf 0905 7e3e
000002b0: 4b6f d03e ae84 6d3d 54e6 193f 0ef0 2a3f
000002c0: 7bce e23d 3e83 28be 80f4 c6be dadf 4ebf
000002d0: 9f79 9abd b0fb f73e 1a04 f93e fe55 6ebd
000002e0: d934 91be e75c aa3e b20e b23d 395d aebe
000002f0: 20e4 453f 3a00 dabe 1b04 a4be ef7a 0f3e
00000300: 2c9b 463f 7327 4a3e 486d 2cbe fa1a 1b3e
00000310: bf8e a7be d4af e73d 7e4e 053e 8aeb 26be
00000320: 8575 e43c 093a 55be 6495 b1be dd99 0abf
00000330: a588 243d 9ea5 0dbf 32b1 1abe 2b58 08bf
00000340: 275e 1b3f daa3 87bf a79f 2f3f 5cc4 023f
00000350: d7a3 03bc 7ac3 c1be b7e1 1abe a66f d33e
00000360: ca19 e0be 679f b4be 6ae6 ea3e 4785 e13e
00000370: 46f3 5ebc 4e22 e2be d3c5 73be 1d65 bebe
00000380: 0c00 eabd fe77 b93e 35df 8d3e 760e 83be
00000390: a0d7 443e 40dc b03e 2b32 b8bd 0265 1ebf
000003a0: 2228 ab3d 44e9 26bf 0391 693e 3464 b2bd
000003b0: a6f3 fc3e a0f2 2ebf 9bb6 8a3f 6dff a63c
000003c0: 3ef2 14bf 9908 2e3f ab91 fd3e cf9a db3d
000003d0: 0c4a 883e f6f6 11bf 14dc 4b3d 8083 1ebe
000003e0: 9325 e93e 1197 91bd 788f 693e 2cb8 8abd
000003f0: df8f 41bf 22ea 38be 6788 873e b698 0ebf

network_body._body_endoder.seq_layers.0.bias f4 [128]
-0.01597672 0.031582337 0.034785014 -0.013259193 0.008487569 -0.040534392 -0.0032009808 -0.0090071475
-0.019170437 -0.017895984 -0.031567797 -0.0015988628 -0.008918942 -0.052279856 -0.017424587 -0.002455372
-0.013489733 -0.010325806 -0.0057377755 0.0037551192 -0.018158425 -0.02255899 -0.05927022 -0.05463882
-0.030941058 -0.008513363 -0.003754935 -0.05775491 -0.014478669 0.0042920243 -0.05989057 -0.062366504
-0.016976682 -0.0835271 8.574116e-05 -0.024316458 0.008327017 0.023851104 0.0012645804 -0.014748891
-0.008137137 -0.011443833 -0.008328525 -0.024697412 -0.04529666 -0.04761004 -0.034591492 -0.023643028
-0.02370338 0.003497392 -0.028311895 -0.050419807 0.018589469 -0.014309317 0.007811086 -0.024383811
-0.052358173 -0.045167137 -0.04157161 -0.0013909837 -0.0062569054 0.0023531073 -0.016502641 -0.013069701
0.0263436 -0.0049527623 -0.015767628 -0.0061620795 -0.046096638 -0.0050552078 0.008890593 -0.03451368
-0.032171812 -0.04815563 0.011378165 -0.04718727 0.013502451 -0.038599726 -0.05398978 -0.034710634
0.036389302 -0.03693528 -0.019058997 -0.0048532225 -0.029984964 -0.036829673 0.008734759 -0.016473556
-0.007923174 0.0038076204 -0.04522635 -0.018564831 -0.030370897 0.026320996 -0.053266745 -0.056041747
-0.017222283 -0.03993106 -0.033150867 0.007792881 -0.015393693 -0.0116091 -0.029263677 -0.023626989
0.0004907688 0.009785739 -0.00032457535 0.0046797544 -0.008953821 0.0049557616 -0.023999855 -0.03909563
-0.01054497 -0.028918095 0.05278986 0.015653344 -0.03035605 -0.015128102 -0.016591463 -0.028875878
-0.018802978 -0.0051964303 -0.020341951 -0.03440795 -0.015546194 0.0044149687 -0.01272061 -0.042111814
00000000: 9ce1 82bc 7b5c 013d bb7a 0e3d 163d 59bc
00000010: 720f 0b3c 6407 26bd 8cc7 51bb b792 13bc
00000020: 520b 9dbc 999a 92bc 3c4d 01bd ef90 d1ba
00000030: c120 12bc 6723 56bd 02be 8ebc 4eea 20bb
00000040: 0b04 5dbc 922d 29bc f303 bcbb 7218 763b
00000050: fac0 94bc a2cd b8bc 55c5 72bd f5cc 5fbd
00000060: 1a78 fdbc a27b 0bbc 5b15 76bb 6a90 6cbd
00000070: f037 6dbc 1ca4 8c3b d04f 75bd 0574 7fbd
00000080: af12 8bbc 4210 abbd efcf b338 4f33 c7bc
00000090: 0a6e 083c 6463 c33c 47c0 a53a 55a5 71bc
000000a0: a051 05bc ea7e 3bbc 5e74 08bc 3a52 cabc
000000b0: fe88 39bd bf02 43bd cfaf 0dbd 06af c1bc
000000c0: 972d c2bc 8034 653b 59ee e7bc 0085 4ebd
000000d0: f148 983c a071 6abc 23f4 ff3b 8fc0 c7bc
000000e0: 8675 56bd 2d01 39bd fe46 2abd ab51 b6ba
000000f0: ba06 cdbb 9736 1a3b 8c30 87bc 4d22 56bc
00000100: 89ce d73c c84a a2bb 1d2b 81bc 45eb c9bb
00000110: d4cf 3cbd 28a6 a5bb daa9 113c 375e 0dbd
00000120: 97c6 03bd d63e 45bd 7c6b 3a3c 7047 41bd
00000130: 6239 5d3c bf1a 1ebd 6324 5dbd bd2c 0ebd
00000140: f30c 153d 7349 17bd 9d21 9cbc c807 9fbb
00000150: 07a3 f5bc b6da 16bd 3c1c 0f3c 8df3 86bc
00000160: 33d0 01bc 4589 793b 443f 39bd 4615 98bc
00000170: 63cc f8bc 219f d73c 3b2e 5abd 088c 65bd
00000180: bf15 8dbc c08e 23bd 34c9 07bd 6d5b ff3b
00000190: d435 7cbc 1834 3ebc 61ba efbc 638d c1bc
000001a0: f0a6 003a 5d54 203c c42b aab9 a058 993b
000001b0: 0cb3 12bc f163 a23b 589b c4bc bd22 20bd
000001c0: cfc4 2cbc a4e5 ecbc 2e3a 583d 713b 803c
000001d0: 40ad f8bc dcdb 77bc d2ea 87bc 1b8d ecbc
000001e0: b408 9abc d146 aabb 2aa4 a6bc 5aef 0cbd
000001f0: 77b5 7ebc 71ab 903b 1b6a 50bc 707d 2cbd

network_body._body_endoder.seq_layers.2.weight f4 [128, 128]
-0.00016514906 0.0834801 0.108562335 -0.049009707 0.07755605 0.0349074 -0.19626617 -0.1304088
-0.004553343 0.09040326 -0.031871468 0.11234585 -0.050551604 -0.009245857 -0.02452456 -0.17649725
0.11207067 0.0098467795 0.045825284 -0.07967388 -0.07012461 -0.12047874 -0.12027647 -0.14283101
-0.1420288 0.09714398 -0.060566776 0.028046355 0.020259151 -0.08600817 0.043387067 -0.030950755
-0.071609356 -0.016446302 -0.080852196 0.040002264 0.11125687 -0.060466714 -0.026218122 -0.1273653
0.10051594 -0.01598776 -0.14777966 -0.0015412942 -0.08320902 0.042860214 0.17423813 0.20126398
0.086294726 0.0628182 0.05349415 0.095830746 -0.030854499 0.024772886 0.050048508 -0.05466028
-0.036219295 -0.029522255 -0.058572087 -0.082370356 0.29453745 -0.08821999 -0.03314501 -0.2463303
-0.08058782 -0.09059355 0.034307096 -0.07540715 -0.030896192 0.01776927 0.11584452 0.033330474
-0.08675161 0.009176243 0.07753087 0.02619347 0.106680736 -0.04844232 -0.11159538 0.11454104
0.12504296 0.033768628 -0.0376352 -0.09614049 -0.07306145 -0.16568962 0.035161477 -0.13353725
-0.104444735 0.082331575 0.12250575 -0.11147693 -0.099772364 0.08759584 0.009946193 0.106027335
-0.033381533 -0.050091285 -0.11142239 0.007898671 -0.14531232 -0.033197112 -0.13228524 -0.0012293987
-0.028204154 -0.02664309 0.056221094 -0.14549318 0.03126273 0.07816728 0.08241022 0.05839109
0.1719344 -0.05537759 0.04797405 -0.056845926 -0.100310646 -0.039590787 -0.0068555293 0.015477222
-0.040342383 -0.072710104 -0.08063862 -0.0072587435 -0.108760275 0.11426125 -0.1972698 -0.035379652
0.13929616 -0.07683624 0.012201498 0.012546875 -0.075712495 -0.03249394 -0.016549574 -0.1767734
0.19218424 -0.112806074 0.12955528 0.018689094 -0.14786932 -0.09466789 -0.077245705 -0.02705506
-0.0024661084 0.099662095 0.03533069 -0.09362385 -0.04328417 0.13819715 0.021371854 -0.0041445675
0.007082305 0.032932427 -0.09265799 -0.17836553 -0.008059332 0.013715296 0.080779366 0.057053525
-0.027120112 0.06074489 -0.05841027 0.073414914 -0.030087145 -0.17920004 0.0025214967 0.0036378799
0.10872943 0.03366463 0.061059296 0.09086608 0.097866476 0.07611472 0.057731114 -0.012780514
0.174507 0.06368212 0.15174755 -0.08083065 0.055311214 -0.007043368 0.11003926 -0.10142121
0.1107304 0.02574833 -0.048322152 0.08724087 0.07829547 -0.16351669 0.11368497 -0.0903166
0.043063235 -0.01276219 -0.04968471 -0.043694485 0.030015547 0.08482692 0.14635734 0.065610744
0.07545973 -0.0055623217 -0.10034319 0.14916988 -0.06903525 0.037542824 -0.021424988 0.105716236
-0.06935932 0.0039536785 0.05346364 0.062626086 0.03336382 -0.042471614 -0.048526447 0.045042705
0.065598756 -0.13634036 0.19446257 -0.028338177 0.064783946 0.0037773082 -0.05962572 0.17667839
-0.14582829 0.06412346 0.03036098 -0.118631005 0.11849589 0.09292874 0.0587915 0.28550854
-0.02774073 -0.106729314 -0.07423381 0.024473136 -0.009284533 -0.22104222 0.07378744 0.110387065
0.07541532 -0.09716503 -0.03809465 0.021911561 0.14308552 -0.10765252 -0.07347193 0.08057852
-0.08398664 0.04798361 -0.06626368 -0.09187567 0.12408101 -0.011016761 -0.14472401 0.02179557
00000000: dd2b 2db9 9df7 aa3d ee55 de3d 67be 48bd
00000010: b5d5 9e3d 10fb 0e3d 00fa 48be e289 05be
00000020: 3634 95bb 5825 b93d a88b 02bd 9515 e63d
00000030: 330f 4fbd ef7b 17bc bbe7 c8bc b2bb 34be
00000040: 4f85 e53d 6354 213c 4bb3 3b3d 0f2c a3bd
00000050: 7e9d 8fbd 8fbd f6bd 8353 f6bd 4b42 12be
00000060: ff6f 11be 6cf3 c63d de14 78bd 78c1 e53c
00000070: 85f6 a53c 0d25 b0bd a3b6 313d 708c fdbc
00000080: eda7 92bd 65ba 86bc d695 a5bd 6ad9 233d
00000090: a4da e33d f2ab 77bd 63c7 d6bc 0d6c 02be
000000a0: 4ddb cd3d c3f8 82bc 8d53 17be 4005 caba
000000b0: 7e69 aabd 318e 2f3d 7b6b 323e 2518 4e3e
000000c0: 4abb b03d d4a6 803d af1c 5b3d e942 c43d
000000d0: 93c2 fcbc 82f0 ca3c aaff 4c3d 75e3 5fbd
000000e0: af5a 14bd a8d8 f1bc 49e9 6fbd cab1 a8bd
000000f0: 9dcd 963e afac b4bd 10c3 07bd 033e 7cbe
00000100: 3a0b a5bd 1c89 b9bd 9985 0c3d 106f 9abd
00000110: 031a fdbc dc90 913c e43f ed3d 8985 083d
00000120: d4aa b1bd f457 163c 81c8 9e3d b093 d63c
00000130: 6e7b da3d 746b 46bd 1e8c e4bd 7e94 ea3d
00000140: 430b 003e f950 0a3d 5e27 1abd 4ee5 c4bd
00000150: 3ea1 95bd 8aaa 29be 7b05 103d fdbd 08be
00000160: 1fe7 d5bd 759d a83d 4be4 fa3d 044e e4bd
00000170: 7455 ccbd 7365 b33d 5bf5 223c dc24 d93d
00000180: 13bb 08bd 852c 4dbd 6c31 e4bd 6d69 013c
00000190: c1cc 14be b2f9 07bd c875 07be c623 a1ba
000001a0: 660c e7bc 9c42 dabc 1748 663d 2afc 14be
000001b0: 590d 003d 2b16 a03d b0c6 a83d 7f2b 6f3d
000001c0: 920f 303e 9dd3 62bd 7080 443d 46d7 68bd
000001d0: ab6f cdbd f329 22bd 59a4 e0bb 2d94 7d3c
000001e0: 0e3e 25bd 09e9 94bd dc25 a5bd c1da edbb
000001f0: b5bd debd cd01 ea3d 1801 4abe 41ea 10bd
00000200: a7a3 0e3e 525c 9dbd cbe8 473c 6891 4d3c
00000210: 270f 9bbd 5e18 05bd f992 87bc 1604 35be
00000220: f2cb 443e df06 e7bd 24aa 043e df19 993c
00000230: 0e6b 17be 3de1 c1bd ff32 9ebd 93a2 ddbc
00000240: 6f9e 21bb a41b cc3d eab6 103d dcbd bfbd
00000250: be4a 31bd 8e83 0d3e 0714 af3c 27cf 87bb
00000260: ae12 e83b 27e4 063d 79c3 bdbd 74a5 36be
00000270: 4a0b 04bc 1fb6 603c a76f a53d f5b0 693d
00000280: ff2a debc a2cf 783d 9b3f 6fbd 8f5a 963d
00000290: 5179 f6bc 3780 37be b23f 253b 7f69 6e3b
000002a0: 89ad de3d ece3 093d 5019 7a3d ff17 ba3d
000002b0: 386e c83d 09e2 9b3d 7677 6c3d 5c65 51bc
000002c0: f7b1 323e c56b 823d b663 1b3e 8a8a a5bd
000002d0: 038e 623d 0ecc e6bb 435c e13d ecb5 cfbd
000002e0: 9fc6 e23d 29ee d23c 73ed 45bd 57ab b23d
000002f0: 6059 a03d eb70 27be aad3 e83d e9f7 b8bd
00000300: 1363 303d 8118 51bc 3282 4bbd fdf8 32bd
00000310: 2ae3 f53c bcb9 ad3d b3de 153e ed5e 863d
00000320: a28a 9a3d 2344 b6bb bb80 cdbd fdbf 183e
00000330: 5a62 8dbd 81c6 193d 7583 afbc c181 d83d
00000340: 420c 8ebd dc8d 813b b1fc 5a3d 1b42 803d
00000350: 80a8 083d b7f6 2dbd abc3 46bd b37e 383d
00000360: a458 863d cf9c 0bbe 3221 473e 7725 e8bc
00000370: 72ad 843d b78c 773b 193a 74bd 2eeb 343e
00000380: 0354 15be 2953 833d 97b7 f83c d0f4 f2bd
00000390: f9ad f23d 6c51 be3d 5bcf 703d 2d2e 923e
000003a0: 8740 e3bc e694 dabd e507 98bd e37b c83c
000003b0: 271e 18bc e458 62be df1d 973d 9d12 e23d
000003c0: 5973 9a3d 76fe c6bd 2309 1cbd e07f b33c
000003d0: 0385 123e ed78 dcbd 7478 96bd 5a06 a53d
000003e0: 3001 acbd 768a 443d 41b5 87bd 5029 bcbd
000003f0: 2f1e fe3d a57f 34bc 8832 14be a08c b23c

network_body._body_endoder.seq_layers.2.bias f4 [128]
0.02151377 -0.017680833 -0.007724973 0.0070219655 -0.040141743 -0.014444936 -0.031214463 -0.020791763
-0.006632402 -0.013401523 -0.026442926 -0.032078624 -0.034564734 -0.018971937 -0.023654819 -0.008882297
-0.00229235 -0.0076642074 -0.009189715 0.008078281 -0.0036890141 -0.04109437 -0.022199003 -0.024241984
-0.009567102 0.003714818 -0.016696867 -0.030420445 -0.0051604286 0.032616574 -0.012132444 -0.015087486
-0.033033952 -0.01251637 -0.027970362 -0.020257613 -0.012914211 -0.003752695 -0.022098148 -0.017309936
-0.015996687 -0.005565351 -0.025126768 -0.018913263 -0.016138487 0.010792687 -0.0146053685 -0.02345291
-0.020479046 -0.021895463 -0.010300932 -0.004751978 -0.039015483 0.002228409 0.0070469417 -0.025822975
-0.013103249 -0.013605956 -0.014484575 -0.01973695 -0.016164333 -0.025106683 -0.026589967 -0.021619657
-0.00817052 -0.022007149 -0.009120883 -0.0159541 -0.023671543 -0.0059485114 -0.003106211 -0.016054485
-0.016308349 -0.017664064 -0.014788289 -0.016353494 0.0055535985 -0.020846248 -0.021326784 -0.0069307196
-0.026139677 -0.008003755 -0.005877463 0.0071278308 -0.0126955835 -0.019056125 -0.01591554 -0.013493967
-0.015339449 -0.024245802 -0.027220692 -0.023307513 0.004621068 0.015500749 -0.0020593714 -0.013825257
-0.01807741 -0.008708606 -0.017753892 -0.00010909277 0.015030261 -0.018203782 -0.016716285 -0.022249095
-0.014640693 -0.0029697693 -0.023366416 -0.012919847 -0.005472269 -0.0043820757 -0.0041994266 -0.01961204
0.010556243 -0.01712911 -0.0030077873 -0.014583913 -0.016288195 -0.02061364 -0.014418691 -0.024413928
-0.008081668 -0.01319362 0.004553079 -0.026591914 0.011455413 -0.025783248 -0.027072119 -0.020578168
00000000: a53d b03c 65d7 90bc c521 fdbb 8418 e63b
00000010: ab6b 24bd 74aa 6cbc 79b5 ffbc 7d53 aabc
00000020: 9f54 d9bb 1092 5bbc d69e d8bc e064 03bd
00000030: c093 0dbd 096b 9bbc c0c7 c1bc 0e87 11bc
00000040: 403b 16bb 0824 fbbb 7590 16bc c45a 043c
00000050: 63c3 71bb 9252 28bd afda b5bc 2097 c6bc
00000060: 56bf 1cbc 4e74 733b dec7 88bc 4c34 f9bc
00000070: d018 a9bb f598 053d 29c7 46bc 8131 77bc
00000080: 9c4e 07bd 7611 4dbc 1a22 e5bc 4bf3 a5bc
00000090: 2096 53bc c6ef 75bb 2d07 b5bc 91cd 8dbc
000000a0: 7c0b 83bc 8c5d b6bb a7d6 cdbc fdef 9abc
000000b0: dc34 84bc cfd3 303c 5b4b 6fbc 5120 c0bc
000000c0: acc3 a7bc 1d5e b3bc 3ec5 28bc 7bb6 9bbb
000000d0: b3ce 1fbd 800a 123b 08ea e63b b48a d3bc
000000e0: 02af 56bc 84eb 5ebc b650 6dbc 62af a1bc
000000f0: 106b 84bc 88ac cdbc 34d3 d9bc b51b b1bc
00000100: a5dd 05bc 5648 b4bc c26f 15bc 2cb2 82bc
00000110: d3ea c1bc bbeb c2bb 9391 4bbb b284 83bc
00000120: 1699 85bc 3ab4 90bc 944a 72bc c3f7 85bc
00000130: f6fa b53b c0c5 aabc 82b5 aebc 171b e3bb
00000140: e022 d6bc 2e22 03bc bc97 c0bb 9490 e93b
00000150: 2301 50bc 971b 9cbc 4e61 82bc cd15 5dbc
00000160: 5052 7bbc 229f c6bc eefd debc 66ef bebc
00000170: 546c 973b dbf6 7d3c 85f6 06bb 5583 62bc
00000180: 1417 94bc 8aae 0ebc 9c70 91bc bcc8 e4b8
00000190: 7c41 763c 1920 95bc 97f0 88bc bc43 b6bc
000001a0: 84df 6fbc 76a0 42bb ed6a bfbc c4ad 53bc
000001b0: b850 b3bb 8497 8fbb 589b 89bb 6ea9 a0bc
000001c0: 18f4 2c3c 5952 8cbc 4c1e 45bb 5df1 6ebc
000001d0: d26e 85bc f0dd a8bc 603c 6cbc b8ff c7bc
000001e0: f968 04bc 0e2a 58bc ff31 953b 49d7 d9bc
000001f0: 7caf 3b3c 6437 d3bc 59c6 ddbc 8c93 a8bc

action_model._continuous_distribution.log_sigma f4 [1, 2]
0.10751713 0.105176605
00000000: f131 dc3d d566 d73d

action_model._continuous_distribution.mu.weight f4 [2, 128]
-0.025605964 -0.0029605175 -0.036968365 -0.0074198525 0.004291791 -0.006259768 -0.0045985575 0.023417018
-0.0070758634 -0.0032838848 0.007702648 0.0049820477 0.00047445038 0.0012229034 -0.0068353494 -0.01745936
0.01890652 -0.006778923 -0.013822729 -0.02164317 -0.012523996 -0.010449271 0.0031851723 -0.0013738463
-0.007215335 -0.03143331 -0.02058416 -0.01007212 -0.0060352744 -0.0022836563 -0.008396793 -0.0049179117
-0.008154277 0.02247661 0.004028465 -0.017149413 0.021953074 -0.015034247 0.013542073 -0.015967842
0.006430276 -0.03402794 -0.0045616296 0.0068777865 -0.0055715656 -0.025185136 0.010168016 0.0060046096
-0.0019149686 -0.0025179428 -0.0016444668 -0.010311142 9.27726e-05 -0.022701174 0.012800298 -0.0013109952
-0.00873399 0.0055539864 0.00037037506 -0.0020426912 0.009296736 -0.0067536174 -0.0096089775 -0.0018510387
-0.006658778 0.0081351735 -0.0199711 0.008944818 0.0035211653 -0.003076014 0.0033315655 -0.001998688
-0.022371046 0.0024979361 0.007578185 0.017689578 -0.030541753 -0.006541524 -0.0006442268 -0.02967807
-0.005844596 -0.02917339 0.0038921875 -0.02411138 0.010949221 -0.0051273517 0.00931877 -0.0230917
-0.021522187 0.0053698556 -0.005883147 0.0040739067 -0.010459948 -0.019331628 0.0059747975 -0.00054364157
0.001937085 -0.00052778044 -0.00022953923 -0.022294318 -0.032841742 -0.011825789 -0.010985792 -0.009657875
-0.001200061 0.0034969472 0.00012740052 0.028324617 -0.006381682 0.0037927853 -0.028999133 -0.010450414
-0.016013369 -0.028100472 -0.03224136 0.02938208 0.0044820216 -0.017206736 0.0077454085 0.0040335585
-0.0034822512 -0.0144337285 0.0088121705 0.008583852 0.02328452 0.0046991054 -0.009095132 -0.004405175
-0.044033945 -0.054094587 -0.020556362 -0.028401706 -0.0024884085 -0.0014345319 0.0019088306 -0.0061657955
-0.020823354 -0.009379636 -0.005573842 -0.0027218242 -0.00087432703 -0.0008972754 -0.0045863544 -0.0012023535
-0.018740823 0.010810777 -0.021382485 0.016462011 0.010853927 -0.005863316 -0.007891526 0.00850948
0.012519817 -0.031189684 -0.0039405324 0.0034617158 0.003729646 0.034894176 -0.020715706 0.001471442
-0.026038788 0.0020428142 0.0061707697 -0.006597164 -0.022830442 0.0009503387 -0.0063585253 -0.006691564
0.005500088 -0.012642702 0.00015318018 0.00058454904 -0.011455789 0.041581873 0.008912894 -0.006057515
-0.011209886 -0.007652482 -0.020963829 0.02233222 -0.0041935844 0.006351241 0.014599133 -0.009076243
0.002797658 0.004538392 0.004906914 -0.00012040227 -0.0050864187 -0.041036446 -0.0044530733 -0.0039952085
0.0056000557 -0.00079874636 -0.0014857214 -0.00094097556 0.0005296599 -0.034210954 -0.026066644 -0.01437177
-0.0060980003 -0.011004651 -0.007619033 0.0070660813 0.005263987 -0.0017267761 -0.007584359 -0.042776328
-0.01259616 0.005490906 -0.035749774 0.040846404 0.011664916 -0.012187529 -0.041442517 0.0008773012
-0.018597284 0.011355961 -0.008399541 0.010210632 -0.037458487 0.011227384 -0.032477137 -0.0039283643
-0.008057738 0.008753932 -0.009801897 -0.030686703 0.025732795 -0.0017901091 0.0047289813 -0.02592631
0.011780649 0.02335912 0.0018118029 -0.014675298 -0.022285996 -0.0012400985 -0.010987843 -0.0039153458
0.03556588 -0.025826052 -0.012807495 -0.030299362 -0.00011819449 -0.008727339 -0.017144911 -0.0020909933
-0.023630176 0.025578883 0.024807883 -0.01956057 0.017819967 -0.0021549615 -0.003953708 -0.021489104
00000000: 99c3 d1bc 3e05 42bb 246c 17bd 3c22 f3bb
00000010: 27a2 8c3b bd1e cdbb 7faf 96bb 0cd5 bf3c
00000020: a5dc e7bb 7236 57bb 7f66 fc3b 7240 a33b
00000030: a7bf f839 d449 a03a 11fb dfbb ef06 8fbc
00000040: d9e1 9a3c ba21 debb ba78 62bc 044d b1bc
00000050: 7231 4dbc 6b33 2bbc 53be 503b a212 b4ba
00000060: 9e6e ecbb 37c0 00bd 1da0 a8bc 8905 25bc
00000070: 8dc3 c5bb 65a9 15bb b492 09bc 6f26 a1bb
00000080: 8499 05bc de20 b83c 3701 843b ed7c 8cbc
00000090: efd6 b33c 3452 76bc 92df 5d3c fece 82bc
000000a0: 11b5 d23b e260 0bbd b979 95bb 0e5f e13b
000000b0: ae91 b6bb 0f51 cebc c097 263c 51c2 c43b
000000c0: afff faba 1204 25bb 268b d7ba 10f0 28bc
000000d0: e98e c238 d0f7 b9bc 57b8 513c b3d5 abba
000000e0: 0219 0fbc 37fe b53b e62e c239 acde 05bb
000000f0: 5651 183c 734d ddbb f96e 1dbc 8d9e f2ba
00000100: e131 dabb 6449 053c 6f9a a3bc 498d 123c
00000110: 5ac3 663b f496 49bb 6556 5a3b 6cfc 02bb
00000120: 7c43 b7bc 6ab4 233b 6c52 f83b bce9 903c
00000130: b332 fabc 485a d6bb 54e1 28ba 6d1f f3bc
00000140: 0684 bfbb 08fd eebc 1214 7f3b 3b85 c5bc
00000150: 5d64 333c 5803 a8bb c1ad 183c ce2a bdbc
00000160: 4c4f b0bc 9df5 af3b 6ac7 c0bb 687e 853b
00000170: 3460 2bbc 5d5d 9ebc 3cc8 c33b 2b83 0eba
00000180: c9e5 fd3a bf5a 0aba 78b0 70b9 93a2 b6bc
00000190: 1085 06bd f4c0 41bc c0fd 33bc 103c 1ebc
000001a0: 5d4b 9dba 0a2d 653b d196 0539 0709 e83c
000001b0: 6e1d d1bb 6190 783b 978f edbc 3738 2bbc
000001c0: 782e 83bc f632 e6bc 840f 04bd b0b2 f03c
000001d0: ecdd 923b 24f5 8cbc 32cd fd3b f12b 843b
000001e0: 7b36 64bb 727b 6cbc ec60 103c 49a3 0c3c
000001f0: 2dbf be3c f4fa 993b c003 15bc 4959 90bb
00000200: f05c 34bd 4992 5dbd d165 a8bc b2aa e8bc
00000210: 9114 23bb e706 bcba ba31 fa3a 710a cabb
00000220: bd95 aabc 0bad 19bc c7a4 b6bb a260 32bb
00000230: 1833 65ba 2237 6bba 2149 96bb 4a98 9dba
00000240: 5b86 99bc af1f 313c 522a afbc 57db 863c
00000250: abd4 313c 0f21 c0bb 764b 01bc 596b 0b3c
00000260: eb1f 4d3c 8281 ffbc 951f 81bb f4dd 623b
00000270: 146d 743b 32ed 0e3d fcb3 a9bc 67dd c03a
00000280: 4c4f d5bc bce0 053b 2b34 ca3b 062d d8bb
00000290: e806 bbbc 2720 793a 2d5b d0bb e844 dbbb
000002a0: 153a b43b 5623 4fbc fe9e 2039 6c3c 193a
000002b0: 10b1 3bbc c151 2a3d 6307 123c 1e7e c6bb
000002c0: aba9 37bc acc1 fabb 56bc abbc 0ff2 b63c
000002d0: 566a 89bb 121e d03b 3431 6f3c 86b4 14bc
000002e0: ea58 373b cbb6 943b 2eca a03b 7a80 fcb8
000002f0: f9ab a6bb d515 28bd 16eb 91bb 3dea 82bb
00000300: ac80 b73b f662 51ba 8abc c2ba cdab 76ba
00000310: e0d8 0a3a c920 0cbd b789 d5bc 9377 6bbc
00000320: bcd1 c7bb da4c 34bc 15a9 f9bb 968a e73b
00000330: 867d ac3b fe54 e2ba 3786 f8bb 3b36 2fbd
00000340: 2060 4ebc 0fed b33b 5b6e 12bd 8f4e 273d
00000350: 341e 3f3c 34ae 47bc a1bf 29bd b0fa 653a
00000360: 5559 98bc 5a0e 3a3c 3a9e 09bc 7f4a 273c
00000370: 126e 19bd 10f3 373c bf06 05bd 82b9 80bb
00000380: 9a04 04bc a76c 0f3c 2398 20bc ae62 fbbc
00000390: 95cd d23c 18a2 eaba 92f5 9a3b 6a63 d4bc
000003a0: a003 413c a05b bf3c 047a ed3a a970 70bc
000003b0: 1f91 b6bc cd8a a2ba 5b06 34bc 4d4c 80bb
000003c0: 87ad 113d 2891 d3bc 87d6 51bc 5e36 f8bc
000003d0: 2fdf f7b8 1dfd 0ebc 7c73 8cbc 0c09 09bb
000003e0: 1294 c1bc ce8a d13c e739 cb3c 7d3d a0bc
000003f0: 2efb 913c 413a 0dbb 1b8e 81bb eb09 b0bc

action_model._continuous_distribution.mu.bias f4 [2]
-0.021991001 0.009185605
00000000: 7926 b4bc 387f 163c

exp_avg f4 [128, 6]
-3.8365888e-05 5.104821e-05 -8.3897976e-05 -2.6576667e-05 5.038261e-05 -0.00011018114 0.0005123525 -0.00034675543
0.00077168737 0.00032772587 -0.00034375503 0.00084236794 -6.8285717e-06 -3.3973565e-06 6.7081464e-06 -5.6559834e-06
-3.3473411e-06 5.750362e-06 6.5630586e-05 -2.3453793e-05 0.000171405 4.782644e-05 -2.315875e-05 0.00016307409
-1.4249044e-07 -6.6811445e-08 1.3353136e-07 -1.18232585e-07 -6.586434e-08 1.11765e-07 -0.0023121352 0.0023764968
-0.00962941 -0.0014955369 0.0023502647 -0.009437774 0.0012566993 -0.001261704 0.006340633 0.0009889033
-0.0012453174 0.0062077115 0.002010956 -0.0021679483 0.009051844 0.0012435191 -0.0021440033 0.008784887
-0.0021293473 0.0021473889 -0.010009853 -0.0014044497 0.0021235899 -0.009595054 0.00015360504 -5.481648e-05
0.0005083327 0.00027276567 -5.301095e-05 0.0006790814 -0.00039086776 0.000489655 -0.0028432067 -0.00028688056
0.00048371343 -0.0026683854 4.9663642e-05 -1.3103085e-05 8.350312e-06 5.2297153e-05 -1.3561811e-05 1.4686363e-05
0.00017174377 8.6334985e-05 -0.00017411396 0.00014430788 8.5567255e-05 -0.00014723797 -0.0009824532 0.0010750266
-0.0060989424 -0.0008579701 0.0010621032 -0.0059472397 0.0024058744 -0.0022754571 0.01180896 0.0019394914
-0.0022487433 0.011556893 -0.0016827954 0.0017883223 -0.010173474 -0.0013577491 0.0017661793 -0.009779253
6.582851e-07 -2.6228912e-07 3.6713143e-07 8.808154e-07 -2.4987537e-07 2.983678e-07 -2.9092853e-06 6.976977e-07
-4.207279e-07 -2.756311e-06 7.847881e-07 -9.09743e-07 1.1520466e-06 5.7438945e-07 -1.1412286e-06 9.582878e-07
5.669745e-07 -9.739457e-07 1.3258334e-05 4.531138e-06 -1.0951379e-05 1.18427615e-05 4.5042652e-06 -6.835746e-06
-0.0037937302 0.003940356 -0.017583955 -0.0024374723 0.0038987831 -0.016924055 -0.0024199884 0.0025722191
-0.013784789 -0.0019680806 0.002542777 -0.013395602 -4.469433e-05 -2.2559467e-05 4.606175e-05 -3.7769692e-05
-2.2400014e-05 3.8720533e-05 0.00036306214 -0.00039360722 0.0028711376 0.00035904176 -0.00038931292 0.0027492887
-0.0010913854 0.0012938987 -0.006866611 -0.0009424887 0.0012791678 -0.0067088725 -6.363937e-08 1.4307569e-08
-1.9299419e-08 -5.577971e-08 1.40754315e-08 -3.2340218e-08 -0.0002378101 -0.00010491613 0.00022691552 -0.00019398957
-0.0001042562 0.0001891917 -0.001520295 0.0013657777 -0.0048591592 -0.0008352466 0.0013513844 -0.004730343
3.278497e-05 -8.108141e-06 6.3430925e-06 3.4966444e-05 -8.525417e-06 8.522538e-06 -1.3101029e-05 3.3049969e-06
-1.7770429e-06 -1.284036e-05 3.5047167e-06 -4.0267073e-06 -0.0010961826 0.0013059987 -0.009087703 -0.0011060771
0.0012893932 -0.008752157 -0.0034883546 0.0038451501 -0.019487215 -0.0028229987 0.0038000925 -0.019113148
0.0037050797 -0.0034554235 0.015630342 0.0026281406 -0.0034159098 0.01530452 2.2716296e-05 -3.0430127e-05
5.9081125e-05 1.0727985e-05 -3.013666e-05 6.4266314e-05 4.0324718e-08 2.0189162e-08 -4.0649496e-08 3.3843914e-08
2.0024007e-08 -3.4397132e-08 -0.00022239558 0.00017146395 -0.00084919814 -0.00015942127 0.00017020441 -0.0008294457
0.0003586123 -0.00064578693 0.0060076164 0.00077933026 -0.0006357409 0.0059257443 4.3561155e-05 -2.30603e-05
3.3233882e-05 4.0453317e-05 -2.350895e-05 4.0190378e-05 -2.4564028e-07 -1.2461584e-07 2.5228002e-07 -2.0749178e-07
-1.2355945e-07 2.125175e-07 -0.000623265 0.0006092307 -0.0034299842 -0.0005915384 0.00060124526 -0.0034253455
-5.6623517e-06 -2.795229e-06 5.282e-06 -4.2381344e-06 -2.6283205e-06 5.0200815e-06 -0.001162323 0.0016457909
-0.010495631 -0.0014424536 0.001623993 -0.010479713 -0.00015087395 -6.7172994e-05 8.6216176e-05 -0.00013394386
00000000: 0feb 20b8 991c 5638 62f2 afb8 f5f0 deb7
00000010: ea51 5338 0d11 e7b8 654f 063a bacc b5b9
00000020: 104b 4a3a 9fd2 ab39 053a b4b9 5bd2 5c3a
00000030: fc20 e5b6 24fe 63b6 8a16 e136 87c8 bdb6
00000040: e2a2 60b6 3cf3 c036 27a3 8938 a3be c4b7
00000050: 2ebb 3339 4099 4838 0945 c2b7 defe 2a39
00000060: 79ff 18b4 fb79 8fb3 d260 0f34 0de7 fdb3
00000070: 4e71 8db3 7503 f033 3187 17bb 00bf 1b3b
00000080: acc4 1dbc e405 c4ba e606 1a3b e5a0 1abc
00000090: d5b7 a43a c35f a5ba 16c5 cf3b 179e 813a
000000a0: eb39 a3ba 0f6a cb3b 3eca 033b 2314 0ebb
000000b0: 2f4e 143c 94fd a23a 6882 0cbb 7dee 0f3c
000000c0: 858c 0bbb 35bb 0c3b 5e00 24bc 8315 b8ba
000000d0: ed2b 0b3b 9334 1dbc 0a11 2139 bfea 65b8
000000e0: a141 053a fd01 8f39 1358 5eb8 6204 323a
000000f0: 62ed ccb9 315c 003a 1855 3abb 7568 96b9
00000100: eb9a fd39 14e0 2ebb ee4d 5038 52d5 5bb7
00000110: 5118 0c37 a459 5b38 8987 63b7 7365 7637
00000120: 1e16 3439 be0e b538 5c92 36b9 5a51 1739
00000130: 9272 b338 e463 1ab9 a9c5 80ba e8e7 8c3a
00000140: a3d9 c7bb 66e9 60ba 4536 8b3a 10e1 c2bb
00000150: e0ab 1d3b d61f 15bb 5e7a 413c 8836 fe3a
00000160: a75f 13bb 1f59 3d3c 3e91 dcba 2466 ea3a
00000170: a5ae 26bc 80f6 b1ba 257f e73a 2939 20bc
00000180: 02b5 3035 bed0 8cb4 291a c534 2c71 6c35
00000190: 9c26 86b4 5c2f a034 243d 43b6 6c49 3b35
000001a0: 67e0 e1b4 10f9 38b6 3aaa 5235 1035 74b5
000001b0: 05a0 9a35 be2f 1a35 512c 99b5 859e 8035
000001c0: 3132 1835 85b8 82b5 1c70 5e37 2e0a 9836
000001d0: d1bb 37b7 46b0 4637 5823 9736 9c5e e5b6
000001e0: 3ba0 78bb 1a1e 813b 3a0c 90bc 00be 1fbb
000001f0: ba82 7f3b 51a4 8abc ab98 1ebb ad92 283b
00000200: 98d9 61bc eafa 00bb b8a4 263b 3a79 5bbc
00000210: 2c76 3bb8 163e bdb7 6d32 4138 e66a 1eb8
00000220: aae7 bbb7 db67 2238 6059 be39 115d ceb9
00000230: b229 3c3b c53d bc39 b21c ccb9 692d 343b
00000240: d10c 8fba 0998 a93a 4f01 e1bb 5911 77ba
00000250: c0a9 a73a 1ad6 dbbb 1daa 88b3 5bcd 7532
00000260: dfc7 a5b2 7192 6fb3 67d0 7132 72e6 0ab3
00000270: aa5c 79b9 6b06 dcb8 2cf0 6d39 ae69 4bb9
00000280: 1fa4 dab8 c361 4639 a344 c7ba e503 b33a
00000290: 9539 9fbb 73f4 5aba f020 b13a fe00 9bbb
000002a0: 9882 0938 3308 08b7 c0d6 d436 efa8 1238
000002b0: 6308 0fb7 06fc 0e37 7ecc 5bb7 6acb 5d36
000002c0: bb82 eeb5 ed6c 57b7 9332 6b36 271d 87b6
000002d0: c9ad 8fba 0b2e ab3a 97e4 14bc caf9 90ba
000002e0: db00 a93a 3565 0fbc e19c 64bb eafe 7b3b
000002f0: a7a3 9fbc 0f02 39bb f90a 793b 2d93 9cbc
00000300: ecd0 723b 6374 62bb 340b 803c e23c 2c3b
00000310: 75dd 5fbb cfbf 7a3c e08e be37 3344 ffb7
00000320: e0cd 7738 58fc 3337 fccd fcb7 b7c6 8638
00000330: 7f31 2d33 706c ad32 9896 2eb3 c75b 1133
00000340: 4201 ac32 0cbc 13b3 dc32 69b9 01cb 3339
00000350: b99c 5eba 522a 27b9 e678 3239 296f 59ba
00000360: 2104 bc39 074a 29ba 8adb c43b f84b 4c3a
00000370: d9a7 26ba bf2c c23b 6fb5 3638 9e71 c1b7
00000380: 9c64 0b38 6bac 2938 1635 c5b7 1792 2838
00000390: 8be0 83b4 24ce 05b4 1a71 8734 e8ca 5eb4
000003a0: c3ab 04b4 5e30 6434 9b62 23ba c8b4 1f3a
000003b0: 96c9 60bb 7811 1bba e39c 1d3a c37b 60bb
000003c0: 3bff bdb6 ab95 3bb6 093c b136 4c35 8eb6
000003d0: 3462 30b6 2c72 a836 1759 98ba 94b7 d73a
000003e0: def5 2bbc b610 bdba 2adc d43a 1ab3 2bbc
000003f0: eb33 1eb9 3adf 8cb8 f5ce b438 4873 0cb9

exp_avg_sq f4 [128, 6]
1.9617717e-05 8.0912605e-06 2.7398241e-06 1.797309e-05 7.721604e-06 5.8450973e-06 0.00096313504 0.00013582568
0.0011210602 0.0010956851 0.00013101975 0.0011427271 1.81164e-05 5.0954727e-06 1.812563e-06 1.153101e-05
4.724609e-06 3.0999217e-06 0.000104079525 2.8723472e-05 0.00082705525 5.2096326e-05 2.5571822e-05 0.0007217487
1.6632908e-05 6.068212e-06 1.2717818e-06 1.361386e-05 5.8378996e-06 3.022664e-06 0.0013133718 0.0003078584
0.0057060625 0.0011424418 0.00028603003 0.005339793 0.00031274217 6.2076826e-05 0.00081031217 0.00033400054
5.9463404e-05 0.00086595764 0.0021765695 0.00034628675 0.0052842796 0.0021387686 0.00032692365 0.0049315137
0.0014020083 0.0004606008 0.011984351 0.0007527935 0.00041986586 0.010884628 0.00011591708 6.482534e-05
0.00087113417 8.179193e-05 6.127121e-05 0.00090882636 0.00020408192 7.47762e-05 0.0015415028 0.00011508696
6.8764355e-05 0.0014220268 0.00017531152 1.4735117e-05 1.6541462e-05 0.00018293511 1.4141224e-05 7.969875e-06
0.00023843446 8.583111e-05 0.0005843954 0.00016886354 8.0160375e-05 0.00063005486 0.00057506375 0.00018080756
0.003475811 0.00039575828 0.00016656877 0.0032238665 0.00061269925 0.0001006918 0.0014002563 0.0006907173
9.676324e-05 0.0015067784 0.00073778897 0.00025846678 0.006357936 0.0004249727 0.00023696806 0.005930957
1.4397781e-05 1.1463464e-06 6.612258e-07 1.5312864e-05 1.1174318e-06 3.4072886e-07 0.0001405947 1.7553471e-05
8.118329e-05 0.00015710856 1.7010161e-05 8.521783e-05 2.7568953e-05 8.279054e-06 2.3890452e-06 2.0790405e-05
7.88125e-06 2.9831494e-06 5.153506e-05 1.8892422e-05 7.0587384e-06 3.426602e-05 1.743119e-05 1.0753379e-05
0.0024768533 0.0008219668 0.016100103 0.0019827182 0.0007651248 0.015659884 0.0020524042 0.00061544095
0.013948794 0.0014666024 0.00056678464 0.012916507 8.84085e-05 2.413381e-05 0.00056492846 4.7524747e-05
2.1625261e-05 0.0005039373 0.00015408563 3.9254093e-05 0.0007070244 0.00013367977 3.690237e-05 0.000674097
0.0008634667 0.00025112138 0.0063597057 0.0005322117 0.00022883779 0.0057216613 8.93609e-10 2.91191e-10
1.3765222e-10 7.7508633e-10 2.773532e-10 1.3180346e-10 0.0022371502 0.0006572862 0.016163845 0.0011729477
0.0006004896 0.014196762 0.00044444302 6.573834e-05 0.00074824085 0.00050542585 6.3276624e-05 0.00077117176
4.534624e-05 4.0596988e-06 3.351693e-06 5.136093e-05 3.9309225e-06 2.9940147e-06 1.9060912e-05 1.770212e-06
2.120795e-06 2.0681086e-05 1.7090615e-06 1.6562092e-06 0.00162931 0.00049687835 0.011723841 0.0009708169
0.00045381044 0.010531087 0.0025520192 0.0007748796 0.018859977 0.0015501574 0.0007074608 0.0171557
0.0005619926 0.00011474445 0.002190272 0.0006310284 0.00010998954 0.0023696297 3.3128003e-05 1.5696563e-05
7.5361468e-06 2.7320462e-05 1.4897296e-05 7.5051503e-06 2.5544539e-06 8.2658613e-07 2.9603825e-07 2.3584332e-06
7.956255e-07 2.2791342e-07 0.0003280016 8.754158e-05 0.0019493481 0.00023899553 8.0358725e-05 0.0017558482
0.0014490929 0.00038639692 0.0067855176 0.0011774477 0.00036280393 0.0064381487 6.3224805e-05 9.163775e-06
7.901045e-06 7.2200906e-05 8.761672e-06 5.43713e-06 8.6574147e-07 3.3199598e-07 1.2687558e-07 9.388991e-07
3.194944e-07 1.1068475e-07 0.00024346718 7.8137964e-05 0.0013459268 0.00015563573 7.220961e-05 0.0012444549
6.962173e-05 1.8119037e-05 0.00052803213 3.2859483e-05 1.5666132e-05 0.00044803834 0.001765286 0.0004397159
0.00858652 0.001428758 0.00040901138 0.008005 0.00022318012 7.7406556e-05 0.00075053476 0.00014359585
00000000: ba90 a437 b3bf 0737 d2dd 3736 ebc4 9637
00000010: 098c 0137 0121 c436 e67a 7c3a 6e6c 0e39
00000020: 8af0 923a 179d 8f3a 5962 0939 8fc7 953a
00000030: acf8 9737 c7f9 aa36 3147 f335 5075 4137
00000040: 1588 9e36 4008 5036 4545 da38 30f3 f037
00000050: bdce 583a 0182 5a38 1283 d637 bc33 3d3a
00000060: e686 8b37 8b9d cb36 17b2 aa35 1567 6437
00000070: 2de3 c336 f9d8 4a36 7225 ac3a 0e68 a139
00000080: ecf9 ba3b fcbd 953a 4df6 9539 6ef9 ae3b
00000090: 8bf7 a339 3e2f 8238 216b 543a cb1c af39
000000a0: 5868 7938 6f01 633a c7a4 0e3b d28d b539
000000b0: c027 ad3b 952a 0c3b f366 ab39 8998 a13b
000000c0: 98c3 b73a cb7c f139 035a 443c 1e57 453a
000000d0: 7121 dc39 7055 323c 8218 f338 d7f2 8738
000000e0: d35c 643a b587 ab38 bb7e 8038 4e3e 6e3a
000000f0: d3fe 5539 2bd1 9c38 400c ca3a d75a f138
00000100: 9535 9038 4d63 ba3a d4d3 3739 d836 7737
00000110: 85c2 8a37 45d2 3f39 1840 6d37 5ab6 0537
00000120: 4304 7a39 3a00 b438 1d32 193a f610 3139
00000130: c61b a838 442a 253a e0bf 163a 2997 3d39
00000140: 6fca 633b c77d cf39 f7a8 2e39 8147 533b
00000150: 8d9d 203a 802a d338 ce88 b73a 4111 353a
00000160: 5eed ca38 187f c53a 2e68 413a d382 8739
00000170: 3c56 d03b dfce de39 a17a 7839 7958 c23b
00000180: 008e 7137 2adc 9935 177f 3135 2074 8037
00000190: aafa 9535 6bed b634 9a6c 1339 cb3f 9337
000001a0: f240 aa38 82bd 2439 0bb1 8e37 f9b6 b238
000001b0: e043 e737 44e6 0a37 7c53 2036 0e67 ae37
000001c0: b639 0437 1e32 4836 5927 5838 2b7b 9e37
000001d0: 1ada ec36 dcb8 0f38 3239 9237 6969 3437
000001e0: b452 223b 4279 573a 5de4 833c 7ef0 013b
000001f0: a892 483a 2849 803c a181 063b 8b55 213a
00000200: 7c89 643c 033b c03a 4694 143a c29f 533c
00000210: f467 b938 f672 ca37 b517 143a 4f55 4738
00000220: e567 b537 a91a 043a 0c92 2139 c3a4 2438
00000230: 9b57 393a 642c 0c39 9ec7 1a38 e2b5 303a
00000240: 455a 623a f1a8 8339 1465 d03b 1f84 0b3a
00000250: 2df4 6f39 c67c bb3b 25a2 7530 7d15 a02f
00000260: a859 172f da0d 5530 fe79 982f 60eb 102f
00000270: 279d 123b bb4d 2c3a 0a6a 843c 98bd 993a
00000280: 2d6a 1d3a 8999 683c 2204 e939 01dd 8938
00000290: 9825 443a 8e7e 043a 61b3 8438 7628 4a3a
000002a0: 2832 3e38 8c38 8836 a6ed 6036 616c 5738
000002b0: 5ee6 8336 c8ec 4836 ffe4 9f37 0598 ed35
000002c0: fb52 0e36 4b7c ad37 e862 e535 ea4a de35
000002d0: 928e d53a f140 023a 5a15 403c 6b7e 7e3a
000002e0: 68ed ed39 958a 2c3c c73f 273b 4a21 4b3a
000002f0: 3d80 9a3c a72e cb3a e474 393a 1c8a 8c3c
00000300: af52 133a f5a2 f038 ab8a 0f3b 996b 253a
00000310: 2faa e638 ca4b 1b3b ecf2 0a38 1dac 8337
00000320: 02df fc36 3f2e e537 66ef 7937 c0d4 fb36
00000330: 2f6d 2b36 91e2 5d35 30ef 9e34 9345 1e36
00000340: f892 5535 5db8 7434 a1f7 ab39 8796 b738
00000350: 4581 ff3a e09a 7a39 4386 a838 7d24 e63a
00000360: 7def bd3a 5195 ca39 0c59 de3b 9754 9a3a
00000370: b836 be39 1bf7 d23b 8f97 8438 1dbe 1937
00000380: bb8e 0437 916a 9738 18ff 1237 9770 b636
00000390: 4d65 6835 2e3d b234 4b3b 0834 a808 7c35
000003a0: fa86 ab34 96b1 ed33 394b 7f39 00de a338
000003b0: cf69 b03a 2632 2339 3d6f 9738 fa1c a33a
000003c0: e201 9238 56fe 9737 a36b 0a3a 9ad2 0938
000003d0: c36a 8337 b0e6 ea39 2b61 e73a ab89 e639
000003e0: 7aae 0c3c 2a45 bb3a 9470 d639 6727 033c
000003f0: 7505 6a39 5455 a238 89bf 443a 3892 1639

exp_avg f4 [128]
-6.587158e-06 4.4943405e-05 4.3764024e-07 3.027837e-06 8.6112815e-09 -0.00030727993 0.00016281614 0.00028031276
-0.00027764388 6.9307957e-06 -6.3242005e-05 1.7731077e-06 -1.118729e-05 -0.0001388622 0.0002940068 -0.00023091504
3.2669377e-08 -1.02605206e-07 -7.412777e-08 -5.888997e-07 -0.00050973747 -0.0003324495 2.9286368e-06 5.0899842e-05
-0.00016724186 -1.8402592e-09 1.363074e-05 -0.00017668362 1.114636e-06 -4.5821685e-07 -0.00016857868 -0.00049683434
0.00044660532 3.9401484e-06 -2.6179936e-09 -2.225298e-05 8.311847e-05 3.073625e-06 1.61545e-08 -7.860842e-05
3.4363399e-07 -0.00021232526 8.834133e-06 -0.00047661265 -6.2956923e-07 7.3054307e-06 -0.0003303964 5.9781044e-08
-3.0213265e-05 -2.423411e-06 -0.00045642894 -9.307854e-05 -9.753387e-06 5.244767e-05 0.0003001264 6.353885e-07
-9.745289e-07 -0.0002435927 0.00024524468 4.4011913e-06 0.00016948882 -3.287849e-06 -9.975636e-05 6.698126e-07
1.7913737e-07 0.00015903104 -0.00017031016 -3.400093e-05 2.0878545e-08 -7.585948e-08 -0.00041160715 -4.2784894e-05
4.3585984e-05 -3.569563e-08 0.00049279304 1.8506631e-05 1.2155144e-07 -0.00022246852 -0.00012022547 -2.0986784e-06
-2.2580001e-05 -0.0004536326 -0.00046832423 1.1880776e-05 -0.00043328258 1.3679545e-06 -9.1973525e-06 3.414395e-05
-0.00047026126 0.00017270699 -0.00022808037 5.834496e-05 -0.0004417094 4.01494e-06 -2.2742518e-07 -0.0006395819
0.000161653 -0.000230218 -4.8109578e-05 3.2524556e-06 3.0596834e-06 1.0062653e-07 8.364757e-07 4.455595e-06
-6.442328e-07 8.032899e-06 -0.0005507607 -5.4147977e-06 -1.069313e-06 0.00075612165 -5.4765937e-06 2.2005092e-06
-0.00031849823 0.0001247748 6.969435e-05 5.515419e-06 -5.2074036e-05 -5.2430537e-06 -8.418595e-05 9.0643476e-07
0.00032032075 4.785344e-06 -2.1121885e-12 2.5158218e-07 -0.00016889958 -4.0154166e-05 -1.7730001e-07 -0.0003531419
00000000: 4207 ddb6 9d81 3c38 d1f4 ea34 d831 4b36
00000010: d1f0 1332 6a1a a1b9 a0b9 2a39 f1f6 9239
00000020: bb90 91b9 158f e836 cba0 84b8 84fb ed35
00000030: 0bb1 3bb7 8a9b 11b9 ed24 9a39 c921 72b9
00000040: 5c50 0c33 cf57 dcb3 2c30 9fb3 e114 1eb5
00000050: e79f 05ba 9e4c aeb9 9989 4436 4a7d 5538
00000060: a55d 2fb9 5dec fcb0 95af 6437 2644 39b9
00000070: 9a9a 9535 d800 f6b4 7fc4 30b9 fd3d 02ba
00000080: 5a26 ea39 9e35 8436 3be8 33b1 e9ab bab7
00000090: e44f ae38 7a44 4e36 1fc4 8a32 93da a4b8
000000a0: b27c b834 a1a3 5eb9 5036 1437 dee1 f9b9
000000b0: abff 28b5 2c21 f536 0e39 adb9 fa60 8033
000000c0: 7e72 fdb7 e2a1 22b6 db4c efb9 2933 c3b8
000000d0: 7aa2 23b7 42fb 5b38 495a 9d39 918f 2a35
000000e0: 8fcc 82b5 eb6c 7fb9 2f94 8039 f2ad 9336
000000f0: cfb8 3139 d1a4 5cb6 4a34 d1b8 2ccd 3335
00000100: e858 4034 92c1 2639 4995 32b9 389c 0eb8
00000110: 6858 b332 31e8 a2b3 facc d7b9 ee73 33b8
00000120: 18d0 3638 c34f 19b3 c82e 013a b03e 9b37
00000130: ce83 0234 7046 69b9 8f21 fcb8 05d7 0cb6
00000140: 2f6a bdb7 89d5 edb9 6a89 f5b9 8b53 4737
00000150: 342a e3b9 8f9a b735 544e 1ab7 ca35 0f38
00000160: 668d f6b9 ae18 3539 dc28 6fb9 6cb7 7438
00000170: 3b95 e7b9 12b8 8636 2832 74b4 9da9 27ba
00000180: 6681 2939 ac66 71b9 44c9 49b8 c344 5a36
00000190: f654 4d36 0518 d833 2c8a 6035 4581 9536
000001a0: 57ef 2cb5 0ac5 0637 ed60 10ba c2b0 b5b6
000001b0: 5185 8fb5 7736 463a 95c3 b7b6 76ac 1336
000001c0: 1cfc a6b9 fbd5 0239 df28 9238 1711 b936
000001d0: 126a 5ab8 7ded afb6 fd8c b0b8 b951 7335
000001e0: b9f0 a739 cb91 a036 cea1 14ac 3111 8734
000001f0: a31a 31b9 356b 28b8 db5f 3eb4 e725 b9b9

exp_avg_sq f4 [128]
1.3199052e-07 2.2396061e-06 8.0760756e-08 4.3711617e-07 9.9791094e-08 4.8892985e-06 1.0164459e-06 5.5883306e-06
7.1770432e-06 1.0473472e-06 1.175433e-06 2.4172544e-07 1.3702339e-06 2.8472705e-06 1.6540375e-06 4.0506443e-06
1.910096e-08 2.907659e-07 1.3471929e-07 2.9796254e-07 1.3078763e-05 9.688408e-06 3.69655e-07 6.307973e-07
3.9116753e-06 4.740976e-12 1.026457e-05 1.081631e-06 6.719374e-08 2.9214128e-08 7.757275e-06 1.2093093e-05
1.8801225e-06 2.5464888e-07 1.3600159e-08 1.3736233e-06 6.2016516e-06 1.4976884e-07 5.4613403e-09 1.2343265e-06
2.6779105e-07 6.9914977e-06 1.2353377e-06 8.042197e-06 6.47864e-08 1.0601262e-06 9.867216e-06 1.1596462e-07
8.676123e-07 4.700673e-07 1.0609176e-05 8.1448195e-07 1.6965608e-06 5.636043e-07 2.715268e-06 1.062177e-06
3.6536413e-08 3.1139973e-06 1.096641e-06 2.5266612e-08 9.4299696e-07 7.5051713e-07 8.0928214e-07 3.3722602e-09
1.6785183e-08 1.4200662e-06 5.8990304e-06 1.159546e-06 7.556757e-08 3.3192737e-08 1.5192887e-05 1.3204897e-06
5.5692175e-07 1.5676842e-07 4.4832295e-06 1.3936203e-06 5.7162275e-09 1.6544029e-06 2.5098195e-06 4.1235477e-09
1.7159102e-06 7.4338577e-06 1.3274543e-05 1.0802969e-06 1.0830164e-05 4.557263e-08 4.53933e-07 6.4959755e-07
9.991387e-06 3.0117765e-06 8.02788e-06 9.829583e-07 1.5448859e-05 1.3517935e-06 8.8585686e-08 1.8102544e-05
3.875747e-06 4.4622487e-07 7.466588e-07 8.914866e-07 1.7531684e-09 1.9035743e-07 9.051864e-08 2.8421346e-06
1.0817725e-08 3.6022743e-07 1.2176441e-05 1.7979703e-06 2.7873048e-07 5.280543e-06 1.9947888e-06 1.0269696e-07
4.3582672e-06 3.3796791e-06 3.5845164e-06 4.416403e-06 5.2857117e-06 2.1515461e-06 2.8270629e-06 3.517473e-07
1.9559334e-06 6.328129e-07 2.1423242e-08 3.4868242e-07 3.5612973e-06 1.7046702e-06 2.5581224e-08 8.392309e-06
00000000: 47b9 0d34 244c 1636 b26e ad33 caac ea34
00000010: bc4c d633 c10e a436 d16c 8835 6583 bb36
00000020: 55d2 f036 9392 8c35 92c3 9d35 7ec6 8134
00000030: e1e8 b735 bc13 3f36 4c00 de35 c5ea 8736
00000040: 7513 a432 901a 9c34 5ba7 1034 a9f7 9f34
00000050: dc6c 5b37 658b 2237 ff74 c634 0f54 2935
00000060: 0941 8336 eace a62c fe35 2c37 8f2c 9135
00000070: 264c 9033 8cf2 fa32 3e25 0237 70e3 4a37
00000080: 8458 fc35 adb6 8834 22a6 6932 565d b835
00000090: c817 d036 25d0 2034 75a6 bb31 23ab a535
000000a0: ecc4 8f34 8298 ea36 e1cd a535 f9ec 0637
000000b0: b320 8b33 a949 8e35 5f8b 2537 3908 f933
000000c0: dde5 6835 8f5d fc34 10fe 3137 c6a2 5a35
000000d0: 63b5 e335 984a 1735 f337 3636 2090 8e35
000000e0: 36ec 1c33 11fa 5036 4c30 9335 de09 d932
000000f0: 4222 7d35 2577 4935 723d 5935 6ebd 6731
00000100: 022f 9032 1a99 be35 49f0 c536 b2a1 9b35
00000110: b647 a233 cd8f 0e33 f4e4 7e37 ae3b b135
00000120: 5f7f 1535 2d54 2834 a66e 9636 6e0c bb35
00000130: 7868 c431 da0c de35 5f6e 2836 1caf 8d31
00000140: 3a4e e635 5a70 f936 bab5 5e37 b8fe 9035
00000150: 33b3 3537 a3bb 4333 14b4 f334 0160 2e35
00000160: aea0 2737 ed1d 4a36 7baf 0637 31ee 8335
00000170: 2c98 8137 456f b535 7f3c be33 ebda 9737
00000180: 6a0c 8236 ae90 ef34 016e 4835 7e4e 6f35
00000190: 21f4 f030 0d65 4c34 2663 c233 80bb 3e36
000001a0: dcd8 3932 4865 c134 6a49 4c37 ca51 f135
000001b0: 6da4 9534 852f b136 36de 0536 408a dc33
000001c0: 3b3d 9236 72ce 6236 868d 7036 9d30 9436
000001d0: eb5b b136 4863 1036 92b8 3d36 c8d7 bc34
000001e0: ae42 0336 92de 2935 3506 b832 8c32 bb34
000001f0: 9ffe 6e36 06cc e435 b5bd db32 b1cc 0c37
