results/TestParameters4/MoveToGoal.onnx (onnx, 72644 bytes, 7 tensors)

network_body._body_endoder.seq_layers.0.weight f4 [128, 6]
000000 c9 f3 66 3d b7 f1 1a bf e4 54 63 be ae 6a 8d be
       0.056384835 -0.6052508 -0.22200352 -0.27620453
000010 ab 77 12 3e 33 5a ad be c6 a7 4d 3e 0f 1a 34 3d
       0.14303462 -0.3385788 0.20083532 0.043970164
000020 74 0e 85 be d1 25 ea 3e 62 84 93 be b0 32 7d 3e
       -0.2598759 0.45731977 -0.28811938 0.24726367
000030 a2 f7 df be 17 36 56 3e 80 5e 5e 3d 94 c6 67 3e
       -0.43743616 0.20919071 0.05428934 0.22634345
000040 4a b2 0b 3f bc c5 fe be 42 98 99 bc 1d e2 b6 be
       0.5456892 -0.49760234 -0.01874936 -0.35719386
000050 df df c8 3e b5 f3 d4 3e 83 44 36 3f c1 dd 33 3f
       0.392333 0.41592184 0.7119829 0.70260245
000060 8f 6c d1 3d 3d b3 ed 3e c9 90 32 bf 50 1d 20 bf
       0.10225784 0.4642581 -0.69752175 -0.6254473
000070 da 81 57 3e fd 48 df 3e 92 c9 66 3f ec 2e 00 3f
       0.21045628 0.43610373 0.9015132 0.500716
000080 09 a0 46 3f 40 05 96 3e a8 60 5e be 8b 86 4a bf
       0.77587944 0.2930088 -0.21716559 -0.79111546
000090 b4 00 95 bd 18 fd af bd 2e 17 83 be d4 aa 6b 3e
       -0.07275525 -0.08593196 -0.25603622 0.23014385
0000a0 23 16 c5 3e 93 3a 6d 3c a8 91 f5 3d ad fc cd bc
       0.3849345 0.014479297 0.11990672 -0.0251449
0000b0 41 f1 1d 3f 14 03 2d 3f b0 f9 37 3f a0 a1 f8 bd
       0.6169625 0.6758282 0.7186537 -0.121402025
0000c0 b6 d7 b0 be ed 23 f4 3c 72 a8 e5 be 46 32 49 3e
       -0.34539574 0.029802287 -0.44855076 0.19648084
0000d0 cc c2 05 3f ba fb 8f 3e 8d c1 72 3e 8a fa ce bc
       0.5225036 0.2812174 0.23706646 -0.02526595
0000e0 b9 03 c9 be 39 5f ab 3d 31 63 94 3e 5a 87 5d bf
       -0.39260653 0.08367772 0.28981927 -0.86534655
0000f0 a6 a9 82 3e 3a a4 55 bf 3e 27 f9 3d 53 48 33 3e
       0.25520056 -0.83453715 0.12165688 0.17508058
000100 e1 8a 9a bd 73 90 86 3b 06 ba 59 3e 46 c3 c5 3e
       -0.0754602 0.004106575 0.21262369 0.38625544
000110 ec 72 b6 3c 95 c1 f5 3c df f0 c6 3e 1f be c1 be
       0.022271596 0.029999534 0.38855645 -0.37840363
000120 5d 4c 64 3e 8e 26 24 bf f4 3f f0 3d 45 69 81 3e
       0.22294755 -0.6412133 0.11730948 0.25275627
000130 db 8e 92 be 06 93 71 be 7c 9c 0e be 6d 45 5a 3f
       -0.28624615 -0.23591241 -0.13926882 0.85262185
000140 3a 01 8c be 29 26 99 be 81 d2 48 bf 7a 3a 4a 3f
       -0.27344686 -0.29911926 -0.78446203 0.7899548
000150 cb fb d7 bd d7 f8 5f 3f b8 8e 16 bf 85 de 05 3e
       -0.105460726 0.87489074 -0.5881152 0.13073166
000160 7f 36 3b bf 8c e0 14 bd 6d 75 dd be a3 40 ab 3e
       -0.7313003 -0.036346957 -0.4325365 0.3344775
000170 17 68 78 3c 3f a7 01 3f 50 d4 7a 3b 43 c0 18 3e
       0.015161536 0.5064582 0.003827352 0.14917092
000180 a2 db dd bd 0c 9b 63 be 65 6b 44 bf b6 79 21 3e
       -0.10832907 -0.22227114 -0.7672637 0.15769085
000190 6e 82 2e bf f8 01 cf 3d 15 f8 44 be ad 1b 98 3e
       -0.6816777 0.101077974 -0.19235261 0.29708615
0001a0 b3 d1 42 3e 5c 6d 0e 3d 02 bb 82 3e 31 50 92 3e
       0.19025306 0.034772262 0.255333 0.28576806
0001b0 68 39 3b be ad 14 0c be 8d f3 dc be 77 dd 02 bf
       -0.18283617 -0.13679762 -0.43154564 -0.5111918
0001c0 10 be 1c bd 6e 5e 8d bd 10 28 77 3e 1d 82 e8 be
       -0.038267195 -0.06902777 0.24136376 -0.4541177
0001d0 14 7d 33 be 2c d2 dd 3e 41 5b 84 3e ad 46 7e be
       -0.17528182 0.4332441 0.2585087 -0.24831648
0001e0 c3 ba d8 be a3 5e dc be 32 40 69 3d 11 3c 64 3e
       -0.42329988 -0.43040952 0.056945987 0.22288539
0001f0 43 6a ae 3d 35 bb 02 3e b5 5d de 3c 92 8e 28 bf
       0.085163616 0.12766726 0.027144292 -0.65842545
000200 c9 64 c5 be 46 e8 09 be 33 fb 25 3d 75 20 39 bf
       -0.38553455 -0.13467512 0.040522765 -0.7231515
000210 9b 6a b8 be 07 6f 61 bd fc 43 04 bf a2 8d d0 3c
       -0.36018834 -0.055037525 -0.51666236 0.02545816
000220 e6 f0 d8 3d 91 58 d4 3e aa b4 90 be a8 68 34 3d
       0.10592823 0.4147382 -0.28262836 0.04404512
000230 10 12 df be df e5 8e bd 52 d7 0f 3f 3d 84 da 3e
       -0.43568468 -0.06977438 0.5618793 0.42679015
000240 e3 9e fb be 73 96 a0 3e 9d 7e a9 3c 43 aa 9e 3e
       -0.49144658 0.31364784 0.020690257 0.30989274
000250 b7 dc 6a be 96 4d a8 be 0b 12 80 3d 0c 06 11 3f
       -0.22935759 -0.32871693 0.062534414 0.5664985
000260 b6 bb a5 be 0c 7c 03 bf 58 7a 76 3c 48 da cf 3e
       -0.32369775 -0.51361156 0.015043817 0.40596223
000270 64 6e 2c be ee 21 30 bd 8d 2f 54 be e5 8e 69 3e
       -0.16838986 -0.043001108 -0.20721264 0.22808416
000280 07 3b f4 bd 7d bb 21 3e e7 5a a3 3b d7 0f d2 be
       -0.11925321 0.15794177 0.0049852016 -0.4102771
000290 0b 2e 06 be b1 cf 91 3e f6 f0 05 bf eb 3c 2d 3f
       -0.13103501 0.28478768 -0.523208 0.6767108
0002a0 4e 1f 84 bd 8e 68 c4 3e 3c 46 87 bd 88 b4 86 3e
       -0.064512834 0.3836102 -0.06605193 0.2630961
0002b0 30 7b 33 3d 59 15 c6 3e b8 13 40 3e 2b 29 8a 3e
       0.043818653 0.38688162 0.18757522 0.26984534
0002c0 d2 d6 15 bf 11 9e 5a bf 97 52 ca 3e a1 6d 1f 3c
       -0.58530915 -0.8539744 0.39516136 0.009730727
0002d0 63 7a e3 be 95 01 02 bf b4 94 43 be f7 f5 0e 3e
       -0.4442931 -0.50783664 -0.19099694 0.13961016
0002e0 74 87 51 3f 13 ba 7f 3d 3d af 80 bc 25 b4 29 bf
       0.8184731 0.062433314 -0.01570856 -0.66290504
0002f0 b7 b1 91 3d 2f d2 c3 3e cf 39 ea 3e 0d a7 8b 3c
       0.071139745 0.38246295 0.4574723 0.01704743
000300 69 ea 20 3e 36 60 e3 3d 32 b6 60 3e 11 9e 20 bf
       0.1571442 0.11102335 0.21944502 -0.6274119
000310 77 de c8 be c8 6d 5c 3e 64 e3 04 be 81 09 40 be
       -0.39232227 0.21526253 -0.12977368 -0.18753625
000320 8b 4c 38 be e2 9f 00 bf 44 65 a6 be d5 91 5e 3e
       -0.17997949 -0.5024396 -0.32499135 0.21735318
000330 1c 97 02 3f 50 5b 8b 3e 7e ba 98 3e a1 8a 75 3d
       0.51011825 0.27218103 0.29829782 0.05994666
000340 53 bd 84 be d8 3e 92 3e 1e 60 16 3f 10 f2 f0 bc
       -0.25925693 0.2856357 0.58740413 -0.0294123
000350 6b 98 b2 be f1 9e 02 3f df 9b d8 3e c4 00 d3 3e
       -0.3488191 0.51023775 0.4230642 0.41211522
000360 95 bd 8d 3f 64 fd a9 bb 05 d8 0d 3e 63 8c 5b 3e
       1.1073481 -0.005187677 0.13851936 0.21440272
000370 25 2d 21 3e 72 32 e0 3e c2 01 73 bf 6f 70 97 bd
       0.15739878 0.43788487 -0.9492456 -0.07394492
000380 ae ce d2 be ee 06 be 3e 02 36 e9 3d f2 2a 6d 3e
       -0.4117331 0.37114662 0.11387254 0.23160914
000390 81 62 9c be 08 a7 3a 3e 3f 1c a4 3d c2 c8 5d bd
       -0.30543903 0.1822778 0.080132 -0.054146536
0003a0 7c 87 86 be f5 7c 3e be 2c 62 07 3d fa 5a 76 be
       -0.2627524 -0.18602355 0.03305261 -0.24058142
0003b0 4b 36 cd be 70 a6 ca 3e 73 ff d7 3d 3c 5d 90 3e
       -0.40080485 0.39580107 0.1054677 0.28196132
0003c0 60 47 bc bd fc 8f 1b 3f 3c d0 6f 3f 19 1c e4 3e
       -0.09193301 0.6076658 0.93677115 0.44552687
0003d0 9e 66 72 3e bb 43 89 3e 32 87 eb be 58 a1 63 be
       0.23671958 0.26809487 -0.46001583 -0.22229517
0003e0 eb 40 23 3f 1e c1 a0 3e 96 a6 62 3e 22 20 85 be
       0.6377093 0.31397337 0.2213386 -0.26001078
0003f0 1e 34 0f 3d 9a 31 df 3d eb 76 22 3e df ab 0e bf
       0.034961812 0.108981326 0.15865676 -0.55731004

network_body._body_endoder.seq_layers.0.bias f4 [128]
000000 fd bd 9f bd 09 f2 3d bc 79 6c 82 bc 39 b9 a4 bc
       -0.07799909 -0.01159335 -0.015920864 -0.020107852
000010 f9 97 87 bc c1 17 f1 3c 9e 2e aa bd d9 69 37 3b
       -0.016551958 0.029430272 -0.08309673 0.0027986674
000020 01 8e af 3b f6 7a 8c bd 31 e4 22 3b 7d 50 34 bd
       0.0053575044 -0.068593904 0.002485525 -0.044022072
000030 95 40 90 bd d4 3f ae bd aa 53 ac bc f1 38 12 bc
       -0.07043568 -0.08508268 -0.021035988 -0.008924709
000040 95 fc 08 bd dc 38 a9 bc 87 13 80 bc 77 59 72 bd
       -0.033444006 -0.020656995 -0.015634311 -0.05916735
000050 49 0c 98 b6 a4 ce cf bd d3 40 df bc 4d 7f b8 bc
       -4.531383e-06 -0.101468354 -0.02725259 -0.02252164
000060 51 c1 21 ba b9 55 72 bd 6d cb 22 bd da d2 e4 bc
       -0.0006170469 -0.059163783 -0.039744783 -0.027932573
000070 15 58 d5 bc 8f 81 39 3c 6f 65 2a bd be 7e cb bd
       -0.026042977 0.011322393 -0.04160064 -0.099362835
000080 65 a8 7f bd 55 59 73 bc c7 c0 06 3c 6c d2 09 3c
       -0.062416453 -0.014852841 0.008224673 0.008411985
000090 3f 65 ad 3c 80 43 8d 3b 2f 2b 3f bd cc f1 b1 bc
       0.021166442 0.004311025 -0.046672042 -0.021721743
0000a0 cf d5 81 ba 4d 89 8c 3c a3 5a b3 bc 68 6a 4e bc
       -0.0009905639 0.017155314 -0.021893805 -0.012598611
0000b0 9a c6 ae bc 25 ae 7f bb ba 0b d8 bc b6 91 af bc
       -0.021334935 -0.003901371 -0.02637278 -0.021431785
0000c0 38 33 75 bd a1 cf 08 bd e2 27 87 bd 03 13 0e bc
       -0.0598633 -0.033401135 -0.06599404 -0.008671525
0000d0 e9 6c eb bc 0b 2c 1e bd 65 31 a9 bc 72 11 ff bb
       -0.028738456 -0.03861622 -0.020653436 -0.007784062
0000e0 ee 38 8c bb e8 e9 db bc 5d 9c d6 bc 51 ed ad bd
       -0.0042792475 -0.026844934 -0.026197607 -0.0849253
0000f0 97 a0 75 bd 61 31 90 bc d2 a0 13 bc 26 78 3c bd
       -0.059967604 -0.01760167 -0.0090105105 -0.04601302
000100 bb c6 5a bd ff 7b 54 bd d2 0c 12 bd df 2d 4f bb
       -0.05341218 -0.051876064 -0.035656758 -0.0031613035
000110 7a ab 3e bd 40 29 04 bd 8c 2f 68 bc 70 c7 a4 bc
       -0.04655025 -0.0322659 -0.014171492 -0.02011463
000120 01 32 4e ba bc 0d ac bd 49 35 a5 bc 5c b3 bb bc
       -0.00078657275 -0.08401057 -0.02016701 -0.022912674
000130 a6 38 5e bd 20 3d 62 bc 20 9f 33 3d c8 65 27 bd
       -0.054253243 -0.013808519 0.043852925 -0.04086855
000140 aa a4 ca bc 26 d9 14 3d b8 09 32 3d d0 18 73 bc
       -0.024736721 0.0363399 0.0434663 -0.014837459
000150 91 2c 29 3b c6 35 9e bc be 41 60 bc cb e7 bb 39
       0.0025813917 -0.01931275 -0.013687549 0.0003584012
000160 86 2d 1a bd 0c 41 3e bc 93 ea 15 3d 6e 44 e8 bd
       -0.03764107 -0.011612188 0.03660066 -0.11341177
000170 91 b8 a2 bd 1c ab b3 bc 6b 3f 98 3c af 4a 7c bc
       -0.079453595 -0.021932177 0.018584928 -0.015398665
000180 37 52 0d bd 2d d0 a4 bc 0b 3b a1 bd 85 a9 b0 bc
       -0.034502234 -0.020118797 -0.0787259 -0.021565208
000190 3b d2 ee bd 1e 07 b3 3c b2 3f 49 bd ee 49 d5 bc
       -0.11661192 0.02185398 -0.04913301 -0.026036229
0001a0 a5 13 3a 3c a3 bf 8b bc ef 8f a2 bc 47 fb 2b 3b
       0.011357223 -0.017059153 -0.019844024 0.0026242302
0001b0 c4 f3 5e 3b 97 ec e8 3c 35 b8 bf bd ae e7 21 3c
       0.0034019807 0.028433127 -0.093613066 0.009881897
0001c0 f3 80 01 bc a2 9a a0 3c 67 32 46 3c e9 44 14 bd
       -0.007904279 0.019604985 0.012096978 -0.03619853
0001d0 4b 49 1e bd 90 00 c9 bc e9 17 98 bc bf ea 6b bd
       -0.038644116 -0.024536401 -0.018566089 -0.05759692
0001e0 85 b3 61 bc d9 84 c8 bc ef 9d 19 bd 3a 8a 0d bd
       -0.013775711 -0.02447741 -0.037504133 -0.03455565
0001f0 be a6 84 bd 82 70 7d bd 26 dc 21 bd f9 a0 a2 3c
       -0.06477116 -0.061874874 -0.03951659 0.019852148

network_body._body_endoder.seq_layers.2.weight f4 [128, 128]
000000 0f 73 3d 3d 88 09 83 3d 7d a9 ab bd 8e ee f6 bd
       0.046252307 0.06398302 -0.08381937 -0.120572194
000010 00 4f 39 3c f9 c4 c9 3d b6 0a 99 3d 68 c9 92 bd
       0.011310339 0.09852023 0.07472746 -0.071673214
000020 cd 58 26 3d 70 3e 86 bd 28 6f 5a 3c 56 d6 b8 bd
       0.04061203 -0.06554878 0.013332166 -0.09025256
000030 44 b0 1d bd 74 c4 5e 3d 23 d2 0e 3e 9c bb 75 bd
       -0.038498178 0.05438657 0.13947348 -0.05999337
000040 3c df 91 bc f9 f2 91 bd 6b 8e 68 bd ed d2 2a bd
       -0.017806642 -0.071264215 -0.056776445 -0.04170506
000050 25 8b d9 3d cf fe f3 3d d2 6c 3d ba 22 b8 58 3c
       0.10622243 0.11913835 -0.00072259933 0.013227494
000060 87 61 39 3e e0 2f da 3c 18 74 07 3e 54 6b bc bc
       0.1810361 0.026634157 0.1322788 -0.023000397
000070 f2 13 0c bd ee 94 8d 3e 3c 25 4b 3d 2e 19 5e bd
       -0.03419871 0.27652687 0.049596056 -0.054223232
000080 51 f2 f7 bb 63 f0 33 bd 82 5c b6 bc fb ea 42 bd
       -0.007566728 -0.043930423 -0.022260908 -0.047587376
000090 e7 8b 8e bd af 8a a0 3d 9d cb fe 3d 3b 28 2c 3e
       -0.06960278 0.07838952 0.1244118 0.16812222
0000a0 ac 33 e4 bd ed 6a c8 bd 89 a1 61 3d ad 87 9d b9
       -0.11142668 -0.097860195 0.055085693 -0.0003004646
0000b0 3d 8f 8c 3d 59 d8 d4 3c 85 b0 bc bd d5 8d c3 bc
       0.06863258 0.025982069 -0.09213356 -0.023871342
0000c0 c5 ef c4 3d 95 34 4e bd 4a 8b a2 bc e6 3f f4 3d
       0.09616045 -0.050343115 -0.019841809 0.1192625
0000d0 5e 0f 78 bd 9c 31 18 3d dd 97 30 bd b3 f7 fc bd
       -0.06056153 0.037156686 -0.043113578 -0.123519324
0000e0 6d 81 0c 3e 88 5d ee bd 1d 02 0d be 7d fc 6c 3b
       0.13721247 -0.116389334 -0.13770337 0.0036161237
0000f0 5e 4e 00 3e 4d 08 7f bd 88 81 a0 bd 55 17 c3 3c
       0.12529895 -0.062263776 -0.07837206 0.023814837
000100 c7 be a3 bb dc 8a d5 bd 12 e8 e5 3a 91 13 d6 3d
       -0.0049971077 -0.10426876 0.0017540476 0.10452951
000110 35 d8 11 3d 7d 76 27 3c ee c3 f8 bd 85 0f 31 3e
       0.03560658 0.010221121 -0.121467456 0.17291076
000120 be 62 35 be e3 40 eb bc 8a f8 8d 3d 78 91 bf 3d
       -0.17713448 -0.028717464 0.06932171 0.09353918
000130 d5 4c f8 bd 11 71 07 bd c7 f8 af bd d6 e5 c4 ba
       -0.121240295 -0.033066813 -0.085923724 -0.001502211
000140 2e d4 8a 39 0c 80 dd bd 18 84 6d 3d 5b 61 6c bd
       0.00026479497 -0.10815439 0.057987303 -0.057710033
000150 70 d5 93 bc f1 c3 3c 3e 08 1c c3 3c f3 a7 2f be
       -0.01804611 0.1843412 0.023817077 -0.17153911
000160 a5 aa a1 3d 0e b4 9e 3d b5 b9 e1 3c 1d c6 0d be
       0.07893876 0.077491865 0.027554372 -0.13845105
000170 4d 60 5d 3e ed c0 96 3d 3e e0 e1 bd e1 2a e8 bb
       0.21618767 0.073610164 -0.11029099 -0.0070851897
000180 c9 58 d2 bc a1 c7 01 3d 1a 14 6c 3d bb 78 0d be
       -0.025677102 0.03168452 0.057636358 -0.13815586
000190 60 89 ae bd 57 2f 11 bd f3 4c e7 bb 19 c8 1d bb
       -0.08522296 -0.035445537 -0.0070587336 -0.0024075566
0001a0 88 63 2e bd 01 b3 61 3d 50 43 75 3c 96 5b 50 bc
       -0.04257539 0.055102352 0.014969662 -0.012717148
0001b0 bf e9 9c 3c fc 74 ae bd 5d 15 87 bd a4 95 00 3d
       0.019154428 -0.08518407 -0.065958716 0.03139271
0001c0 59 72 ca bd a1 b8 6e 3d 5f 55 9b 3d 7a b9 13 3e
       -0.09885091 0.058281545 0.075846426 0.14426222
0001d0 0a 5b 1b bd 98 ef b1 3c b9 00 82 3c b2 f7 ad ba
       -0.03792862 0.021720693 0.015869485 -0.0013272671
0001e0 d6 fe 31 bb 85 6e 8a bd 17 18 5f 3d 1f 6f 40 3d
       -0.002715995 -0.06759361 0.054466333 0.046980973
0001f0 33 88 77 3e 54 71 cc bc 47 c8 93 3d 9c 76 ac bd
       0.2417305 -0.024956383 0.07215934 -0.084210604
000200 10 fa 17 be 99 dc 1f bd 45 c2 7f bd 61 dc 00 3b
       -0.14841485 -0.039028738 -0.06244113 0.0019662606
000210 1a 06 ba bd 37 cc 93 bb da fa 7f bd 12 22 c3 3a
       -0.09083195 -0.0045104283 -0.06249509 0.0014887473
000220 40 a2 1d 3e ba 5c 46 be 5a 96 ad bc db 31 86 3d
       0.15393925 -0.1937131 -0.021189857 0.06552478
000230 e4 8f 50 bd 97 5e 59 3d 7e 9c 6e 3d 88 e0 f1 3c
       -0.050918475 0.053068724 0.05825471 0.02952601
000240 e8 05 cc bd 90 50 e4 bc cf cf 30 bd 0b a5 21 3d
       -0.09962064 -0.027870446 -0.04316693 0.039464038
000250 36 56 79 bc 41 8d e3 bb bf e5 6f 3c d0 03 5d 3d
       -0.015218308 -0.006944329 0.014642178 0.053958714
000260 9c 73 8a 3d 3a e0 13 3e 94 8c c3 3d 4d 20 d4 bc
       0.06760332 0.14441004 0.095482975 -0.025894308
000270 32 66 79 3b 59 8e 8a 3c 24 37 cb bd e1 b7 96 3c
       0.0038055298 0.01691358 -0.099226266 0.018398227
000280 b6 0d 6d 3d e1 36 10 3e ce 2c ad bd d2 4b d0 3d
       0.057874404 0.14083435 -0.084558114 0.101707116
000290 7a ca 15 be 46 9e 56 3c 47 fb 07 bc 72 67 3d b9
       -0.1462802 0.013099259 -0.008299655 -0.00018062981
0002a0 e5 94 b4 bc 30 77 15 be ec 1e 0b be 5c c3 84 3c
       -0.022043655 -0.14596248 -0.13586015 0.016206436
0002b0 9b 9c 7a bd 6b 56 07 bc 18 ee 4e bd 55 8a 75 3d
       -0.061184507 -0.00826035 -0.050520033 0.059946377
0002c0 c9 aa a8 3c 03 ab f6 bb ce 93 8b bd a0 40 26 bc
       0.02058925 -0.0075277104 -0.06815301 -0.010147244
0002d0 9b 77 7c bd 77 0f 56 3d 91 16 7d 3d c0 b4 82 bd
       -0.061637502 0.052260842 0.0617891 -0.063821316
0002e0 44 a4 f9 bd 57 f6 d6 3d c6 c7 d7 3d 44 d5 17 bc
       -0.12189534 0.10496204 0.10536151 -0.009267155
0002f0 3a e1 34 3e 30 2f fd bb 6e ce 73 be fd b3 b2 bd
       0.17664042 -0.0077265725 -0.23809215 -0.08725736
000300 b0 a4 14 3d 2c 1b ac bc a0 77 43 bd 65 b5 a8 bd
       0.03628987 -0.02100905 -0.047721505 -0.08237723
000310 9c 72 40 3d 57 ec 22 be ef ce 38 3d 41 14 c4 3d
       0.0469843 -0.15910469 0.045119222 0.095741756
000320 20 7c 4f 3e 15 fd 04 3c 84 b3 e0 bd 75 13 0d be
       0.20262194 0.00811698 -0.1097174 -0.13776954
000330 7d 78 f8 3d 8f 95 b0 3d 63 e9 e6 bc 1b 3a 89 3c
       0.12132356 0.08622276 -0.02818746 0.01675134
000340 ed 79 54 be c7 dd 60 3d cc b2 9b 3c 9c 3f 83 3d
       -0.20749636 0.054899003 0.019006155 0.06408617
000350 79 88 80 bc 1b 6b a6 bd 1a eb d1 3c ff 63 6d bd
       -0.015690075 -0.081258975 0.0256248 -0.05795669
000360 32 d8 e6 bd c5 ee c7 3d ef c8 12 3e d9 b0 6f 3d
       -0.11271705 0.097623385 0.14334463 0.058518264
000370 bf 73 45 3b c0 63 95 bb 65 98 94 bd 7c f1 af bc
       0.0030128805 -0.0045590103 -0.072556295 -0.021477453
000380 c0 0d 1e 3e f0 fb 58 bd 9c d7 a9 bc dc 8d 38 3e
       0.15434933 -0.05297464 -0.020732693 0.18022865
000390 38 94 0b 3c 34 aa 39 bd 07 66 75 bd 16 91 8e 3d
       0.008519225 -0.045328334 -0.059911754 0.06961267
0003a0 2e 75 4f 3c eb af 7a bd 23 93 02 3d 80 4a 7e 3d
       0.012662215 -0.061202925 0.0318786 0.062082767
0003b0 c1 3d 06 3d e7 02 ff 3d 94 8f bf bb 6f 67 ce 3d
       0.032773737 0.124517255 -0.0058459733 0.10078322
0003c0 83 6e 9b 3c 65 4f f2 3d 4d 90 f6 bd b8 86 02 3e
       0.018973595 0.118315496 -0.12039242 0.12746704
0003d0 5e 75 21 be cd 66 47 bd 6c 75 27 3d 0f e2 f5 3c
       -0.15767428 -0.048682023 0.040883467 0.03001502
0003e0 b4 e0 df 3d 14 f5 a2 ba 7c d3 52 bd 04 a3 aa bd
       0.109315306 -0.0012432658 -0.05147122 -0.08331874
0003f0 c2 ed ba bd dc ad a4 3d ce e6 a3 3d f5 77 d6 bd
       -0.0912738 0.080409735 0.08003007 -0.10472099

network_body._body_endoder.seq_layers.2.bias f4 [128]
000000 28 e7 89 bc 79 3b 05 ba d6 d7 94 3c 1c 99 3d 3c
       -0.016833857 -0.00050824095 0.018169325 0.011572149
000010 69 48 2c bd f2 94 fa bc 59 f0 13 3d 24 c5 29 bd
       -0.042061243 -0.0305886 0.036117885 -0.041447774
000020 e7 c1 88 3b df 4b c2 bc d8 55 80 3c eb 4d 17 3c
       0.0041735056 -0.023717819 0.015665933 0.009234886
000030 b7 fb ba bc 1a 30 87 bb b5 ec ec 3b 4e 14 18 bd
       -0.022825105 -0.004125607 0.007230366 -0.03712874
000040 d8 92 bb 3b 0b 20 8b bb 40 2c 74 bc 8f 17 81 3c
       0.0057242922 -0.004245763 -0.014903128 0.015758304
000050 55 6e 07 bc 9b bc 0d bd 87 29 92 bd df a4 eb bc
       -0.008266051 -0.034603696 -0.07136827 -0.02876514
000060 2b d5 62 bc e8 5e ae bc d4 f1 23 bc a6 ad 60 3c
       -0.0138447685 -0.02128549 -0.010006387 0.013713276
000070 e6 d0 2f 3c e7 8b 43 bc 41 98 1e bd 8e 76 94 3b
       0.010730958 -0.011935211 -0.03871942 0.0045307344
000080 89 67 07 3c 7d 7d 7a 3b 13 8a 70 3c 17 6c b6 3c
       0.008264431 0.003822177 0.014681357 0.022268338
000090 81 79 df 3b e4 b7 1c 3c 3c 3f a8 3b 97 da 59 bc
       0.0068199043 0.009565327 0.0051344912 -0.013296745
0000a0 ff e6 40 3d 1f a8 ae bc 1b c4 77 bc dc bc 94 3c
       0.047095295 -0.0213204 -0.015122439 0.018156461
0000b0 56 ef 38 3c 49 a7 ce bb d9 61 33 3d 4b 03 06 bd
       0.011287531 -0.006306563 0.043794487 -0.032717984
0000c0 da c3 58 bc c0 64 48 bc b6 d2 d7 3a 6a 58 2b bc
       -0.013230288 -0.012231052 0.0016465995 -0.010458091
0000d0 fb ec cc bc e3 e6 a2 3c 55 5e 44 3b 9e 24 06 3c
       -0.025015345 0.019885486 0.0029963453 0.008187441
0000e0 a6 78 9e bc 61 95 58 bc 30 33 23 bc ff d7 9e 3c
       -0.019344639 -0.013219208 -0.0099609345 0.019390104
0000f0 5f 04 ca bc 82 db b6 bc d3 9e 30 3b 43 d5 17 3b
       -0.024660287 -0.022321466 0.0026950135 0.0023167885
000100 62 5a 99 bc 55 4f f0 bb f3 25 78 bc 52 75 dd 3c
       -0.018719856 -0.007333676 -0.015145767 0.027033482
000110 c7 bb 29 bb ce 69 6d bc 8d be 36 bc 11 d4 2e 3c
       -0.0025899278 -0.014490558 -0.011153829 0.010670678
000120 aa cb 5a bc cd 8b 02 3d b3 89 07 bd cf ad 8e bc
       -0.013354221 0.031871606 -0.033090305 -0.017416863
000130 98 e1 2e bd 05 7f ce 3b 05 30 e6 3a 8d 8e 9f bc
       -0.04269561 0.006301763 0.0017561918 -0.019477153
000140 7d d5 e3 bb ae 08 0c bc c1 4c 07 3d ab ad 05 3c
       -0.00695294 -0.008546991 0.033032183 0.008159081
000150 b0 b2 3e bd 86 01 b9 3c 03 55 b7 bc aa e8 b3 bc
       -0.04655713 0.022583734 -0.022379404 -0.021961529
000160 dd bb 9d 3c 62 c6 12 bc 8d 0a d4 bb 38 df a1 bc
       0.01925462 -0.008958431 -0.0064709843 -0.01975976
000170 b5 37 f2 39 03 79 1b 3d 14 ea f3 3c 6b fd db ba
       0.00046199342 0.037957203 0.029774703 -0.0016783898
000180 33 22 8a 3c 0e b3 67 bb 82 dd 05 bd b2 3b 1c 3b
       0.01686201 -0.0035354528 -0.03268195 0.0023839292
000190 1b 53 08 bc 3d 4a 9a 3a 49 61 6f bb 11 0f c4 bb
       -0.008320595 0.0011771392 -0.0036526492 -0.0059832414
0001a0 31 b5 e4 bc 2a 41 30 bd 5a 75 3b bd 60 46 26 bc
       -0.02791843 -0.043030895 -0.045766212 -0.010148615
0001b0 12 15 8f ba ab e2 33 bd 5f 6a fb bc e8 ac e2 b9
       -0.0010916314 -0.04391734 -0.03069037 -0.00043234904
0001c0 e0 9c 11 bd 94 68 7c bc 52 2f 35 3d b9 45 89 3c
       -0.03555 -0.015405793 0.04423458 0.01675688
0001d0 5e 95 bc 3b de 6b 9b 3b 52 ac 1a bd 73 1d 19 bd
       0.0057551106 0.0047430834 -0.037761994 -0.0373816
0001e0 64 3e 38 bc 74 18 f9 bc 86 5c 08 3d f3 e1 01 bc
       -0.011245344 -0.030407168 0.033291362 -0.007927406
0001f0 a1 ec 0b bd 63 6d 89 bc 09 5c 15 ba 2e fe b8 bc
       -0.034161214 -0.016775792 -0.0005697613 -0.02258214

action_model._continuous_distribution.log_sigma f4 [1, 2]
000000 14 2d 38 be 95 c1 18 be
       -0.17985946 -0.14917596

action_model._continuous_distribution.mu.weight f4 [2, 128]
000000 97 12 36 ba cb 75 49 3a 74 41 65 bc bb 7d e8 3c
       -0.0006945519 0.0007685094 -0.013992656 0.028380265
000010 bb 75 64 3c 9c 80 df 39 83 88 ae bd 6c 05 5d 3b
       0.013944085 0.00042629696 -0.08522131 0.0033725156
000020 1c 11 c2 bc 38 f2 91 bb c6 22 e1 3c 3f 4d c3 bc
       -0.023689799 -0.0044539236 0.027482402 -0.023840545
000030 3d 9a 38 3c 46 bd 42 ba 16 0b 48 3c 49 ef 92 bb
       0.011267242 -0.00074287166 0.012209674 -0.0044840914
000040 92 a1 e0 bb 90 aa ae bb 44 3f 9b 3c 33 53 fc 3c
       -0.006855198 -0.005330391 0.018951066 0.030801391
000050 16 55 c3 bc 69 26 f0 3c aa 37 91 3c 8e 4e f6 bb
       -0.023844283 0.02931519 0.017726738 -0.0075166887
000060 44 12 8c 3b bb 92 1d bb 84 db 6a bc 0d 29 7c bc
       0.0042746384 -0.0024043757 -0.014334563 -0.015390647
000070 93 f2 fb bc bf 59 4b bc cc 3e 06 bb 00 e6 b0 3d
       -0.030755317 -0.012411534 -0.0020484207 0.08637619
000080 b6 a0 de bc 42 c5 65 bb bf ca 5a 3c 64 ef 0b bd
       -0.027176242 -0.0035060202 0.0133540025 -0.034163848
000090 9b 80 a8 bc 79 7a d1 bc f0 df 86 3d 4e dd 55 3d
       -0.020569136 -0.025571095 0.065856814 0.052213006
0000a0 98 78 3c bd 16 83 a9 ba eb d4 5b 3d 48 0e 33 bc
       -0.046013445 -0.0012932743 0.05366985 -0.010928698
0000b0 e1 b5 97 bc 8f b0 ac bb d0 5b 19 3d 6b a9 f9 bb
       -0.018519344 -0.005270071 0.037441075 -0.007619073
0000c0 c1 26 74 bc 55 e1 17 3d 1b a6 74 bc ab ec 17 3c
       -0.014901818 0.037080128 -0.014932181 0.009272735
0000d0 dd 3a 9a bb 8e 28 4d 3d 7b 15 50 3d 3f d2 54 bc
       -0.004706724 0.050087504 0.050801735 -0.01298958
0000e0 62 61 8e 3a d4 ed 00 3b 98 c1 87 ba 3d b4 58 bc
       0.0010862763 0.0019673007 -0.0010357378 -0.013226566
0000f0 09 28 ac 3c 77 8d 02 ba 2b 3d 15 bc 4f 34 00 bd
       0.021015184 -0.00049801863 -0.009108822 -0.031299885
000100 64 fa 39 bc 7a 16 0a 3b 21 32 21 3d e6 eb 8c bc
       -0.011351202 0.0021070526 0.039354447 -0.017202329
000110 9d 9e 8f bc ab df 5a bc c4 21 c6 3c b8 5c 67 3d
       -0.017531687 -0.013358991 0.024186023 0.056484908
000120 14 cb 6a 3c 63 b4 08 bd 7a 95 5d 3c 2c 75 85 bc
       0.014330644 -0.033375155 0.0135244075 -0.016291223
000130 ae 46 b9 3a a5 c0 01 3a 3f 55 69 3c 7b 65 75 ba
       0.0014135444 0.0004949666 0.014241516 -0.000936113
000140 64 cf 10 3d 7b 17 2e 3c cb c9 91 bc 26 cb 07 b8
       0.035354033 0.010625715 -0.017796418 -3.2375705e-05
000150 3a 33 8e 3c 4c dd a9 b8 e3 25 66 3d 83 ab 86 3c
       0.017358411 -8.099768e-05 0.056188475 0.016439205
000160 87 9e 1f bc eb 2a 93 3c d6 ee 1c 3c 1d ec 6a bc
       -0.009742386 0.0179648 0.009578427 -0.01433852
000170 dc 44 8a 3b d3 53 0a ba 9b b1 1c 3d 40 33 7c ba
       0.0042196345 -0.0005276773 0.038255315 -0.0009620674
000180 10 9b 51 3d f4 9c c5 bc 47 c9 09 bb 72 e9 60 3c
       0.05117327 -0.024122693 -0.0021024512 0.013727533
000190 eb 0f 2a ba 2a 99 ff 3c 8f c7 2d 3d 6c f7 94 bc
       -0.00064873573 0.031200964 0.042426642 -0.018184386
0001a0 33 50 c8 3c 90 cb e9 ba 10 b2 99 3c bb d6 9d bc
       0.024452304 -0.0017837156 0.018761665 -0.01926743
0001b0 fe c6 e5 3b 16 bf 14 bc aa 77 8a 3c c8 62 39 3d
       0.007012247 -0.009078762 0.016902763 0.04526022
0001c0 15 0b 40 3b f3 7f 0e 3d 10 ee b0 3a 67 e6 64 bd
       0.002930348 0.03478999 0.0013498683 -0.05588379
0001d0 52 48 d3 3c 8d 80 97 3c 90 4c 59 bb 08 77 08 bb
       0.025791321 0.018493915 -0.0033157207 -0.0020822901
0001e0 3d 13 75 bc cc 58 75 bb 4e c4 04 3d 56 1f 27 3d
       -0.0149582 -0.003743696 0.032413773 0.04080137
0001f0 dc d1 8a 3c 9e d2 12 bc 03 74 d8 3b b6 f5 8b 3c
       0.016945772 -0.008961348 0.0066056265 0.017084938
000200 12 e1 ae 3c bb e9 8d bb cf 25 81 bc dd cf 30 bd
       0.021347556 -0.0043308414 -0.015765099 -0.043166984
000210 06 ac 50 bc ef b9 d1 ba 73 09 d2 3c 31 ce b9 3c
       -0.012736326 -0.0016000847 0.025639271 0.022681328
000220 bd a9 9b 3c 81 2b b1 bc 03 bb 3f bd 46 b6 bf 3c
       0.019001836 -0.02162719 -0.046809208 0.023402344
000230 e4 55 10 3d e6 96 7a bb d4 8a 15 bd b4 e7 2d bb
       0.03523816 -0.0038236915 -0.03650935 -0.002653581
000240 26 b1 68 bc bb c7 63 bc 33 89 eb bb 54 d8 25 bd
       -0.014202392 -0.0139026 -0.0071879863 -0.04048951
000250 1c 5a 94 3c 10 08 58 3c 32 f5 96 ba 7e 47 42 bc
       0.018109374 0.013185516 -0.0011517166 -0.011857865
000260 0c 59 2d 3d 3d 56 dc 3c 30 e2 05 bb 4f ec 51 bd
       0.04232125 0.02689659 -0.0020429008 -0.051250752
000270 d1 df a8 3c 11 01 66 3c 75 dc 7e ba a5 9c 19 3d
       0.020614536 0.01403834 -0.0009722182 0.037502903
000280 e9 d0 00 3b 43 f4 40 3a f2 cd cd bc fd 55 02 bd
       0.001965577 0.00073606166 -0.025122616 -0.031820286
000290 85 61 b8 bc 45 4e e4 bc 9b ab d2 3c 74 14 71 bc
       -0.022507438 -0.027869353 0.025716593 -0.014714349
0002a0 d9 86 6d 3b c3 c0 b6 bb a9 05 f0 3c 1b 37 50 3b
       0.0036243706 -0.005577178 0.029299574 0.0031771127
0002b0 ca b6 4d 3d 1a f0 6c ba fa 19 a5 3d 02 b1 95 3c
       0.05022315 -0.00090384635 0.08061595 0.01827288
0002c0 12 b2 03 bc 1c 34 af 3c ac 4b 23 bc 66 0e c4 bc
       -0.008038061 0.021387152 -0.009966772 -0.023932647
0002d0 0e f9 db 3c 3f 57 6e bd 32 24 04 bd 98 08 30 3b
       0.026852157 -0.058188673 -0.03226108 0.002686059
0002e0 0e a4 75 3c 3a c7 07 3c 4c 2b fc bb 91 66 2b bd
       0.014992727 0.008287245 -0.007695591 -0.04184586
0002f0 98 99 eb 3c 5e a5 f0 3c 59 52 c2 3b 6d 45 75 bc
       0.028759763 0.029375728 0.0059302268 -0.014970166
000300 d9 1e 15 3b 72 b0 eb bc fe 61 3f 3d 31 58 e0 3c
       0.0022753982 -0.02877066 0.046724312 0.027385803
000310 e6 46 80 bc 6f 53 8e 3a 57 43 96 bc ad f9 7e 3c
       -0.015658807 0.0010858605 -0.018342657 0.015562457
000320 09 31 11 bd 62 8e dc bb cb 70 ad bb 23 9f 2f bb
       -0.035447154 -0.0067308405 -0.005292987 -0.0026797734
000330 8c ac 4e 3b d9 31 9f bb 77 63 34 3d 6b 71 d4 3b
       0.0031535951 -0.004858237 0.04404017 0.006483247
000340 bf b3 0f bd 76 14 38 bc 35 03 b2 bc 06 b8 0b bd
       -0.03508353 -0.011235347 -0.021730045 -0.034111045
000350 b8 15 c6 3c 56 c8 0e bd 6b 05 cf 38 e5 c8 89 3b
       0.024180278 -0.034859024 9.871538e-05 0.0042048567
000360 38 ae a2 bc 0d da 10 3d fb a0 bb bc c0 53 ce 3c
       -0.019858465 0.0353642 -0.02290391 0.02518642
000370 0b 5d 99 bc e2 1d 77 3d 2d e5 de bd 75 dc 3b 3d
       -0.018721124 0.060331233 -0.108835556 0.04586454
000380 bc b5 56 bd 46 7b b7 bb 79 a4 61 3c 43 14 10 bc
       -0.05241941 -0.005599412 0.0137721235 -0.008793893
000390 d0 33 92 bb f0 7d ef bc 1e 10 67 ba 37 65 bf bc
       -0.004461743 -0.029234856 -0.00088143523 -0.023363693
0003a0 44 be b7 bc 04 33 05 bc 46 7e 01 bc 69 2d ba bb
       -0.022429593 -0.008129839 -0.007903641 -0.005681683
0003b0 9d de d0 bc af a8 4c 3b 6c 85 81 3c 6d 85 35 3d
       -0.025496775 0.0031228473 0.01581069 0.044316698
0003c0 25 d0 40 bc 31 1f 05 bc b6 72 85 3d 62 9c 8a 3c
       -0.0117683755 -0.008125112 0.0651602 0.016920272
0003d0 11 7f 28 bd bb 58 ad bc 10 7b 14 3b ef 9c e9 3b
       -0.041136805 -0.021160474 0.0022656359 0.0071293036
0003e0 ae 51 ce 3b 18 04 17 bb 30 de a9 3d 17 bc 03 bd
       0.006296358 -0.0023043212 0.08294332 -0.0321618
0003f0 3d 45 28 3d f7 2d 49 3c fd d1 4c 3c ea 3c ae bc
       0.041081656 0.012279025 0.012501237 -0.02126928

action_model._continuous_distribution.mu.bias f4 [2]
000000 74 fe ad bc 1f 6c 3b 3c
       -0.021239497 0.011439352
