Assets/MoveToGoal.onnx (onnx, 72644 bytes, 7 tensors)

network_body._body_endoder.seq_layers.0.weight f4 [128, 6]
00000000: 55c9 1c3e 26da 72bf 9f82 1e3e 67c2 25be
00000010: 3b1a 88be c6e6 213e 723b bfbe 33e4 793f
00000020: 50ce 1a3f 78f1 fa3d 84f1 22bf 559f 0b3d
00000030: f948 283d 47ea 9c3e 0734 1ebf c28f ccbe
00000040: 4f2e f63e 3667 1a3f 441a 19bf 9519 e3bd
00000050: 64d7 d63e 8320 71bd 049b 69bf 18c3 03bf
00000060: d35c f2be 937a 0d3f 92af 0abe d0ca d53e
00000070: 44f7 ab3e d251 0cbb 0dd2 7cbf 9461 113f
00000080: 4b03 5c3e d46b 063f 7b4d 143e 6df6 013f
00000090: 87ca 933e 0081 8c3e 45c5 09be f6b3 493f
000000a0: eca6 edbd eaac 7abe 6cda 5c3e 2eb2 033e
000000b0: cb3e 3b3d affd c13e d145 ca3e acfe bbbd
000000c0: 81d4 acbc bef7 3b3f 98b5 8a3e 6af7 a53c
000000d0: 5e4c 533e c60d 21bd 998a b23e 6bb3 cebe
000000e0: a911 043f e40a 3ebf 2512 a2bc 2e56 363e
000000f0: 2bb1 12bf daef bbbe 2876 60bc d281 253e
00000100: b06c b8be c020 76bf 425d 8fbd 4a06 96bf
00000110: 489c b7be 2dd5 e73c 46c3 16bf 0579 dd3e
00000120: 7850 053f dd74 1f3e ef27 c63e ab29 4d3c
00000130: 9c10 083e b70c 8b3d 8aab 1a3d dc76 6a3d
00000140: 4a2d 07bf 7f18 6e3e 1cbb a33e a2bf 7a3e
00000150: c8aa a43c 8daf b1bd d9d4 94be a131 aa3d
00000160: ee10 ed3e 99e0 543e 76c7 3c3e fcd3 e9be
00000170: 0b2e e43d 0edd 803d ee91 723e 8a73 34be
00000180: ddf9 21bf affd 913d 4c31 a0be 8890 543f
00000190: 6e90 b8be b10d c0be 7fd5 7dbd 0bc3 8d3e
000001a0: 7296 a83c 5777 8c3d 354c d93b c696 823d
000001b0: fb12 733e c615 013f 046c 4fbe 7590 b6bd
000001c0: 2b37 ce3e 9855 d03c 098b ecbd 04b2 f0bd
000001d0: 8ad7 e63d 0233 833e 65fd a2be 99d9 85be
000001e0: ac9b 113e 9497 3d3e 765e e2bd 5514 a0bd
000001f0: a58f adbe cab5 0d3e b67e 17bf 8116 c23d
00000200: ad1b 1f3e 1fb8 e93e 96fe 87bd 8254 9e3e
00000210: 5e02 363e 09b7 15be 60e7 babc 35ee bfbe
00000220: 88d0 d53d 6d61 dbba 5caa 523f 07dc b7bd
00000230: 8bf8 d23d 1886 a2be 6c8d d73e af87 aa3e
00000240: 2c50 73bc 2818 82bd 5b58 90be 417b e53e
00000250: 5824 9abe d5a0 873e 1817 f3be ff02 a3be
00000260: 7d96 02bf 8641 1f3f 39f9 c5be e19d a9be
00000270: 3959 58be 9e6d d8bd bd1f 603e f30e b33d
00000280: beed f43e 7f6c ddbe 5473 083e 642b 873c
00000290: 9e7b 9b3e afb0 04be 3994 333e a2b9 57bd
000002a0: 4aa2 1a3e 92f2 c43e 6f13 b43d 3326 933e
000002b0: 274d d1be aec2 913e 5656 8bbe 84e9 a4be
000002c0: 7d14 16bf 2d6b d23e 9b31 ad3e dfe8 003f
000002d0: c856 223e 71ba 33bf 20ae 38be 1c6d 5f3e
000002e0: c0d7 22bf 94b4 9bbc 5e05 3c3f 30ab 703e
000002f0: 6f74 83be af40 91bd 04d3 f4be efce 233f
00000300: b68e 41bd 58d5 eabe a432 52bd 3a92 c53c
00000310: 6d2e 203f 217c 0abf a472 80be e24b 35bf
00000320: 0be0 98be 94b6 2e3e 8f00 17bf 219b 7bbd
00000330: 998e 323e c452 a2be 470a b0be 82a2 10bd
00000340: 2846 2abe be35 f33e ce83 f83e 53e3 de3e
00000350: e947 3d3f eacf 813e 5995 153e 60d2 2abf
00000360: 6a9c 1e3f 95e8 b9bd 98f5 283f 98b9 bc3e
00000370: 7667 8fbe 8878 6b3f 0bda d4be 4026 8dbe
00000380: 921b 8c3f 767e 9d3e 030b 0dbd 09b1 3ebd
00000390: 4049 e43e 3c2d 10bf 6bb6 fe3d 3ff0 453f
000003a0: 88dd fabd 756c 7abc 88d9 103e 7a5b 02be
000003b0: 16fb b7be 6c1e af3e bd00 8f3c 32bf f63e
000003c0: 8b2f 22bf 90cb a3be bc9d b33d b51c af3c
000003d0: 6143 1dbf 49cd 243e ecc4 99be e7f8 bfbd
000003e0: 5fe6 123f 4cce a73e 38ad 82be e50e 873d
000003f0: 24df 9d3c 333a 6dbf 9e0b 703d f188 253d
0.15311177 -0.9486412 0.15479515 -0.1618744 -0.26582512 0.1581069 -0.3735004 0.9761383
0.6047106 0.12253088 -0.63649774 0.034087498 0.041085217 0.3064749 -0.6179814 -0.39953429
0.48082206 0.6031374 -0.59805703 -0.11088864 0.41961205 -0.058868896 -0.9125216 -0.51469564
-0.47336444 0.5526516 -0.13543537 0.41756296 0.33587086 -0.0021411073 -0.9875801 0.5678952
0.21485631 0.5250828 0.14482681 0.5076664 0.28865454 0.2744217 -0.13454159 0.78790224
-0.116041034 -0.24480024 0.21567696 0.12860939 0.04571418 0.37888858 0.3950639 -0.09179434
-0.021097424 0.734249 0.2709167 0.020259578 0.206346 -0.039319776 0.34871367 -0.4037126
0.5158945 -0.7423537 -0.019784043 0.17806312 -0.57301587 -0.3670643 -0.013700046 0.16162804
-0.36020422 -0.9614372 -0.070002094 -1.1720669 -0.3586142 0.028299892 -0.58891714 0.43256393
0.5207591 0.15571924 0.38702342 0.012522141 0.13287586 0.067895345 0.03776125 0.05724226
-0.5280348 0.23251532 0.3197869 0.24487165 0.020100966 -0.08676062 -0.2906864 0.08310247
0.4630198 0.20788802 0.18435463 -0.45669544 0.111415945 0.06292163 0.2368848 -0.176222
-0.63271886 0.071284644 -0.3128761 0.8303304 -0.3604769 -0.37510446 -0.061971184 0.27687868
0.02057955 0.068587 0.006631399 0.06376414 0.23737709 0.5042385 -0.20256048 -0.08914272
0.40276465 0.02543144 -0.11549956 -0.11752704 0.112715796 0.25624853 -0.3183395 -0.26142576
0.1421954 0.18514854 -0.11053173 -0.07816378 -0.33898655 0.13838878 -0.5917772 0.094769485
0.15537901 0.45648286 -0.06640355 0.3092385 0.1777434 -0.14620604 -0.022815406 -0.37486425
0.10440165 -0.0016737409 0.822912 -0.08977514 0.10301312 -0.3174293 0.42100084 0.33306643
-0.014850657 -0.06352264 -0.2819241 0.44820598 -0.30105853 0.26489893 -0.47478557 -0.31838223
-0.51010877 0.62209356 -0.38666704 -0.33128265 -0.21127786 -0.10567783 0.21887107 0.08743086
0.47837633 -0.43246838 0.13325244 0.016500182 0.3036775 -0.12958024 0.17537011 -0.052667268
0.15100971 0.38466316 0.08792769 0.2874008 -0.40879175 0.2846884 -0.27214307 -0.32209408
-0.5862501 0.41097394 0.33826908 0.50355333 0.15853417 -0.7020636 -0.18035173 0.21818966
-0.6361046 -0.019007005 0.7344569 0.23502803 -0.2567477 -0.070924155 -0.47817242 0.6398763
-0.04725524 -0.45865893 -0.051317826 0.024117578 0.6257084 -0.54095656 -0.25087464 -0.70818913
-0.2985843 0.17061836 -0.5898523 -0.06142724 0.17437209 -0.3170377 -0.3438284 -0.03531123
-0.16628325 0.4750194 0.4853806 0.4353281 0.7393785 0.25353938 0.14607753 -0.66727257
0.6195742 -0.090775646 0.65999746 0.36860347 -0.28008622 0.9198079 -0.41572604 -0.27568245
1.0945914 0.30760545 -0.03443433 -0.046555553 0.44587135 -0.5631902 0.12437137 0.7731971
-0.12249285 -0.015284647 0.14145482 -0.12730208 -0.3593375 0.34202898 0.017456407 0.48192745
-0.63353795 -0.31991243 0.0877032 0.021375993 -0.6143094 0.16093935 -0.30033052 -0.09373646
0.5738277 0.3277458 -0.2552278 0.06594638 0.01927144 -0.9266693 0.05860483 0.0404138

network_body._body_endoder.seq_layers.0.bias f4 [128]
00000000: 6c62 30bc cb15 96bc 7652 223d 6494 923c
00000010: be57 c7bd ada9 5cbd 7f30 10be dbf4 11be
00000020: 38c0 24bd 7bf5 9fbd c970 53be 2076 febb
00000030: 2154 08bd 6ae4 6ebc 999d 94bc 8363 edbd
00000040: 5b8c 69bd 28c7 9cbd d42e 93bc de1a 01be
00000050: 94f6 1dbe 5544 c8bc 06d1 dfbd 9d4a aabd
00000060: c150 f5bc a822 c8bd dec5 f6bd 4048 bdbd
00000070: b784 c33b 3091 df3d 8352 32be 273d 8bbc
00000080: 6eb2 dbbd 4314 f0bd 09c0 babd 4f1d 80bd
00000090: 5c42 0fbb 9dd1 8dbd 5382 cabd 3af4 723c
000000a0: 13a4 0abd e15a cbbd 7236 dcbd 7c32 97bc
000000b0: d986 cfbb b431 07be bb35 0abe ab9c bdbd
000000c0: 96a2 9dbd f3fb 60bd ff3b 3e3c c940 0cbe
000000d0: 7d06 0cbe 62cd b0bd 92c8 953b 56a2 e7bd
000000e0: bb79 8bbd 1566 31bd c8cf f7bd 990e 36be
000000f0: a024 44be 1260 2dbe 05f9 98bd 1fb5 d6bd
00000100: 0034 09be b151 bebd f936 453b de15 f93c
00000110: 2593 9ebd 05cb b2bd 19c1 43be 8a13 f1bc
00000120: 7b9b c7bd 957d 3fbe 1d77 58bd 6b5d 50bd
00000130: c73f 69bd 6b46 36be 7cfe d6bd a2c5 143c
00000140: 8885 bfba c5f0 2dbd 8a5a 23be 5db6 45be
00000150: 505b 39be 0dc1 8ebd 3324 87bd cf5b 01be
00000160: adae debd ae71 97bd d600 82bd 97f4 01bd
00000170: acca edbd 099c efbd 7ea2 0ebd dd6d babd
00000180: ca47 afbd 232a 56bd 490a b03d 2bff b0bc
00000190: f830 85bd 8f94 d4bd 18df 9e3c 1bcd 6fbd
000001a0: d457 27bd b4bc 62bd 4b9e a4bd 7269 21be
000001b0: 6c15 ffbc b6d8 edbd 3064 42bd 0834 62bd
000001c0: ae2d febd 04aa a8bc 5de1 5bbd 1317 28be
000001d0: 7209 86bd 9f69 0bbe 327d 58bd 2bc4 d1bd
000001e0: eba1 60bd 45a1 32bd 881e 7d3c 300c d5bd
000001f0: 60a2 b9bd 4388 c3bd 4df1 edbd 1029 09be
-0.010765653 -0.018320939 0.039629422 0.017893024 -0.09733532 -0.053872753 -0.14081 -0.14253561
-0.040222377 -0.078104936 -0.20648493 -0.0077655464 -0.033283357 -0.014580825 -0.018141555 -0.11591246
-0.05701862 -0.076551735 -0.017966665 -0.12607905 -0.15426093 -0.024446646 -0.1092854 -0.083150126
-0.029945733 -0.09772235 -0.12049459 -0.09242296 0.0059667486 0.10916364 -0.17414288 -0.016996933
-0.10727392 -0.117226146 -0.09118659 -0.0625559 -0.0021859622 -0.06924746 -0.098881386 0.014828736
-0.03384788 -0.09929443 -0.10752572 -0.01845669 -0.0063332138 -0.13202554 -0.13497059 -0.09258398
-0.076970264 -0.054927777 0.011610984 -0.13696589 -0.1367435 -0.08632924 0.004571029 -0.1131026
-0.068103276 -0.043310244 -0.12100178 -0.17779006 -0.19154596 -0.16931179 -0.07469372 -0.10483765
-0.13398743 -0.09292925 0.003009258 0.030405935 -0.07742909 -0.08730129 -0.1911663 -0.029428262
-0.097464524 -0.1870025 -0.05284797 -0.05087034 -0.05694559 -0.178003 -0.10497758 0.009080322
-0.0014611939 -0.042465944 -0.15952507 -0.19307847 -0.18101239 -0.06970415 -0.06598701 -0.12632678
-0.108731605 -0.073947296 -0.06347816 -0.0317274 -0.11610922 -0.11699683 -0.034822933 -0.09102986
-0.085586146 -0.05228628 0.08595712 -0.021606049 -0.06503481 -0.10379898 0.019393489 -0.058545213
-0.040855244 -0.055355743 -0.080380045 -0.1576288 -0.031138144 -0.116136 -0.047458827 -0.055225402
-0.124110565 -0.020588882 -0.05368172 -0.16415052 -0.0654477 -0.1361451 -0.05285377 -0.10242494
-0.054841917 -0.04361083 0.015449174 -0.10402715 -0.09064174 -0.09547474 -0.1161829 -0.1339457

network_body._body_endoder.seq_layers.2.weight f4 [128, 128]
00000000: a265 9abd c020 05be cdb5 82bd 6fde 1dbe
00000010: fa46 213d b638 84bd 8626 96bd cfe8 e83d
00000020: e025 c13d 8e20 be3d 24ad 793c 403c a1bd
00000030: 586d f9bc e44a 4eba a09a d73d 4a2f 14bd
00000040: 6aa9 e1bd 9b6b 6fbd f694 de3d 75e8 7bbd
00000050: 2d13 18bc d6ef e3bc 9d49 0dbd b342 cbb9
00000060: e386 21bd 5ae9 0abe 412f 3e3c 5814 26bc
00000070: 1c6e c4bd be7e 8dbd 1230 d4bd da5b 503c
00000080: 476f cebc e56d ba3d 86c4 c13d 7b75 87bd
00000090: 0d16 e83d 04f3 81bd 058a e53d 59b8 423d
000000a0: 3136 32be 7c2f c83d 6f1c 30bc bc06 33be
000000b0: e46c b53d 83e4 99bc d1b4 debd 1514 db3d
000000c0: daa5 a9bc e3ad a43d ba60 17be 2901 d8bd
000000d0: 90cd 713d 8b98 1a3e ac9a 40bd 280d aabd
000000e0: e232 1abe 1b30 693d 280b 4fbc d9c3 a9bd
000000f0: 663f 3d3e aace 9b3d 5343 c73d 6412 723d
00000100: 135b 233d 3627 b0bc ddef 82bc bc4a e93d
00000110: c9bc 8bbd d3fc 2c3d 6efe 8c3d 0284 93bc
00000120: ba02 aebd 6b72 3c3c d093 d4bd 4aac 223d
00000130: 5c7c 14be 9914 5bbd a0ab c23d c7b2 c73d
00000140: e8d6 b5be e59e 853d b09f d0bb d064 853d
00000150: 4c65 37bd cd30 f0bd fffe 63be 30c5 0fbe
00000160: 31eb 86bd ebd4 683c 893b 4dbe a755 4fbd
00000170: be9f 4f3d 99b4 9abd ed4e 293d 979f c13c
00000180: 2817 eabb ccf2 d2bd 73e0 11bd 75af 533d
00000190: 5621 0ebd 9a13 b43c 0788 34be 8684 10be
000001a0: b51e 07bd db1f a7bd 2c87 ebbd 79ed bebd
000001b0: 938d 1abe b652 56bc 59db fc3d dfbc a63c
000001c0: d000 563d 9dc1 a9bd e532 98bd 047c 45bd
000001d0: 5ba0 61bd 52e5 23be b96e 033d 53fc b3bd
000001e0: 3564 573e 5ba7 26be 54a1 b4bd 4fa7 10be
000001f0: 6c43 d8bd ee7b a7bd c977 11bd 4805 0fbe
00000200: 7b25 60be 54bc d93c 8815 803d 4216 42bd
00000210: d767 0c3e 6981 133e 5bc8 7abd 9885 25bb
00000220: 0326 8d3c 2783 f8bd 10c1 7abe 5f45 17be
00000230: 643c debd e7d2 f7ba 80f4 c13d 9288 2e3c
00000240: 4d2c 9e3d 5b5f 2d3e 8e34 06be c7c7 53bd
00000250: 22a0 f6bd e938 f53d 03b8 b6bd dc75 82bd
00000260: 13e9 463e d106 fdbd e96d 12bc 113c 463d
00000270: 6a19 9b3d f251 593d cbea b1bd 8150 0abe
00000280: 9bda 00be e409 c53c a5ba c2bd ca87 a6bd
00000290: a19b eebd 37cd 04bc 0f37 9dbd be32 013d
000002a0: 18fe 7ebd 8ae6 473d 26ea 6abd fb43 6bbd
000002b0: d57a 02be 1b70 ac3d 4039 9fbd d097 d23d
000002c0: 3bb2 c8bc 4516 c5bd f950 453e 84e8 323d
000002d0: dcf3 23be d553 3b3d e3f7 9a3d 3fca c5bc
000002e0: a335 dbbd c1a2 8b3d 03fd 21bd 7d4e 5cbe
000002f0: 3f33 42bd 1ca3 9ebc e848 bf3c 36db 93be
00000300: a554 413d f3f8 bb3d 61d1 b9bd 446f dbbc
00000310: 414b 04bd 8dad 94bd 961c 71bd e567 93bd
00000320: 8dd9 eabd 94a5 9cbc 146a 54be 5001 a33e
00000330: bc7e 3e3e 6d1c 933d bee7 a53c 1019 973b
00000340: 3dd9 423c 7be4 513c fc56 72bd 0d65 f93d
00000350: 64e2 24bd 6936 163d d3a3 093e 5cd0 843c
00000360: 807a 6c3d b29f ce3d 718b 923e ba0f 753e
00000370: b54c 2cbd 75a4 8bbc d182 cf3d ece1 b0bd
00000380: 6243 31be 6b4a bcbd 2eaf adbd 0c14 923b
00000390: 15bb 2b3d dc23 99bd 0c73 b1bd 45a0 00bd
000003a0: c0bb db3a 7c22 12be a7e3 e9bd a149 19be
000003b0: 72bd 70bb 922c d13d ca66 00be 41af 07be
000003c0: b0b8 023d c4c5 873d 8c71 08bd 9635 c8bb
000003d0: 3432 00bb cdd1 87bd e96f b8bc 011a f6bd
000003e0: 8d60 a5bd 483b 93bd 3de4 123e b76a 603d
000003f0: 20c2 f83d 0d6e fbbb a878 a0bd 45e8 3a3d
-0.07538916 -0.13000774 -0.06382332 -0.15416883 0.03937433 -0.06456129 -0.073315665 0.1137253
0.09431052 0.09283553 0.015239034 -0.0787282 -0.030447647 -0.0007869436 0.10527539 -0.03617791
-0.11018641 -0.05845223 0.10868256 -0.061500985 -0.009281916 -0.027824324 -0.03449403 -0.00038768872
-0.03943528 -0.13565579 0.011607946 -0.010136686 -0.09591314 -0.0690894 -0.10360731 0.012717212
-0.025199546 0.09102992 0.09461312 -0.066142045 0.11332331 -0.0634518 0.11207966 0.04753909
-0.17403485 0.09774682 -0.010748967 -0.17483038 0.0885866 -0.01878572 -0.10874332 0.1069719
-0.020708967 0.08040979 -0.14782992 -0.10547096 0.05903393 0.15097253 -0.047022507 -0.083032906
-0.15058473 0.056930643 -0.012636937 -0.08289308 0.18481216 0.076077774 0.09729638 0.05909957
0.039881777 -0.021503072 -0.015983516 0.113912076 -0.06823117 0.0422333 0.06884466 -0.018007282
-0.08496614 0.011501889 -0.103797555 0.03971509 -0.14500564 -0.05348644 0.09505391 0.09750896
-0.35515523 0.06524447 -0.0063666925 0.06513369 -0.04477434 -0.11728058 -0.22265242 -0.14040065
-0.06587828 0.01421092 -0.20042242 -0.050618794 0.05068945 -0.075539775 0.041335035 0.023635669
-0.0071438737 -0.10300216 -0.035614442 0.051681 -0.03469976 0.021982003 -0.17630015 -0.14113054
-0.03298827 -0.08160373 -0.11500391 -0.09322638 -0.15093069 -0.013081243 0.12346525 0.020353733
0.05224687 -0.08288882 -0.07431582 -0.048213974 -0.055084568 -0.16005448 0.032088015 -0.087883614
0.2103432 -0.16274779 -0.088198334 -0.14126323 -0.10559735 -0.081779346 -0.035514627 -0.13966858
-0.21889298 0.02657906 0.06254107 -0.047384508 0.13711487 0.14404835 -0.06122623 -0.002525663
0.01723004 -0.1213439 -0.2448771 -0.14772557 -0.10851362 -0.0018907458 0.09470463 0.010652678
0.077232935 0.16930906 -0.13105986 -0.051704194 -0.12042262 0.119737454 -0.08921816 -0.06370136
0.19424848 -0.12354816 -0.008937337 0.048397128 0.07573207 0.053056665 -0.08687361 -0.13507272
-0.12583391 0.024052568 -0.09508256 -0.081313685 -0.116507776 -0.008105568 -0.07676517 0.031542532
-0.06225404 0.048803844 -0.057352208 -0.057437878 -0.12742169 0.0841982 -0.077745914 0.10282862
-0.02449905 -0.09623388 0.1926917 0.043678775 -0.16010994 0.045734245 0.07566812 -0.02414429
-0.1070359 0.06818152 -0.03954793 -0.21514316 -0.047412153 -0.019364886 0.023350194 -0.28878182
0.047199864 0.09178343 -0.09073139 -0.026786454 -0.03229833 -0.07259665 -0.058865152 -0.07197551
-0.11467276 -0.019121923 -0.2074359 0.3183694 0.18603033 0.07183156 0.020252105 0.004611142
0.011892614 0.012810822 -0.059164986 0.12177477 -0.040254965 0.036672983 0.134414 0.016212635
0.057734013 0.10089053 0.2862201 0.2393178 -0.04206534 -0.017046193 0.10132373 -0.08636841
-0.17310861 -0.091938816 -0.084806785 0.004457956 0.041926462 -0.07477543 -0.086645216 -0.031402845
0.0016764328 -0.14270967 -0.11420374 -0.14969493 -0.0036734012 0.10213579 -0.12539211 -0.13250448
0.031914413 0.06629518 -0.03331141 -0.0061099036 -0.0019561173 -0.06631813 -0.0225143 -0.120166786
-0.08075056 -0.071890414 0.14344878 0.05478927 0.121464014 -0.007673031 -0.07835513 0.045631666

network_body._body_endoder.seq_layers.2.bias f4 [128]
00000000: 684d 15bc a2e4 a43c cff1 85ba b065 14bd
00000010: 4ffe 343d e267 70bd 52d9 b1bc e0b3 70bd
00000020: c955 253e 02c2 4f3d 445f 4ebc 9beb 183d
00000030: fab4 84bd 9a73 46bc 2292 223d 5647 c4bb
00000040: 2664 7bbd f727 ea3d 4771 58bb e1e2 113d
00000050: 7ab5 20bd 1c92 b03c 7628 ea3c 8a1d 5e3d
00000060: 6c4e d9bd f9a8 28bd 1b19 113d 6a00 813d
00000070: dace 553c 982b ed3b 03e3 9d3c e4a5 de3d
00000080: ed62 b23d e4a1 a33d 793e aebc 7199 40bd
00000090: 7758 b23c e813 90bc 0b53 e33d bd0a bb3d
000000a0: da72 383c a5fa 083e 76ed 44bc 0f68 29bc
000000b0: e699 9e3c f3f3 053c 8a76 0b3d 3dbe 0f3d
000000c0: 30b9 873d 3044 b33b f2c1 c23b 1a2e 003d
000000d0: cd9f 3c3d 44f8 3c3d f352 b03d cc09 83bb
000000e0: f290 a3bd 09d8 783d aeaf 553c 5853 6ebd
000000f0: 113a b6bc be8d fe3b 70a0 803a befe 42bd
00000100: c6e4 453d b246 f6bb b0d8 863c d8c5 873d
00000110: d5f5 afbb f13e 853d c6a4 823b ea08 763d
00000120: 6487 663d 8269 f23b 0a1a 993c af27 c93d
00000130: 1c90 353d 3447 81ba 8d16 cfbc 1c6c bcbc
00000140: edfe 693d d6ae 3f3d 8430 dfbc 9e30 cabc
00000150: 6ca2 56bc 5013 2c3b 57c0 ed3b 8244 933b
00000160: 22c9 e13d c60a 08bd a651 b53d 160c bbbb
00000170: 86e1 a93b f700 f43c 79fb 9e3c d7c8 403d
00000180: fd83 9e3d c1b1 393c a77f 823c 018d b4bc
00000190: 1680 003e a84b 133c 93e0 1a3d 5034 243c
000001a0: af18 5ebc d461 d33c 49c6 91bd f9c3 9c3c
000001b0: 0fa6 0b3d 6876 d73c e59f d83d d5e0 073d
000001c0: e609 dd3d 2a86 083d faff d33c a8bc 793d
000001d0: 72b8 213d d590 273c 6f4b 573d 8b93 4c3d
000001e0: 10b4 cbbc 4d89 9dbc 4999 653d 77ec 333b
000001f0: d647 0d3d 8d6c 923c 73e6 13bc bd1d 8a3d
-0.009112693 0.020128552 -0.0010219159 -0.03622979 0.04418784 -0.05869282 -0.021710072 -0.058765292
0.16146006 0.05072213 -0.012595955 0.037334066 -0.06479831 -0.0121125225 0.039690144 -0.005989949
-0.061374806 0.11433404 -0.0033026503 0.03561676 -0.03923557 0.021554045 0.028583746 0.05422739
-0.10610661 -0.04117677 0.035424333 0.06298907 0.013049806 0.007237863 0.019273287 0.10871485
0.08710275 0.079898626 -0.021270024 -0.047021333 0.021770699 -0.017587617 0.110998236 0.091329075
0.0112578515 0.13376863 -0.012019506 -0.010339751 0.019360494 0.008175838 0.034048595 0.035093535
0.066271186 0.005470775 0.0059435302 0.031293966 0.046050835 0.046135202 0.08609571 -0.0039989706
-0.079866305 0.060752902 0.013042374 -0.05818495 -0.022244485 0.007768362 0.0009813439 -0.047606222
0.04831388 -0.0075157518 0.016460747 0.066295326 -0.0053698816 0.06506146 0.0039869277 0.060067095
0.056281462 0.0073978314 0.018689174 0.09822022 0.044326887 -0.0009863139 -0.025279308 -0.02300077
0.05712788 0.046797596 -0.027244814 -0.024681386 -0.013100248 0.0026256628 0.0072555947 0.0044942508
0.11024691 -0.0332134 0.08853464 -0.005708228 0.005184355 0.029785616 0.01940702 0.047066536
0.077400185 0.011333884 0.01593001 -0.022039892 0.12548861 0.008990206 0.037811827 0.010022238
-0.01355569 0.025803484 -0.07117898 0.019136416 0.034093913 0.026301578 0.105773725 0.0331734
0.107929036 0.033331074 0.025878895 0.060970932 0.03948254 0.010227402 0.052562173 0.049945395
-0.024866134 -0.01923051 0.056054387 0.0027454176 0.034492336 0.017874027 -0.009027111 0.067439534

action_model._continuous_distribution.log_sigma f4 [1, 2]
00000000: dcff a0bd 9175 d6bd
-0.07861301 -0.10471643

action_model._continuous_distribution.mu.weight f4 [2, 128]
00000000: b0d4 68bd b70b 793d fbb0 7dbd 594d ddbb
00000010: 2032 85bd 3d2f 72bc b592 87bd 3ef6 95bc
00000020: a5fe fe3d c587 a1bc 7442 1dbd 74c4 cdbd
00000030: 22fe 10bd 8105 52bd 38fd 8d3c 2fbe 853b
00000040: 4fac 6ebd 4658 d03c 6f54 b2bc ea2f 8bbc
00000050: 29c8 3bbd d56e 4fbd b4aa 513c 05f3 97bd
00000060: 3552 dd3c 1963 333c 38ca f63c 0b76 0bbe
00000070: 05ef 92bc 196c b0bd 8824 533c 80bf 55bd
00000080: fa8d 913d e088 993d 689b 233c fa03 11bc
00000090: 6e52 bb3c f6e0 15bd 7fca d8b9 4b38 7b3c
000000a0: d08e cfbd 98f8 f63d ec02 94bd 8256 9ebd
000000b0: b9e1 503d c983 1a3c db11 173d 3723 44bd
000000c0: e922 303d 55c5 81bd 0c93 6b3c ffb2 203c
000000d0: a9bd 923b b5ae e2bd 0564 d43b 6d61 68bd
000000e0: 1d6d 0cbc f72a dd3c f562 99bd cd3a 65bd
000000f0: 711e ff3c 8791 7cbd e18a 3f3c dca4 b13c
00000100: 6675 dabc 20f5 89bd 7bb3 9fbd 5fd7 cebd
00000110: bd2a e1bc 5aef abbc 65d7 72bc 2fd6 f0bd
00000120: dc03 de3b 8550 c7bc 24b7 ad3c 538c a23d
00000130: e501 153d 9295 ef3b 9d3b 66bd 7880 93bd
00000140: 4e9c 7fbd c0df 98bd e11f 37bd 7417 3fbd
00000150: c72b 50bd 44ad 303c 29cd aebd fe6a 1bbd
00000160: ad4b f03d a95a e4bc acac a83d a2e9 37bd
00000170: 3037 de3c 7ae8 3a3d 6001 d8bd e8bb 343d
00000180: 7872 c83d 2938 9abd cf95 d9bb b24d 8bbb
00000190: 5241 59bd f97f 87bd 2389 94bd a432 0fbd
000001a0: d407 a9bd 640b 873d a375 933c d9ea 00be
000001b0: c5e4 d1bd 2936 75bd 6b4d f13c 9bec dabd
000001c0: bd5e 523d 436e afbc a227 cabd 3579 78bd
000001d0: 9457 c5bd 5e62 5fbd b888 01be 9df2 743d
000001e0: 6899 97bd 5f56 2dbd 027f 9fbd 36d3 b23b
000001f0: 942a c5bc 0195 7fba 331f 8fbd 4c2e 953d
00000200: 6660 0e3d fe59 283a 20b7 663d fb6a 5abd
00000210: e68f 753d d458 323c d7ef b8bc 6019 a43c
00000220: fdfd 35bd c372 b7bd dc8b dd3c fcb0 f1ba
00000230: 9140 623d 05e3 273d d9fb e7bd e326 48bc
00000240: ed99 0f3d 0794 1a3e 809e 3a3d 06c9 a73d
00000250: 27ff 013d 9ee1 463d 89b9 b7bd 55de 813d
00000260: 152a 053c 2deb 143d 8d15 753d 5e8e 143d
00000270: d6ba 59bd 8b20 093d 9afd adbd 0b63 d03d
00000280: 5ade 893d 759e 6e3d c966 603d 4e9b 2dbd
00000290: f5b8 e7bd 9aaa 8bbd 2423 de3d ae08 923d
000002a0: 9869 5abc 505a 3cbd 5ef6 083d ac3c 963c
000002b0: 5eb0 833d 6d19 18bc 526c a23d 81a3 493d
000002c0: 406e b13d d434 ccbc 9de8 7cbd a8c7 b5b9
000002d0: bbda 633d 8f0a b43b b3cd 05be 0ebe 443d
000002e0: db9f 253c 28b4 d0bd 39fa 1c3d 222b 9f3c
000002f0: c522 f83c 521e 94bd 7a21 efbd 687b 173d
00000300: d402 a6bd ec66 263d e59b 8d3b 28d0 1bbb
00000310: 3585 96bd 5152 d5bd 93a4 8cbd 42eb f6bc
00000320: 403c a03d 90c4 81bd c09f 6c3b e458 993b
00000330: b6fe 83bd 68a3 ecbb 3d5f 9d3c 401a 7e3c
00000340: 6248 cf3d 8670 83bd e789 2c3d 02d9 633d
00000350: 1c3b c33a e91d cdbd f75a 313d 5cdf 34bd
00000360: 29f7 563d 068d 113d 0779 20bd 6334 a0bd
00000370: d224 79bd 2002 a6bd 264f 71bc 4805 b0bd
00000380: 64de 57bd d680 2fbd ceb6 74bd cd6f fdbc
00000390: 51ec 053e bbf8 763d 21c7 eabb 4d0b 333d
000003a0: cbcb 07bc fbae 9d3d 39f8 29bd 4997 adbc
000003b0: 61bc f73c 81a9 5e3d 5697 15be 634f ce3c
000003c0: 9bf3 963d d0d4 86bd 0b02 833c 6988 8d3d
000003d0: a0f9 f03c 9f71 07bd 55b1 74bc 80eb a7bc
000003e0: dbc1 8d3b dbcc 433d c534 a0bd 55b1 b7bd
000003f0: 8e3e 3abd 11ea b23d 8247 433c 4023 843d
-0.05684346 0.060802188 -0.06193636 -0.0067536053 -0.06503701 -0.01478177 -0.06619779 -0.018305894
0.12450913 -0.01971806 -0.038393453 -0.10047236 -0.03539861 -0.05127478 0.017332658 0.0040815095
-0.058269795 0.025432717 -0.021768777 -0.01699062 -0.045845184 -0.050642807 0.012797046 -0.07419399
0.027016738 0.01094892 0.030125722 -0.13619249 -0.017936239 -0.08614368 0.012887128 -0.05218458
0.07107158 0.0749681 0.009985782 -0.008851046 0.022866454 -0.036591493 -0.00041349602 0.0153332455
-0.10134661 0.12059134 -0.0722712 -0.07731344 0.050996516 0.009430834 0.036882263 -0.047885146
0.043002043 -0.06336466 0.01437832 0.009808301 0.0044781757 -0.11068479 0.00648165 -0.056733537
-0.0085709365 0.026998026 -0.07489578 -0.05596428 0.031142445 -0.061662223 0.011690826 0.021685056
-0.026667308 -0.06736207 -0.07797905 -0.100996725 -0.0274862 -0.020988155 -0.014821862 -0.11759602
0.0067753624 -0.024330387 0.021205492 0.07936921 0.03637876 0.0073115313 -0.056209195 -0.07202238
-0.062404923 -0.07464552 -0.044708136 -0.046653226 -0.050823 0.010783497 -0.08535225 -0.037943833
0.11733184 -0.027875261 0.082360595 -0.044900544 0.027125925 0.045631863 -0.10547137 0.044124514
0.09787458 -0.07530243 -0.006640173 -0.0042512054 -0.05304081 -0.06616206 -0.07252719 -0.034960404
-0.08253446 0.065939695 0.01800043 -0.12589587 -0.102487125 -0.059866104 0.029455861 -0.1068966
0.05135988 -0.021414882 -0.098708406 -0.060662467 -0.09635845 -0.05453717 -0.1264981 0.059801687
-0.07402307 -0.042318698 -0.07787897 0.005457307 -0.024068154 -0.00097496813 -0.06988373 0.07284221
0.0347599 0.0006422101 0.056326985 -0.05332468 0.059951685 0.010885436 -0.022575302 0.020031631
-0.044431675 -0.08957436 0.02704423 -0.0018439586 0.055237357 0.040987987 -0.11327333 -0.012216303
0.035058904 0.1509553 0.045561314 0.08192639 0.031737473 0.04855501 -0.08970935 0.063412346
0.008127709 0.036357094 0.059835006 0.036268584 -0.053156696 0.0334783 -0.08495636 0.10175141
0.06731863 0.058256585 0.054785524 -0.04238444 -0.11314575 -0.06819649 0.10846546 0.07130562
-0.01333084 -0.045984566 0.03343808 0.018339477 0.06430124 -0.009283406 0.07930817 0.049228195
0.08663607 -0.024927534 -0.061745275 -0.00034671766 0.05562852 0.0054944227 -0.1306675 0.048032813
0.010108913 -0.10190612 0.03832457 0.019429747 0.030290017 -0.07232346 -0.11676307 0.036982924
-0.08106008 0.040625498 0.0043215626 -0.0023775194 -0.07349626 -0.10416091 -0.068673275 -0.030141477
0.07823992 -0.063363194 0.003610596 0.004679786 -0.06445067 -0.007221628 0.019210452 0.015509188
0.10121228 -0.064179465 0.0421237 0.055626877 0.0014894935 -0.100154705 0.04329964 -0.044158325
0.052481804 0.03553488 -0.03917792 -0.07822492 -0.06082613 -0.08105874 -0.014728343 -0.08594757
-0.052702323 -0.042847477 -0.05974465 -0.0309371 0.13078429 0.0602958 -0.0071648513 0.04371195
-0.008288334 0.076993905 -0.04149649 -0.021190302 0.030241193 0.05436087 -0.14608511 0.025184339
0.07370683 -0.065835595 0.015992185 0.06910784 0.029415905 -0.033067342 -0.014934857 -0.020498037
0.004326088 0.047802787 -0.07822565 -0.0896937 -0.045469813 0.08736051 0.011918904 0.06452036

action_model._continuous_distribution.mu.bias f4 [2]
00000000: 7cdf ff3c d11b d0bb
0.031234495 -0.006350972
